results/base_ga_bs8_sl90_ep5/best model.pt (torch_old, 166230 bytes, 5 tensors)

lstm.weight_ih_l0 f4 [400, 1]
0	0x3e26bf0e	0.16283819
1	0xbd9e2431	-0.07721747
2	0x3e4bf714	0.19918472
3	0xbe489bbe	-0.19590661
4	0xbe61fde7	-0.22069512
5	0x3ea76cad	0.327001
6	0xbd8d2f5c	-0.06893799
7	0xbda64216	-0.08118074
8	0xbdc5772c	-0.09641871
9	0x3cf70ab0	0.030156463
10	0xbe6b87e4	-0.23001057
11	0x3ca02504	0.0195489
12	0x3e53ff1a	0.20702782
13	0xbeb2637d	-0.3484153
14	0x3e0c881c	0.13723797
15	0xbd2a2b9d	-0.0415455
16	0x3d34b266	0.044115447
17	0x3db1cb72	0.08681382
18	0x3d3cb848	0.04607418
19	0xbe177a52	-0.14792755
20	0x3ee79e21	0.4523783
21	0x3d901167	0.07034569
22	0xbe1d437b	-0.15357773
23	0x3daac736	0.08338778
24	0xbe3b0e70	-0.18267226
25	0x3e9077cc	0.28216398
26	0xbd4fd3ce	-0.050739102
27	0x3d8acd86	0.06777482
28	0x3d566462	0.052341826
29	0x3e69d2eb	0.22834365
30	0xbb99bf90	-0.0046920255
31	0x3d83ae63	0.06429746
32	0xbdca8a6c	-0.09889683
33	0x3c3f74b4	0.011685539
34	0xbdb6d184	-0.08926681
35	0x3d97d51e	0.07413696
36	0x3cdfa6c0	0.027301192
37	0xbd0825e2	-0.033239253
38	0x3dee4330	0.11633909
39	0x3e76c7f6	0.24099717
40	0x3d901e48	0.07037026
41	0x3d8a574c	0.06754932
42	0xbde13310	-0.109960675
43	0xbdd3388e	-0.10313521
44	0x3d243a6c	0.040094778
45	0x3df684bf	0.12037038
46	0xbe945cde	-0.28977102
47	0x3dcffb72	0.10155381
48	0x3c4d42f0	0.012528166
49	0xbe5d8534	-0.21632844
50	0x3d960e88	0.0732699
51	0xbe1ae58e	-0.1512663
52	0x3dd31748	0.10307175
53	0xbde12449	-0.10993249
54	0x3e5ac4b1	0.21364094
55	0x3dd1cd68	0.10244256
56	0xbde85300	-0.11343956
57	0x3e470aec	0.1943776
58	0xbe072f35	-0.13201602
59	0x3d55ef44	0.052230135
60	0xbe049bea	-0.12950101
61	0x3daf9fe6	0.0857542
62	0x3d0f4699	0.034979437
63	0xbe0ddf7a	-0.13854781
64	0xbcab7692	-0.020930562
65	0xbd8e6e69	-0.06954653
66	0x3d736473	0.059421968
67	0x3d4d1d9a	0.05007706
68	0x3e39e6e6	0.18154487
69	0x3e3bf5f5	0.18355544
70	0x3e73a0e0	0.23791838
71	0xbc334e74	-0.010943998
72	0xbd00255f	-0.03128564
73	0xbd54673e	-0.051856272
74	0xbe04105a	-0.12896863
75	0x3b9b4d40	0.0047394335
76	0x3db2ac73	0.08724298
77	0x3d802e16	0.0625879
78	0x3d8ba27f	0.06818103
79	0x3e3e6bb6	0.18595776
80	0xbe217b70	-0.15769744
81	0xbe008df9	-0.12554158
82	0x3e0f3bc9	0.1398765
83	0x3de27c94	0.11058918
84	0x3e25f7a1	0.16207744
85	0x3c0340e6	0.008011078
86	0xbec0dea6	-0.37669867
87	0xbdb69af6	-0.08916275
88	0x3df197a3	0.117965005
89	0xbda87665	-0.08225707
90	0xbe2069b9	-0.1566533
91	0x3dc18a86	0.094502494
92	0x3e4149dd	0.18875833
93	0x3cfa445a	0.03055017
94	0xbbbbb6f0	-0.005728595
95	0x3df4c5e0	0.11951804
96	0x3dfd3f00	0.12365532
97	0x3c163cb0	0.009169742
98	0xbe0f8f3f	-0.14019488
99	0x3d880b42	0.06642772
100	0x3d444e31	0.04792613
101	0x3e2816b2	0.16414908
102	0x3d9486a6	0.07252245
103	0xbe5f6d04	-0.2181893
104	0x3aec8680	0.0018045455
105	0x3e88beca	0.2670806
106	0x3d064b72	0.032786794
107	0xbe00cc10	-0.12577844
108	0xbeae3c9e	-0.34030622
109	0xbdaa2251	-0.083073266
110	0x3da0f462	0.07859112
111	0x3d899c31	0.06719244
112	0x3de4fabb	0.111806355
113	0xbdcc1e76	-0.099667475
114	0x3d8f4bca	0.069968775
115	0xbe651b26	-0.22373638
116	0x3d88f453	0.06687226
117	0xbdcc9648	-0.099896014
118	0x3d8e8a12	0.069599286
119	0xbe017cb8	-0.12645233
120	0xbd27684e	-0.040870957
121	0xbe84e320	-0.25954533
122	0x3c78b578	0.015179984
123	0x3e80e12d	0.25171795
124	0x3c656e90	0.014003411
125	0x3e5b67ea	0.21426359
126	0x3dfcb66a	0.1233948
127	0xbda0892a	-0.07838662
128	0x3e4f9eb0	0.20275378
129	0xbd17e722	-0.03708566
130	0x3cf5a79a	0.029987145
131	0xbe1e88ab	-0.15481822
132	0x3ebb0e7c	0.36534488
133	0x3e22850e	0.15871069
134	0x3e0777c8	0.13229287
135	0x3e2373e4	0.15962178
136	0x3d6621a3	0.056184422
137	0x3e109328	0.14118636
138	0xbc4fc048	-0.012680121
139	0xbd94e7ae	-0.07270752
140	0x3e14d6ea	0.14535108
141	0xbd4b5524	-0.049641743
142	0xbd19753c	-0.03746532
143	0x3cd182e4	0.025575109
144	0xbda69577	-0.08133977
145	0x3c8dec17	0.01732449
146	0xbda6b657	-0.08140247
147	0x3dbd8e62	0.09255673
148	0xbec29c72	-0.38009983
149	0xbd5ca576	-0.053868733
150	0xbdedbbb3	-0.116080664
151	0xbdb29370	-0.08719528
152	0x3e9ca7ac	0.30596673
153	0xbe9855a6	-0.29752845
154	0x3e170537	0.14748083
155	0xbe58c357	-0.21168266
156	0xbd8d076f	-0.068861835
157	0x3e88207a	0.26587278
158	0x3e0a8d96	0.13530573
159	0x3e2cfc08	0.16893017
160	0xbd53efd8	-0.051742405
161	0xbd07a5bf	-0.033117052
162	0xbe17598f	-0.14780258
163	0x3da9e263	0.08295133
164	0xbd07276e	-0.032996587
165	0x3d1bf55f	0.0380758
166	0x3e2872ea	0.16450086
167	0xbe76dac0	-0.24106884
168	0xbe83200d	-0.2561039
169	0xbda7df67	-0.081969075
170	0xbd5d9628	-0.05409828
171	0xbe30d219	-0.17267646
172	0xbe27ed91	-0.16399218
173	0x3de78f25	0.113065995
174	0xbe8f7ad2	-0.28023392
175	0x3d3b2e92	0.04569871
176	0xbe99545e	-0.2994718
177	0xbc8d028c	-0.017213129
178	0x3ca2a47c	0.019853823
179	0xbdf1c6fd	-0.11805532
180	0xbe8e73bc	-0.27822673
181	0x3d4f7a02	0.050653465
182	0x3ced6c26	0.028982233
183	0xbe59af01	-0.21258165
184	0xbcfe74f4	-0.031061627
185	0x3e076aa0	0.13224268
186	0xbe2b500b	-0.16729753
187	0x3e118dbc	0.14214224
188	0xbe1a93d6	-0.15095457
189	0x3d9ef2e4	0.077611715
190	0xbd58ee57	-0.052961674
191	0xbe2923bd	-0.1651754
192	0x3dfbeadb	0.123006545
193	0xbdd672ee	-0.1047114
194	0xbd5b2752	-0.053504296
195	0x3e5a0b82	0.21293452
196	0xbc7713e0	-0.015080422
197	0x3dbe4c68	0.09291917
198	0xbe1d954a	-0.1538898
199	0x3e258efd	0.16167827
200	0xbba3e574	-0.005001718
201	0xbdcd27e1	-0.10017372
202	0x3e19a73f	0.15005206
203	0xbe218777	-0.15774332
204	0xbdbcb868	-0.0921486
205	0x3d83518e	0.0641204
206	0x3d0daacf	0.034586724
207	0xbe766f52	-0.24065903
208	0xbd09732c	-0.033557102
209	0x3e06aba9	0.1315142
210	0xbbe941ac	-0.0071184244
211	0x3d3ea540	0.046544313
212	0xbd43892a	-0.04773823
213	0x3e06ef33	0.13177185
214	0xbe768f8c	-0.24078196
215	0xbe8f5a54	-0.27998602
216	0x3e5e40d8	0.21704423
217	0xbd5f9d34	-0.05459328
218	0x3e0e1061	0.13873436
219	0xbe2bd8e4	-0.16781956
220	0xbd887a00	-0.06663895
221	0x3ec69d25	0.38791767
222	0xbcc3f3c8	-0.023919955
223	0xbcbb6eec	-0.02288004
224	0x3d75a8c6	0.059975408
225	0xbcb3f42c	-0.021967016
226	0x3e2dd0c2	0.16974166
227	0x3d94a74f	0.07258474
228	0xbd170dec	-0.03687851
229	0x3e078f77	0.13238321
230	0x3e1539e1	0.1457286
231	0xbd52140e	-0.051288657
232	0x3c36b8b8	0.011152439
233	0x3d64a762	0.05582369
234	0xbe0472e5	-0.12934454
235	0x3e7e308f	0.24823211
236	0x3e13d4d4	0.14436656
237	0xbeb6c4e0	-0.3569708
238	0x3d230ad2	0.03980524
239	0x3ea6f5b0	0.3260932
240	0xbe349154	-0.17633563
241	0xbe4e2769	-0.20132221
242	0x3d284e82	0.041090496
243	0xbda415f5	-0.080120005
244	0x3d8da5fe	0.06916426
245	0x3db65fa2	0.08904959
246	0xbd053787	-0.032523658
247	0xbdb11bd8	-0.08647889
248	0xbd622a56	-0.055216156
249	0xbdfb4875	-0.122696795
250	0xbddd718d	-0.10812674
251	0x3e10fe28	0.14159453
252	0x3dd5ba18	0.10435885
253	0x3e286b31	0.1644714
254	0xbeb2718b	-0.3485225
255	0xbe8c24a1	-0.27371696

lstm.weight_hh_l0 f4 [400, 100]
0	0x3d271c80	0.040798664
1	0x3e93688b	0.28790697
2	0xbe13625b	-0.14392988
3	0x3e84c98f	0.25935027
4	0xbd0540e1	-0.032532576
5	0x3cbcda9b	0.023053458
6	0x3d74deeb	0.059782904
7	0xbd30312d	-0.043015648
8	0x3e069677	0.13143335
9	0x3e59173c	0.2120027
10	0xbe75ec8f	-0.24016021
11	0x3df323ed	0.11872087
12	0x3e8a2b94	0.26986372
13	0x3ddc2931	0.10750044
14	0xbdda12d3	-0.10648122
15	0x3da8cf21	0.08242632
16	0xbd0d1f0f	-0.034453448
17	0x3b99fcaa	0.0046993094
18	0x3e301331	0.17194821
19	0x3dd55867	0.10417252
20	0x3c8f1f78	0.01747106
21	0xbc835886	-0.016033422
22	0x3d539418	0.051654905
23	0x3e01a59b	0.1266083
24	0xbe054f54	-0.13018543
25	0xbe8b1320	-0.2716303
26	0xbe47f336	-0.19526371
27	0xbdc30b94	-0.09523693
28	0xbeaa3cd8	-0.33249545
29	0xbc0b0950	-0.008486107
30	0xbe848f54	-0.258906
31	0x3b5f2e60	0.0034054741
32	0xbbe2ff30	-0.0069273934
33	0xbd5eed0c	-0.054425284
34	0x3d65ff02	0.056151398
35	0x3cb53bec	0.0221233
36	0x3cc10100	0.023560047
37	0xbe03a044	-0.12854105
38	0xbdf72748	-0.12068039
39	0x3d9513bf	0.07279157
40	0xbdb54ab0	-0.08852136
41	0x3e38c71d	0.18044706
42	0x3e3fb2a9	0.18720497
43	0x3e043cfc	0.12913889
44	0x3d105ba5	0.03524365
45	0xbd990334	-0.07471314
46	0x3d022854	0.03177674
47	0x3dd70b9b	0.105002604
48	0xbc6c1da0	-0.01441136
49	0xbeb9481a	-0.36187822
50	0xbe8b56a9	-0.27214554
51	0x3ce70ce4	0.028204389
52	0x3e0ef4d8	0.13960588
53	0xbe2afdf1	-0.16698433
54	0x3d2b9864	0.041893378
55	0x3e79bb89	0.24387945
56	0xbdca279c	-0.09870836
57	0xbe067878	-0.13131893
58	0x3df87f86	0.12133698
59	0xbe1f63cb	-0.15565412
60	0xbe5a0967	-0.21292649
61	0xbe2602d4	-0.16212016
62	0x3d720cdc	0.059094295
63	0xbdd5a47a	-0.10431762
64	0x3e342c04	0.17594916
65	0x3e5ddefe	0.21667096
66	0xbf0659aa	-0.52480567
67	0xbe87342c	-0.2640699
68	0x3d4eb2be	0.05046343
69	0xbdd16310	-0.10223973
70	0x3ddab3c4	0.10678819
71	0xbe37044f	-0.17872737
72	0x3d8ea3b9	0.06964821
73	0xbe97ccee	-0.29648536
74	0xbe451cd0	-0.19249272
75	0xbd3f3e46	-0.046690248
76	0xbd57a356	-0.052646004
77	0xbe423fc6	-0.1896964
78	0x3cd4357c	0.02590441
79	0x3e491800	0.19638062
80	0x3dca7491	0.098855145
81	0x3c7b9172	0.015354501
82	0xbe874da6	-0.2642643
83	0xbe17ffe7	-0.14843713
84	0xbdbefadb	-0.09325191
85	0x3c262cd8	0.0101425275
86	0x3c6e3b9c	0.014540579
87	0x3d940b50	0.0722872
88	0xbe42ef34	-0.19036561
89	0xbc8c2038	-0.017105207
90	0xbe8878c2	-0.2665463
91	0x3eb3923d	0.35072508
92	0x3d74f0e1	0.059800033
93	0x3e06abf8	0.13151538
94	0x3e47f67c	0.1952762
95	0x3d969b00	0.07353783
96	0xbe1a9eb3	-0.15099601
97	0xbd060ff6	-0.032730065
98	0xbd92af9d	-0.07162402
99	0xbe8323e6	-0.25613326
100	0xbce04d2a	-0.027380545
101	0x3e9d1218	0.30677867
102	0xbd0bad92	-0.034101076
103	0x3e0155cd	0.12630387
104	0xbce8f66d	-0.028437817
105	0xbeab7860	-0.33490276
106	0xbe1d09f2	-0.15335825
107	0x3e574f0e	0.2102625
108	0x398e5f00	0.0002715513
109	0x3e10421b	0.14087717
110	0x3e79e98f	0.24405502
111	0xbd7fa342	-0.062411554
112	0x3e13d41b	0.1443638
113	0xbe3e2d38	-0.18571937
114	0xbc7f9a94	-0.015600819
115	0xbdc29fbc	-0.09503123
116	0xbc4b9f60	-0.012428135
117	0x3d47e35c	0.04880081
118	0x3dc1cf64	0.09463385
119	0x3e556b71	0.20841767
120	0xbe470281	-0.19434549
121	0x3e39193e	0.18076035
122	0x3d9f9f37	0.0779404
123	0xbea04cfc	-0.31308734
124	0x3d20a614	0.039220884
125	0x3e39ff29	0.18163742
126	0xbcbae34e	-0.022813465
127	0xbe69e5fa	-0.22841635
128	0xbe050e72	-0.12993792
129	0x3a941680	0.001129821
130	0x3e0e6514	0.13905746
131	0x3d9405d3	0.072276734
132	0x3cb7f22c	0.022454344
133	0x3d1aa8a4	0.037758484
134	0xbea742b0	-0.32668066
135	0x3e49de3a	0.19713679
136	0x3e3d1f1e	0.18468902
137	0xbe07f769	-0.13277973
138	0xbe1db2df	-0.15400265
139	0x3e283506	0.16426477
140	0x3de71328	0.11282951
141	0x3ce76699	0.028247165
142	0xbddcdf42	-0.107847705
143	0x3dd677f8	0.10472101
144	0xbd9e1133	-0.07718124
145	0xbdcfae13	-0.10140624
146	0xbb4a4950	-0.0030866452
147	0xbe250e16	-0.16118655
148	0x3d8c0722	0.06837298
149	0xbd10c1f5	-0.03534122
150	0xbdd0a14a	-0.101870134
151	0x3c9411df	0.018074928
152	0xbdd04d3e	-0.10170983
153	0xbdddcf74	-0.10830584
154	0x3dbc1c92	0.09185137
155	0xbcb41a5c	-0.021985225
156	0xbdd84fa6	-0.10562067
157	0x3d040766	0.03223362
158	0x3dd93834	0.10606423
159	0x3dda9024	0.10672024
160	0xbd42fe47	-0.04760578
161	0xba12b580	-0.00055965036
162	0xbda4dee1	-0.08050323
163	0xbdff0010	-0.12451184
164	0x3e421de2	0.18956712
165	0x3e5a402a	0.21313539
166	0x3dda07c0	0.106460094
167	0xbed50f78	-0.41613364
168	0xb9137000	-0.00014060736
169	0xbba16af0	-0.004926078
170	0xbe1555b0	-0.14583468
171	0x3e1a0e1c	0.15044445
172	0x3df7c381	0.12097836
173	0xbe2d671d	-0.16933866
174	0x3e64af1a	0.22332421
175	0xbcb62c66	-0.022237968
176	0x3e6fca12	0.23416927
177	0x3e57323f	0.21015261
178	0x3afe65e0	0.0019409023
179	0xbde4cb4e	-0.1117159
180	0x3dba5f29	0.091001816
181	0x3e0781a1	0.13233043
182	0xbde929b1	-0.11384905
183	0x3a055a40	0.00050869957
184	0x3e3ef182	0.18646815
185	0xbe112974	-0.1417597
186	0xbd07be0e	-0.033140235
187	0xbcdaf780	-0.026729345
188	0x3de8b144	0.11361936
189	0x3e1b8e22	0.15190938
190	0x3e2f53ae	0.17121765
191	0xbd4e27a0	-0.050330758
192	0x3de40788	0.11134249
193	0xbdbcf398	-0.09226149
194	0xbce05ff6	-0.027389508
195	0xbdfd004b	-0.123535715
196	0xbc83e43c	-0.016100042
197	0x3b381e80	0.0028094351
198	0x3e9e903b	0.30969414
199	0x3de59440	0.11209917
200	0xbdf6da61	-0.12053371
201	0xbd9ed181	-0.077548034
202	0xbd86713b	-0.06564566
203	0xbe70510e	-0.2346842
204	0x3e2e304e	0.17010614
205	0x3d0fbe94	0.03509386
206	0x3de46a8d	0.111531354
207	0xbb1df8a4	-0.00241045
208	0xbcbc7267	-0.02300377
209	0xbcbbdae7	-0.02293153
210	0x3c2cd7e7	0.010549522
211	0xbdc13ac4	-0.09435037
212	0xbe1a217c	-0.15051836
213	0xbd63da52	-0.05562813
214	0x3ced1af0	0.028943509
215	0x3e6e5e04	0.23278052
216	0x3e4b3d2d	0.19847555
217	0xbd4807ee	-0.048835687
218	0x3e4e34e4	0.20137364
219	0xbe1bf681	-0.15230753
220	0x3d029d2f	0.031888183
221	0xbe55b7f4	-0.20870954
222	0xbe983b8e	-0.29732937
223	0x3c90881c	0.017643027
224	0x3e3d7c4b	0.18504445
225	0x3e1bdc19	0.1522068
226	0xbe963014	-0.29333556
227	0xbdd96016	-0.1061403
228	0xbd018028	-0.03161636
229	0x3daf066b	0.08546146
230	0xbe15e71c	-0.14638942
231	0x3e10850b	0.14113252
232	0xbd6236a4	-0.05522789
233	0xbdaed956	-0.08537547
234	0xbe503bae	-0.20335266
235	0xbe00f56e	-0.12593624
236	0xbdb36d2e	-0.08761059
237	0xbd9cb220	-0.07651162
238	0x3a64be80	0.00087258965
239	0xbec3422c	-0.38136423
240	0xbd60dc9f	-0.0548979
241	0xbe68320d	-0.22675343
242	0xbce19558	-0.027537033
243	0x3db19992	0.08671869
244	0x3d51a6b5	0.051184375
245	0xbb86be2e	-0.0041120267
246	0x3ce26e48	0.027640477
247	0x3e031517	0.12801014
248	0xbe48c26e	-0.19605419
249	0xbdf4fa8e	-0.11961852
250	0xbde26d40	-0.11055994
251	0xbe80a671	-0.25126985
252	0xbe18ce8d	-0.14922543
253	0x3da81bad	0.08208404
254	0x3d63287c	0.05545853
255	0xbe4c9e9a	-0.19982377

lstm.bias_ih_l0 f4 [400]
0	0xbe16220e	-0.14661428
1	0x3c9aaa44	0.018880017
2	0x3d921d7a	0.071345285
3	0xbcb51894	-0.022106446
4	0x3e8efbe1	0.27926543
5	0xbe5baffa	-0.21453848
6	0xbd7594a9	-0.059956226
7	0xbd96d484	-0.07364753
8	0x3de91052	0.11380066
9	0x3c3eb320	0.011639386
10	0xbe25a0be	-0.161746
11	0xbcc12c98	-0.023580834
12	0xbd89ac26	-0.06722288
13	0x3e2e7557	0.17036949
14	0xbd542d0c	-0.051800773
15	0x3e348824	0.17630059
16	0x3cd4c5dd	0.025973255
17	0x3d0a3ac3	0.033747446
18	0x3c6cf6b8	0.014463119
19	0x3e32ac02	0.17448428
20	0x3c86d884	0.016460665
21	0xbd07d907	-0.033165958
22	0xbe27a7ae	-0.16372558
23	0x3dec12d2	0.11527027
24	0x3dda8fe0	0.10671973
25	0x3e8a36b6	0.26994866
26	0x3e5cb410	0.21553063
27	0x3cb4993c	0.022045724
28	0x3e1453b5	0.14485057
29	0xbe2b5198	-0.16730344
30	0xbd3266e4	-0.043555155
31	0x3cbddae0	0.023175657
32	0x3ce8b498	0.028406426
33	0x3c4aa460	0.012368292
34	0x3d694e0c	0.056959197
35	0x3e47c15d	0.19507356
36	0x3c6f8d68	0.014621116
37	0xbca6c7c8	-0.020358935
38	0xbd9bddfc	-0.076106995
39	0x3b810300	0.003937125
40	0x3dd62f5b	0.10458251
41	0xbd199277	-0.037493195
42	0x3da691a2	0.08133246
43	0xbe49c6b8	-0.19704711
44	0x3e090a47	0.13382827
45	0x3e7d0954	0.2471059
46	0xbe35534c	-0.17707556
47	0x3db8d962	0.090258375
48	0xbe2c4371	-0.16822602
49	0x3e2b7814	0.16745025
50	0x3e77dd36	0.24205479
51	0xbac73188	-0.0015197257
52	0xbc245db2	-0.010032104
53	0x3e77ecc0	0.24211407
54	0x3dc37a83	0.09544852
55	0x3df2fc34	0.1186451
56	0xbe5c4126	-0.21509227
57	0x3e7a2a29	0.24430145
58	0x3e01d48c	0.12678736
59	0x3d877986	0.06614976
60	0xbe543023	-0.20721488
61	0xbeb0cea8	-0.34532666
62	0x3d9d1907	0.07670789
63	0x3e063313	0.13105421
64	0x3e0d396a	0.13791433
65	0x3c30cbcc	0.010790776
66	0x3d39a82b	0.045326393
67	0xbedb58ee	-0.42841285
68	0x3e1078ba	0.14108554
69	0xbe2a6adb	-0.16642325
70	0xbe87da4b	-0.26533732
71	0x3c16b160	0.009197563
72	0xbe7e1dd0	-0.2481606
73	0x3df49bd8	0.11943787
74	0xbd73ea26	-0.059549473
75	0xbda0b219	-0.078464694
76	0xbc0c3a54	-0.008558828
77	0x3e325dd6	0.17418608
78	0xbb7ba100	-0.0038395524
79	0x3e0b126c	0.13581246
80	0xbe059cc7	-0.13048087
81	0x3d94ef62	0.07272221
82	0xbde1678b	-0.110060774
83	0xbe800041	-0.25000194
84	0x3e14d06c	0.14532632
85	0x3db11cc7	0.08648067
86	0xbe4f0c42	-0.2021952
87	0x3dd5e11c	0.10443327
88	0x3ca195b0	0.019724697
89	0xbe9ca76c	-0.30596483
90	0x3e861afc	0.26192462
91	0x3e43f1a2	0.19135144
92	0x398722e0	0.0002577519
93	0x3df1d355	0.118078865
94	0x3e72cb15	0.23710282
95	0x3e8585d2	0.2607866
96	0x3c99aaa0	0.018758118
97	0xbe2bad47	-0.16765319
98	0x3e8b2f24	0.27184403
99	0x3dda3d1e	0.106561884
100	0xbcc3bf0e	-0.023894813
101	0xbd2c8f48	-0.04212883
102	0xbe611821	-0.2198186
103	0xbcb6702c	-0.022270285
104	0x3d97dca1	0.074151285
105	0x3df7ccdc	0.12099621
106	0x3dab2f4a	0.08358629
107	0xbe08d6b1	-0.13363148
108	0xbc0233e0	-0.007946938
109	0xbd409b5e	-0.04702317
110	0x3d48441d	0.048893083
111	0x3dae74d6	0.085183784
112	0x3e302b09	0.17203917
113	0x3dcd0403	0.10010531
114	0x3e2f2bd6	0.17106566
115	0x3df45110	0.11929524
116	0xbdd19d3b	-0.102350675
117	0x3907f800	0.0001296699
118	0xbde38d5e	-0.11110948
119	0xbe497771	-0.1967447
120	0xbe312083	-0.17297558
121	0xbe6cc6be	-0.23122689
122	0x3dbe3b68	0.092886746
123	0x3e99c114	0.3003012
124	0xbe3ba736	-0.18325505
125	0x3e36dd86	0.17857942
126	0xbc203ae0	-0.009779662
127	0xbdca28c9	-0.098710604
128	0x3c29e8d8	0.010370456
129	0x3e43005d	0.19043107
130	0xbc9a44f6	-0.018831711
131	0x3da3014e	0.07959233
132	0x3d62206d	0.055206705
133	0xbdb3c7e4	-0.087783605
134	0xbe084422	-0.1330724
135	0x3dd1d127	0.10244971
136	0x3cbc0808	0.022953048
137	0xbeb43e97	-0.35204002
138	0x3e9e2190	0.3088498
139	0x3e8918c9	0.26776722
140	0x3e99ef7a	0.3006552
141	0x3cd14443	0.025545245
142	0xbc6653a6	-0.014058029
143	0xbe3300dd	-0.17480798
144	0xbc0e2e60	-0.008678049
145	0x3d98e2b8	0.07465118
146	0x3d85544c	0.06510219
147	0x3d91885c	0.071060866
148	0xbe93d092	-0.28870064
149	0xbcaaa518	-0.020830676
150	0xbe0da2d6	-0.13831648
151	0xbd0b2676	-0.033972226
152	0xbaf80400	-0.001892209
153	0x3e7228d5	0.23648389
154	0x3cf150a8	0.029457405
155	0x3dfc4ca0	0.123193026
156	0x3d3a3fdd	0.04547106
157	0x3d8ad2b7	0.06778472
158	0x3d8f7eb1	0.07006586
159	0x3d8657de	0.06559728
160	0xbe4904a4	-0.19630677
161	0x3e318aff	0.17338179
162	0xbd47fdf3	-0.04882617
163	0xbd9950c4	-0.07486108
164	0xbdb5c7ac	-0.08875975
165	0xbd763ba5	-0.060115475
166	0x3d124538	0.035710543
167	0xbd7cc1c0	-0.061708212
168	0xbdef2e3b	-0.1167874
169	0x3e4bacb2	0.19890097
170	0x3e9a5dd9	0.30149725
171	0xbd472b6e	-0.048625402
172	0xbce43d88	-0.027861372
173	0x3d526c7d	0.051372994
174	0x3e26b3dd	0.1627955
175	0xbe1c9fe6	-0.15295371
176	0x3cca5686	0.02469946
177	0xbdca243a	-0.09870191
178	0x3d30f3cc	0.043201253
179	0x3e178e6a	0.1480042
180	0x3df435a4	0.11924294
181	0xbe8da47f	-0.27664563
182	0xbe10e697	-0.14150463
183	0x3e1d4a4b	0.15360372
184	0x3e2040f1	0.15649773
185	0xbe6b0e68	-0.22954714
186	0xbd2ee17a	-0.0426955
187	0xbdf583b2	-0.119880095
188	0xbd3f1f20	-0.046660542
189	0x3d0fec0a	0.035137214
190	0x3c93a953	0.018025076
191	0xbcc13b9f	-0.023588
192	0xbe0371ac	-0.12836331
193	0x3e467534	0.19380647
194	0x3e10fd3a	0.14159098
195	0x3e74f052	0.239198
196	0x3decce8c	0.11562833
197	0x3c46d290	0.012135163
198	0x3c0233d2	0.007946925
199	0xbce95b58	-0.028485939
200	0x3d2edd37	0.042691436
201	0x3e1861b2	0.14881018
202	0xbe3a78a8	-0.18210089
203	0xbd840052	-0.064453736
204	0xbd866a8c	-0.06563291
205	0x3ea492b1	0.32143167
206	0xbe8701b6	-0.26368493
207	0x3cbab6c8	0.022792235
208	0x3ca0f7e4	0.019649453
209	0x3d74bea2	0.059752114
210	0xbdd17846	-0.102280185
211	0x3e632ef9	0.22185887
212	0x3e646382	0.22303584
213	0x3e17b6a2	0.14815763
214	0xba37e900	-0.00070156157
215	0x3d62c988	0.055367976
216	0x3d9455f8	0.0724296
217	0xbd8667f2	-0.06562795
218	0x3ea58741	0.32329753
219	0x3c9195e4	0.017771669
220	0x3ea601b0	0.32423162
221	0x3d6ae4ce	0.05734711
222	0x3d68130e	0.056658797
223	0xbd4fe201	-0.050752643
224	0x3e564867	0.20926057
225	0xbc4147b0	-0.011796877
226	0x3e8b19d7	0.27168152
227	0x3cb9299f	0.022602854
228	0x3ce43921	0.027859272
229	0x3e19e459	0.15028514
230	0xbe080055	-0.13281377
231	0x3b935b40	0.004496962
232	0xbda77b90	-0.081778646
233	0x3e062907	0.13101588
234	0xbd8cc9b7	-0.068744116
235	0xbe16fb05	-0.14744194
236	0xbe14fce4	-0.14549595
237	0x3d259243	0.04042269
238	0xbd86fcf6	-0.06591217
239	0x3d017048	0.03160122
240	0x3e38386f	0.17990278
241	0x3c3bab30	0.0114543885
242	0xbd77db86	-0.06051209
243	0xbe93b712	-0.2885061
244	0x3e761736	0.24032292
245	0x3e52bcf7	0.20579897
246	0xbe13222a	-0.14368501
247	0x3e04f83e	0.12985322
248	0xbd4d4fc4	-0.0501249
249	0xbd8cdf32	-0.068785086
250	0x3e977c0c	0.29586828
251	0x3def7c01	0.11693574
252	0x3e748cbb	0.2388181
253	0xbe468a7e	-0.19388768
254	0xbe670cd0	-0.22563481
255	0x3e98f312	0.29872948

lstm.bias_hh_l0 f4 [400]
0	0x3d6f44fa	0.05841539
1	0x3e10698c	0.14102763
2	0xbd05b884	-0.03264667
3	0xbab2be60	-0.0013637058
4	0xbde4ed80	-0.11178112
5	0xbdb80ca8	-0.08986789
6	0x3dfbc8f6	0.1229419
7	0x3d80cb11	0.06288732
8	0xbd8d2a43	-0.068928264
9	0xbe048222	-0.12940267
10	0xbd061941	-0.032738928
11	0xbe1edc9e	-0.15513846
12	0x3cdb5268	0.026772693
13	0xbda170ad	-0.07882819
14	0x3eb3b2ee	0.3509745
15	0xbd2c4247	-0.042055395
16	0xbd1eceb4	-0.038771346
17	0x3d7969a0	0.060891747
18	0xbe3925f0	-0.18080878
19	0xbe77b1a0	-0.24188852
20	0xbe7b328a	-0.24530998
21	0xbe372df9	-0.17888631
22	0x3d9e5e5d	0.07732842
23	0x3e3e2537	0.18568884
24	0xbcc8e618	-0.02452378
25	0xbd868d54	-0.06569925
26	0xbc9747ca	-0.018466849
27	0xbebc5955	-0.36786905
28	0x3d4b9cee	0.049710207
29	0x3e742daf	0.23845552
30	0xbd3a840b	-0.045536082
31	0x3e29af1c	0.16570705
32	0xbd471f51	-0.04861385
33	0x3e3ce2c3	0.18445878
34	0xbcc2afe2	-0.023765508
35	0xbde50010	-0.111816525
36	0x3dc19906	0.09453015
37	0xbe4487ca	-0.19192424
38	0x3ce8cba8	0.028417423
39	0x3e58cd72	0.21172121
40	0x3e3ba46f	0.18324445
41	0x3d1cfa40	0.038324594
42	0xbcc5e5b4	-0.024157383
43	0xbe71c0fd	-0.23608775
44	0xbe5e3022	-0.21698049
45	0x3e20eb60	0.15714788
46	0x3dcbe0be	0.099549755
47	0x3e027538	0.12740028
48	0xbc1dfd98	-0.009642981
49	0xbd6c649c	-0.057713136
50	0xbe0690a2	-0.1314111
51	0x3e24565c	0.16048568
52	0xbd0f94d1	-0.03505403
53	0xbe6a0b86	-0.22855958
54	0x3e1ddb0a	0.15415588
55	0x3d91693c	0.0710015
56	0x3e128dbc	0.1431188
57	0x3bcf8314	0.0063327644
58	0xbc850110	-0.016235858
59	0x3db243b3	0.08704319
60	0xbd833a32	-0.06407584
61	0x3d564a16	0.052316748
62	0xbe749fa2	-0.2388902
63	0xbe42e072	-0.19030932
64	0x3d611912	0.05495555
65	0x3d5a1d00	0.053250313
66	0xbe93f077	-0.28894398
67	0x3dad69b3	0.08467426
68	0xbd4d58d2	-0.050133534
69	0x3e7630ef	0.24042104
70	0x3ea20c42	0.31649977
71	0xbd35d2d4	-0.044390514
72	0x3c9f8e38	0.019476995
73	0x3e1824dd	0.14857812
74	0xbde038d2	-0.109483376
75	0x3dc1b4a7	0.09458285
76	0xbe1bff6b	-0.15234153
77	0xbdf364be	-0.118844494
78	0xbc7ed08c	-0.015552651
79	0xbe49f1c0	-0.19721127
80	0xbdb1c74c	-0.08680591
81	0x3d5203e1	0.05127323
82	0x3d5a8a16	0.053354345
83	0xbcce7b00	-0.025205135
84	0x3e31811f	0.17334412
85	0x3e2c0ebc	0.16802496
86	0x3e8c99d2	0.27461106
87	0x3e300d6b	0.17192619
88	0xbdd59b08	-0.104299605
89	0xbe7725ce	-0.24135515
90	0xbde8a8fe	-0.11360358
91	0x3d81eb8a	0.06343754
92	0x3df9031a	0.12158795
93	0x3dfe98f4	0.12431517
94	0x3da0c51b	0.07850095
95	0xbac69680	-0.0015151054
96	0x3d51f924	0.05126299
97	0xbe832d05	-0.25620285
98	0xbe1f8671	-0.15578629
99	0x3d3c6d12	0.046002455
100	0x3e9ee12e	0.31031173
101	0xbddc7c76	-0.107659265
102	0xbed309fa	-0.4121855
103	0xbdbe887f	-0.09303378
104	0x3d6a6558	0.057225555
105	0xbda6f570	-0.08152282
106	0xbc3c9b25	-0.011511599
107	0x3d5fe52c	0.054661915
108	0xbe9172f1	-0.28408006
109	0xbd836792	-0.06416239
110	0x3e8aa621	0.2707987
111	0x3dbb43d6	0.09143798
112	0xbd3577cd	-0.044303704
113	0x3d831456	0.06400363
114	0xbda3deb2	-0.0800146
115	0x3e30f840	0.172822
116	0xbeb7f4e0	-0.35929012
117	0x3e35e8bb	0.17764561
118	0xbe597dd1	-0.21239401
119	0xbd861082	-0.06546117
120	0x3e347fa1	0.17626812
121	0xbe1c3001	-0.15252687
122	0x3d50108a	0.050797023
123	0x3d5b341d	0.053516496
124	0xbc975000	-0.018470764
125	0x3e3bfca4	0.18358094
126	0xbe6ddbe6	-0.23228416
127	0xbe20d164	-0.15704876
128	0xbe1644a5	-0.14674623
129	0x3e8147d2	0.25250107
130	0x3df2a909	0.11848647
131	0xbde55070	-0.11196983
132	0xbdbded96	-0.092738315
133	0x3c533784	0.012891654
134	0x3de078da	0.109605506
135	0x3d930027	0.071777634
136	0xbd343ed1	-0.04400522
137	0x3dad6dba	0.08468194
138	0xbe0ed051	-0.13946654
139	0x3dd216e7	0.102582745
140	0x3db7cbbc	0.08974406
141	0x3e2597b0	0.16171145
142	0x39b00c00	0.00033578277
143	0x3e03e5d3	0.1288064
144	0x3e841564	0.2579757
145	0x3e930dec	0.2872156
146	0x3e9c62be	0.30544084
147	0x3a116e00	0.00055477023
148	0xbd9d9476	-0.07694332
149	0xbe114af4	-0.14188749
150	0xbe2de8a7	-0.16983281
151	0xbe2ff0a9	-0.17181648
152	0x3dc25847	0.09489494
153	0xbde64198	-0.1124298
154	0xbe8ae3bb	-0.2712687
155	0xbd2371e9	-0.039903555
156	0x3cb94b3b	0.02261888
157	0x3d6f0672	0.058355756
158	0xbd9b860c	-0.07593927
159	0x3e0fd97a	0.14047804
160	0xbe1b2a66	-0.15152892
161	0x3c95de84	0.01829458
162	0xbe10bbdc	-0.14134163
163	0x3e80c59f	0.25150773
164	0x3d570658	0.052496284
165	0xbcfbddd8	-0.030745432
166	0x3e921d7b	0.28538117
167	0xbe3672e7	-0.1781727
168	0xbd9d4aa9	-0.07680256
169	0x3c44e3c2	0.012017192
170	0xbe945fa4	-0.28979218
171	0x3d92cbed	0.07167802
172	0xbe790ef8	-0.24322116
173	0xbdea1f68	-0.114317715
174	0xbe0cfac8	-0.1376754
175	0x3e52de9b	0.2059273
176	0xbd18348c	-0.037159488
177	0xbd4900d8	-0.04907307
178	0x3d062475	0.032749612
179	0x3d7ce5e0	0.061742663
180	0x3d9b56f0	0.075849414
181	0xbd285f91	-0.041106764
182	0x3e82e64a	0.25566322
183	0xbd05bb31	-0.032649223
184	0x3e3d95bc	0.1851415
185	0x3e1c15b3	0.15242653
186	0xbbd98ad0	-0.006638862
187	0x3e0ff022	0.14056447
188	0xbe8bbe08	-0.2729342
189	0x3dd6c170	0.10486114
190	0xbe02bc8c	-0.12767237
191	0x3e0749aa	0.13211694
192	0x3e2711ec	0.1631543
193	0xbe58f3e6	-0.2118679
194	0x3c23302c	0.009960216
195	0x3dacbfb1	0.08435
196	0x3d93511d	0.071932055
197	0xbe97f2a3	-0.29677305
198	0x3e1793a4	0.14802414
199	0xbe114672	-0.14187029
200	0x3da4016b	0.08008083
201	0x3ccbf2b0	0.024895996
202	0xbd5cdbe8	-0.053920656
203	0xbe1023f0	-0.14076209
204	0xbe6a4a83	-0.22879986
205	0x3dcffb49	0.10155351
206	0xbb3adae0	-0.0028511807
207	0xbdadcbc4	-0.08486131
208	0x3dbb1c48	0.091362536
209	0xbe082f62	-0.13299325
210	0xbcf89f84	-0.0303495
211	0xbe30717a	-0.17230788
212	0xbe05ac8d	-0.13054104
213	0xbdb94c22	-0.09047724
214	0xbe1d4539	-0.15358438
215	0x3e7ba68c	0.24575251
216	0xbcaaca6c	-0.020848475
217	0x3c9838d0	0.018581778
218	0xbd9236de	-0.07139371
219	0x3e31c750	0.17361188
220	0xbeab17f2	-0.33416706
221	0xbd8628f8	-0.06550783
222	0x3c3f7554	0.011685688
223	0xbd0bb373	-0.034106683
224	0x3de4d21f	0.1117289
225	0x3e1953f2	0.14973429
226	0x3e94ae8c	0.2903942
227	0x3d3232b8	0.0435054
228	0xbe7c5a73	-0.24643879
229	0xbe50fdfe	-0.2040939
230	0xbd5a3656	-0.053274475
231	0x3c2d6c80	0.01058495
232	0xbe269528	-0.16267836
233	0x3ce459e0	0.027874887
234	0x3e75b27c	0.23993868
235	0xbec1aeb2	-0.37828594
236	0xbe1d670d	-0.15371342
237	0xbeaf8130	-0.3427825
238	0x3d2ae3e4	0.04172124
239	0xbbed9e84	-0.0072515626
240	0x3e1e5b7c	0.15464586
241	0xbe0dfcc7	-0.13865958
242	0xbe16f8cf	-0.1474335
243	0xbe8018ec	-0.25019014
244	0x3e1ae6ec	0.15127152
245	0x3c138900	0.009004831
246	0xbe1a3002	-0.15057376
247	0xbe67dd53	-0.22643022
248	0xbe2fda34	-0.17173082
249	0xbeadf62a	-0.3397687
250	0xbdc13b78	-0.09435171
251	0xbd55448e	-0.052067332
252	0x3dba426c	0.090947
253	0xbd27116c	-0.0407881
254	0x3e0ee6bd	0.13955207
255	0x3e171a5f	0.14756154

linear.weight f4 [1, 100]
0	0xbde03c1d	-0.10948966
1	0xbde82179	-0.113345094
2	0xbd4eff85	-0.05053665
3	0x3e6179c4	0.22019106
4	0xbe53bf2b	-0.20678394
5	0xbd7927d0	-0.060828984
6	0x3d6422bb	0.055697184
7	0xbe19b9d4	-0.15012294
8	0x3dac8eee	0.08425699
9	0x3e7240da	0.23657551
10	0x3e2b9dcc	0.16759413
11	0x3d4ce2df	0.05002105
12	0xbdbaa320	-0.09113145
13	0xbe00861f	-0.12551163
14	0xbe348bb4	-0.17631418
15	0xbe74d878	-0.23910701
16	0xbd407a94	-0.0469919
17	0xbdfec1cf	-0.1243931
18	0x3d25d6dd	0.040488113
19	0x3db20923	0.08693149
20	0x3e2ceafc	0.16886514
21	0x3dc7d569	0.09757502
22	0xbe943208	-0.2894442
23	0xbd87bbaa	-0.06627591
24	0x3e6f3146	0.2335864
25	0xbe2edd71	-0.1707666
26	0xbdf6e2c2	-0.12054969
27	0xbdcd9e72	-0.10039987
28	0x3c88f75c	0.016719513
29	0xbdc476c3	-0.095929645
30	0x3dc9cb2a	0.098532036
31	0xbe343fbb	-0.17602436
32	0xbea145ee	-0.31498665
33	0x3e071010	0.13189721
34	0xbe824515	-0.2544333
35	0x3e76476a	0.2405068
36	0x3c87a384	0.016557463
37	0x3e895a47	0.2682669
38	0x3e8e95a9	0.27848557
39	0x3b9536a4	0.004553633
40	0x3de3d70f	0.111250035
41	0x3ca5ba4c	0.020230435
42	0x3d85577f	0.06510829
43	0x3ebb940e	0.36636394
44	0xbc63b050	-0.013897017
45	0x3d44400f	0.047912654
46	0xbc942c60	-0.018087566
47	0x3da99d14	0.082819134
48	0x3e442861	0.19156028
49	0x3e118311	0.14210154
50	0xbce5b818	-0.028041884
51	0x3d482750	0.048865616
52	0x3d02dfdc	0.03195177
53	0x3e1d89df	0.15384625
54	0x3e79bc4e	0.24388239
55	0xbd810bac	-0.06301054
56	0x3c26c320	0.010178357
57	0xbc4847f0	-0.0122241825
58	0xbd91ea0c	-0.07124719
59	0xbcb87595	-0.022517005
60	0x3c434c6b	0.011920075
61	0xbe4f5967	-0.20248948
62	0x3e1b87d0	0.15188527
63	0x3e846c3c	0.25863826
64	0xbe0a5056	-0.13507208
65	0x3c830d52	0.015997563
66	0xbdbaf9aa	-0.09129651
67	0x3e013357	0.12617241
68	0x3d96d3a0	0.07364583
69	0x3cada896	0.021198552
70	0x3a009b40	0.00049059466
71	0x3e181718	0.1485256
72	0xbe49e0fb	-0.1971473
73	0xbde21b1c	-0.11040327
74	0xbe2ca28d	-0.16858883
75	0xbd864f4e	-0.06558095
76	0x3e7bf50e	0.246052
77	0x3e1b8b7c	0.15189928
78	0xbe94ee9a	-0.2908829
79	0xbd821c31	-0.06353033
80	0xbdc40b8a	-0.095725134
81	0x3cebe318	0.02879481
82	0xbdc46e63	-0.09591367
83	0x3eaf18f8	0.34198737
84	0xbde9e8c1	-0.114213474
85	0x3dab56e0	0.083661795
86	0x3d0d9f64	0.034575835
87	0x3d9382e6	0.07202701
88	0x3e835fb3	0.2565895
89	0xbe14b344	-0.1452151
90	0x3d81e191	0.063418515
91	0xbe03e935	-0.1288193
92	0xbdf761a2	-0.12079169
93	0x3dfc9224	0.123325616
94	0x3b9acef0	0.004724376
95	0x3e583c20	0.21116686
96	0xbe3884aa	-0.18019357
97	0x3d8ca879	0.06868071
98	0xbe1e2417	-0.15443455
99	0x3dc1ee98	0.09469336
