results/base_ga_bs8_sl90_ep5/model.pt (torch_old, 166230 bytes, 5 tensors)

lstm.weight_ih_l0 f4 [400, 1]
0	0x3dc06b07	0.09395414
1	0x3d7debd0	0.061992466
2	0x3e6f5759	0.23373164
3	0x3e494605	0.19655617
4	0x3e155aed	0.14585467
5	0xbd8ae952	-0.067827836
6	0x3da038ff	0.07823371
7	0x3d06bce2	0.032894976
8	0x3bda02d0	0.0066531673
9	0xbe674004	-0.22583014
10	0xbd9bd26a	-0.07608493
11	0x3d079532	0.033101268
12	0xbe66bd85	-0.22533233
13	0xbbf39790	-0.007433839
14	0xbe3251d2	-0.17414024
15	0x3b8372e8	0.0040115006
16	0x3d8f2c1d	0.06990836
17	0xbd6615b6	-0.05617305
18	0x3e64dd99	0.22350158
19	0xbddd11c8	-0.10794407
20	0xbeb0a80d	-0.34503213
21	0x3ec7c325	0.3901607
22	0xbe25deaa	-0.16198221
23	0x3eb8b39f	0.3607454
24	0xbe4c8f35	-0.19976504
25	0xbea3324c	-0.3187431
26	0x3dc5ef00	0.09664726
27	0x3e327ec6	0.17431173
28	0x3e009759	0.12557735
29	0x3c25b5e4	0.010114167
30	0x3e126f2c	0.14300221
31	0x3d435ee8	0.04769793
32	0xbccccbb2	-0.024999473
33	0xbd9194f3	-0.07108488
34	0x3dba083f	0.09083604
35	0x3e459eee	0.19298908
36	0x3e75a1ce	0.23987505
37	0xbeb8b8f6	-0.36078614
38	0xbd9db370	-0.077002406
39	0xbe3484de	-0.1762881
40	0xbcf9fe98	-0.030516908
41	0xbb81a7d0	-0.0039567724
42	0x3dc97510	0.09836781
43	0xbc78ee44	-0.015193526
44	0xbd2cf52e	-0.04222601
45	0x3e9b49d4	0.30329764
46	0xbda1f910	-0.07908833
47	0xbdbc528e	-0.091954336
48	0xbe2a04a1	-0.16603328
49	0xbe7bd8be	-0.245944
50	0xbdd83ef9	-0.10558886
51	0xbddab1c1	-0.10678435
52	0x3e30dd53	0.17271928
53	0xbdba7fe8	-0.091064274
54	0xbba2a3b9	-0.004963365
55	0x3d4f1ddc	0.050565585
56	0xbe3ea397	-0.18617092
57	0x3e2503e0	0.1611476
58	0xbb8dfc04	-0.004333021
59	0xbd555920	-0.05208695
60	0x3d1e048b	0.03857855
61	0xbdb7e28f	-0.089787595
62	0xbc388000	-0.011260986
63	0xbd2f722e	-0.0428335
64	0xbe8372a2	-0.25673395
65	0xbde63cbb	-0.11242052
66	0xbec4baf0	-0.38423872
67	0x3d8fe830	0.07026708
68	0x3e799936	0.24374852
69	0x3e541b28	0.20713484
70	0x3dd8a6f7	0.10578721
71	0xbe03b8d3	-0.12863474
72	0x3dd5ca6a	0.10438998
73	0xbd8d4572	-0.06898011
74	0x3e287349	0.16450228
75	0xbe8bdfac	-0.27319086
76	0xbce8cbe6	-0.028417539
77	0x390c2200	0.00013364106
78	0x3b78bfd0	0.0037956126
79	0x3c8b6cb4	0.017019607
80	0x3dfaa52e	0.12238537
81	0x3d111be1	0.035426978
82	0xbe097608	-0.13423932
83	0xbc648b38	-0.013949208
84	0xbd62e936	-0.05539819
85	0xbeaa16d8	-0.33220553
86	0x3e70916a	0.23492971
87	0xbcc413a0	-0.02393514
88	0xbdc6f3dc	-0.09714481
89	0xbe892131	-0.26783136
90	0x3df01aed	0.11723886
91	0x3dfdaf23	0.1238692
92	0x3dcfe99f	0.101519816
93	0xbd87f49c	-0.066384524
94	0x3e8680cd	0.26270142
95	0xbd7f9c56	-0.062404953
96	0xba882680	-0.001038745
97	0x3d9cacf8	0.07650179
98	0x3dae334a	0.08505876
99	0x3d0ac5c4	0.03388001
100	0x3e00f60c	0.1259386
101	0x3e8aafa8	0.2708714
102	0xbd83921e	-0.06424354
103	0x3e4c123a	0.19928828
104	0xbe5f5b16	-0.2181209
105	0xbeb1113a	-0.34583455
106	0xbb85e0b8	-0.0040856265
107	0xbcfcdd9a	-0.030867387
108	0x3e344c9d	0.1760735
109	0x3d81eba9	0.06343777
110	0xbc016f66	-0.007900095
111	0x3ba5da68	0.0050614364
112	0x3d43e730	0.0478279
113	0x3e8b3026	0.27185172
114	0x3d6cbeb8	0.05779907
115	0x3dbccb9d	0.09218524
116	0x3cd93c1a	0.026517916
117	0xbcb2655e	-0.021776851
118	0x3e35006f	0.17675947
119	0xbe50bacd	-0.20383759
120	0xbe35bbd0	-0.17747426
121	0xbe05606a	-0.1302506
122	0x3c668078	0.014068715
123	0x3c4eefa4	0.012630377
124	0xbdf52922	-0.11970736
125	0x3dfd36f6	0.123639986
126	0xbde54a93	-0.111958645
127	0x3ddcb06a	0.10775836
128	0x3df66b12	0.12032141
129	0xbe1c15a7	-0.15242635
130	0x3db5478d	0.08851538
131	0x3df702c5	0.12061075
132	0xbd7025b4	-0.058629707
133	0x3de33046	0.11093192
134	0x3e11be46	0.1423274
135	0xbe7a586e	-0.24447796
136	0x3e514b18	0.20438802
137	0x3c544578	0.012956016
138	0x3e148025	0.14502008
139	0x3e021d5e	0.12706515
140	0xbe1cae02	-0.15300754
141	0xbe0b21be	-0.1358709
142	0x3e890998	0.26765132
143	0x3d5d9616	0.05409821
144	0xbee587c9	-0.44830158
145	0x3c4844c0	0.0122234225
146	0xbdb98fc9	-0.09060628
147	0x3d5a8c13	0.05335624
148	0xbe192c29	-0.14958252
149	0x3e59ce08	0.21270001
150	0xbd3eafee	-0.0465545
151	0xbe1a3f92	-0.15063313
152	0xbc2fb248	-0.010723658
153	0xbea9a556	-0.33133954
154	0x3b320ba0	0.0027167574
155	0x3e1375da	0.14400426
156	0xbcac82d8	-0.021058485
157	0x3e797e48	0.24364579
158	0x3d3e91c3	0.046525728
159	0xbdeb88ae	-0.11500679
160	0x3cafb332	0.021447752
161	0x3ba828f0	0.0051318333
162	0x3e63533c	0.2219972
163	0xbcdb0f5c	-0.026740722
164	0x3dd8ab7e	0.105795845
165	0x3e04b1f2	0.12958506
166	0xbdc1aef9	-0.094572015
167	0xbc6aabd7	-0.014323196
168	0x3df228c2	0.1182418
169	0xbd814527	-0.06312018
170	0xbdc378ab	-0.095445
171	0x3de41501	0.11136819
172	0x3e5a9812	0.21347073
173	0x3e4edc66	0.20201263
174	0xbe2e21c7	-0.17005073
175	0x3bf19970	0.0073730275
176	0x3d938452	0.072029725
177	0x3e13ce36	0.14434132
178	0xbde73499	-0.11289329
179	0xbed619cd	-0.4181656
180	0xbea8d53f	-0.32975194
181	0xbe1bbb4a	-0.15208164
182	0x3e02e439	0.12782373
183	0xbd610238	-0.054933757
184	0xbb8b9d60	-0.004260704
185	0x3c1b7cd8	0.009490214
186	0x3e8f9cae	0.28049225
187	0xbeb3ef37	-0.35143444
188	0xbce457cd	-0.027873898
189	0x3d8ea958	0.069658935
190	0xbe2c1f3d	-0.16808791
191	0xbdd2ce8c	-0.10293302
192	0xbe6bc27b	-0.23023407
193	0x3e85f6bb	0.26164803
194	0xbe864b17	-0.26229164
195	0x3df15d15	0.11785332
196	0x3e34f2e8	0.17670786
197	0xbc416148	-0.011802979
198	0x3dec567e	0.115399346
199	0xbd14bef4	-0.03631492
200	0xbe0eb0a3	-0.13934569
201	0x3df71874	0.12065211
202	0x3e9a88c8	0.3018248
203	0xbe0645a5	-0.13112505
204	0xbc20d05e	-0.009815304
205	0x3e388762	0.18020394
206	0x3e5d5295	0.21613534
207	0x3dc5d9f8	0.09660715
208	0xbbd556c0	-0.0065105855
209	0x3e393364	0.1808601
210	0xbe03dcb5	-0.12877162
211	0x3c37bcd0	0.01121445
212	0x3db94e8b	0.09048184
213	0x3e1efc94	0.15526038
214	0xbe647960	-0.22311926
215	0x3dde6a26	0.1086009
216	0x3da1d694	0.07902256
217	0xb9d39b80	-0.00040360913
218	0x3d88a848	0.06672722
219	0x3d39003e	0.045166247
220	0xbe02d77b	-0.12777512
221	0xbe0f324c	-0.1398403
222	0x3d8f0a06	0.06984334
223	0xbe445346	-0.19172391
224	0x3dd55704	0.104169875
225	0x3caf4912	0.021397147
226	0x3d4409d9	0.047860954
227	0x3dfcda36	0.12346308
228	0x3da4cf00	0.080472946
229	0xbd849130	-0.06473005
230	0xbeb89f20	-0.36058903
231	0xbdda4641	-0.10657931
232	0x3d2cafda	0.042159893
233	0x3d328a90	0.043589175
234	0xbd4064a5	-0.046970982
235	0x3eb2935e	0.34878057
236	0x3cbf1194	0.023323812
237	0x3d8a51a1	0.06753851
238	0xbd81ae57	-0.06332081
239	0xbda92d96	-0.08260648
240	0x3b5dcc20	0.0033843592
241	0xbdd79c5a	-0.105278686
242	0x3e1ebd54	0.1550191
243	0x3da9cd44	0.082911044
244	0xbd5f9792	-0.054587908
245	0xbc7b2764	-0.015329216
246	0xbd52ab10	-0.05143267
247	0x3d9980cb	0.074952684
248	0x3dbfea53	0.09370866
249	0x3db2c6ae	0.087293014
250	0xbdadb743	-0.0848222
251	0x3e5266d1	0.20547034
252	0xbd375a00	-0.044763565
253	0xbcd1a42a	-0.025590975
254	0xbe8ba9fc	-0.27278125
255	0x3e5a8430	0.21339488

lstm.weight_hh_l0 f4 [400, 100]
0	0x3d960edc	0.07327053
1	0xbd2ea0b2	-0.04263372
2	0x3e889048	0.26672578
3	0x3df7be95	0.120968975
4	0xbe2a7408	-0.16645825
5	0xbddd4db6	-0.10805838
6	0xbd783cff	-0.060605045
7	0xbe8fc096	-0.2807662
8	0x3e09fd98	0.13475645
9	0x3db24385	0.087042846
10	0xbd69db8e	-0.05709415
11	0xbe1e6f7a	-0.15472212
12	0xbeb740f1	-0.35791734
13	0x3d139b1a	0.03603659
14	0x3dfd1f0e	0.12359439
15	0x3d04b7e0	0.03240192
16	0x3dda073c	0.10645911
17	0x3e293cb8	0.16527069
18	0xbe05cdca	-0.13066784
19	0xbdd08f5d	-0.101835944
20	0xbe442238	-0.19153678
21	0x3dca662c	0.09882769
22	0xbd5ce6ff	-0.053931233
23	0xbe899556	-0.26871747
24	0xbd708ee4	-0.05873002
25	0x3ddbccd4	0.10732427
26	0x3d6615ab	0.056173008
27	0x3d6792ef	0.05653661
28	0x3e0200b0	0.12695575
29	0xbbfa83a0	-0.0076450855
30	0xbc89e4a5	-0.016832659
31	0x3e244602	0.16042331
32	0xbe440fa2	-0.19146588
33	0xbd52cdac	-0.051465675
34	0xbd2f1376	-0.04274317
35	0xbb83fbc8	-0.0040278174
36	0xbdaf1356	-0.0854861
37	0xbdf4b1ae	-0.11947952
38	0xbe0c09e0	-0.13675642
39	0x3e625547	0.22102843
40	0xbcff5729	-0.03116949
41	0x3d663a8c	0.05620818
42	0xbe53f3d4	-0.20698482
43	0x3e092630	0.13393474
44	0xbd8f1ff6	-0.06988518
45	0x3c7cc980	0.015428901
46	0x3d588910	0.052865088
47	0x3e58bd00	0.21165848
48	0xbecc25f4	-0.39872706
49	0x3de7db1a	0.11321087
50	0x3eb42d44	0.35190785
51	0xbdda904e	-0.10672055
52	0xbe08fb47	-0.13377105
53	0x3d1fccc1	0.039013628
54	0xbd9eeac5	-0.077596225
55	0xbe81c856	-0.25348157
56	0x3e2eb0e7	0.1705967
57	0x3d1fe4ac	0.039036438
58	0x3dc2f7ac	0.09519896
59	0x3bc73238	0.0060789846
60	0xbdb25cc7	-0.08709102
61	0xbe519a54	-0.20469028
62	0xbd410bb8	-0.047130316
63	0xbe30b418	-0.172562
64	0xbe1aeee0	-0.15130186
65	0x3dee9c56	0.116509125
66	0xbd27585a	-0.040855743
67	0xbe16b46b	-0.14717261
68	0x3e804c68	0.25058293
69	0x3cecd840	0.02891171
70	0xbbadb260	-0.005300805
71	0x3d934849	0.07191522
72	0x3e0a00b3	0.13476829
73	0x3decd625	0.11564282
74	0x3d153b0c	0.036433265
75	0xbcfa9a72	-0.030591223
76	0x3d88e704	0.06684688
77	0x3dd8324e	0.1055647
78	0x3d8ae2a7	0.06781512
79	0x3e37dfda	0.17956486
80	0x3dc82256	0.09772174
81	0xbe30d1d0	-0.17267537
82	0x3cedd340	0.029031396
83	0x3de5890e	0.11207782
84	0x3e293dd9	0.165275
85	0xbe779029	-0.24176086
86	0x3d46f4b7	0.048573222
87	0xbbd5b2c0	-0.006521553
88	0xbe83b793	-0.25725994
89	0x3e312a98	0.17301404
90	0xbe885516	-0.26627415
91	0xbe16a9f7	-0.14713274
92	0xbe1d8872	-0.15384081
93	0x3c5c8ac8	0.013460822
94	0x3e7f2b88	0.2491895
95	0xbd01acf6	-0.03165909
96	0xbe350c5b	-0.17680494
97	0x3e4aa0fd	0.19787975
98	0xbe06d0fe	-0.13165662
99	0xbd18e34c	-0.037326142
100	0xbe6c9804	-0.23104864
101	0x3cce727c	0.025201075
102	0xbeaadb8f	-0.33370635
103	0xbde80933	-0.113298796
104	0x3dd535e7	0.10410672
105	0xbda7b171	-0.08188141
106	0xbe186be5	-0.14884908
107	0x3e2c5b2d	0.16831656
108	0x3d3cd760	0.046103835
109	0xbd063625	-0.03276648
110	0xbd5baad2	-0.053629704
111	0xbe86039e	-0.26174635
112	0x3e1c4be2	0.15263322
113	0xbd9c9238	-0.076450765
114	0x3ea35cc7	0.3190672
115	0x3e06b6ed	0.13155718
116	0xbe38991e	-0.1802716
117	0xbdb30207	-0.08740621
118	0x3d854359	0.06506986
119	0x3db3f67c	0.087872475
120	0xbdb0b416	-0.08628099
121	0x3e2f5b7b	0.17124741
122	0x3d1e9562	0.03871668
123	0x3e980ce6	0.2969734
124	0xbdcbf61f	-0.09959053
125	0x3e504e37	0.20342337
126	0x3d41e7a6	0.047340058
127	0x3d54498b	0.05182795
128	0x3d349ddc	0.04409586
129	0x3e74d44a	0.23909107
130	0xbd15d665	-0.036581416
131	0x3d555192	0.052079745
132	0x3e48e0f8	0.19617069
133	0x3cdeadc0	0.02718246
134	0xbcd78838	-0.026310071
135	0xbe4bae96	-0.19890818
136	0x3dabfae4	0.08397463
137	0x3c629148	0.013828583
138	0x3d1d2b4e	0.038371377
139	0xbdb05b10	-0.08611119
140	0xbddc3662	-0.1075256
141	0xbe2c78ff	-0.16843031
142	0xbda2dcfe	-0.07952307
143	0xbe946726	-0.28984946
144	0xbda4cbd6	-0.08046691
145	0x3c414e00	0.011798382
146	0x3e916842	0.28399855
147	0x3e63b486	0.22236833
148	0x3e292079	0.16516294
149	0x3d4910d4	0.049088314
150	0xbbf5ff20	-0.00750722
151	0x3b7ea3db	0.003885499
152	0x3c8ea5cb	0.01741304
153	0x3e3aae43	0.18230538
154	0xbdedf810	-0.1161958
155	0xbd6c4e8c	-0.057692096
156	0x3d6927b0	0.056922615
157	0xbe351d74	-0.17687017
158	0xbb946e20	-0.0045297295
159	0x3ddfc75f	0.10926699
160	0x3daa7975	0.08323947
161	0xbe985832	-0.29754788
162	0xbc5db366	-0.013531541
163	0xbd9e34c2	-0.077249065
164	0x3e8962f6	0.26833314
165	0x3e03afc4	0.12860018
166	0xbce54925	-0.02798898
167	0x3e468ff7	0.19390856
168	0xbd299a23	-0.04140676
169	0x3d8d5db1	0.06902636
170	0xbe942149	-0.28931645
171	0xbe34ae7d	-0.17644687
172	0xbe807355	-0.2508799
173	0x3dbb7c26	0.09154539
174	0x3d7e9ee5	0.062163252
175	0x3dca1ba5	0.09868554
176	0x3d46b9af	0.048516925
177	0xbd33af54	-0.043868378
178	0xbe175224	-0.14777428
179	0xbe0fc527	-0.14040051
180	0x3da6b261	0.08139492
181	0x3c2b6986	0.0104621705
182	0xbdfab5dc	-0.12241718
183	0x3ddf5650	0.10905135
184	0x3b64f660	0.003493689
185	0xbc21d816	-0.009878179
186	0xbd985880	-0.07438755
187	0xbe0c33a9	-0.13691582
188	0xbe25c8fa	-0.16189948
189	0x3e79f105	0.24408348
190	0x3d53d065	0.051712412
191	0xbda8e485	-0.08246712
192	0xbea504fc	-0.32230365
193	0x3d4cda32	0.050012775
194	0xbe2be251	-0.16785552
195	0xbe9a15c6	-0.30094737
196	0x3e350d5d	0.17680879
197	0xbd91f4c0	-0.071267605
198	0x3eddb893	0.4330488
199	0xbca5a390	-0.020219594
200	0x3cfaa38c	0.030595563
201	0xbdca5e64	-0.09881285
202	0xbde7549c	-0.11295435
203	0x3e9c12dc	0.3048314
204	0xbcf54bac	-0.02994331
205	0xbe20379e	-0.15646216
206	0xbddd7cd6	-0.10814826
207	0xbe9aa07c	-0.30200565
208	0x3b91e718	0.0044525973
209	0xbd66e08c	-0.05636649
210	0x3d0501bb	0.032472353
211	0xbe5fe868	-0.21866
212	0xbd9f1052	-0.07766785
213	0x3e693f84	0.22778136
214	0xbe17c876	-0.14822564
215	0xbe255ebf	-0.16149424
216	0x3da2a785	0.07942108
217	0xbdc39870	-0.095505595
218	0x3d2b3f3c	0.041808352
219	0xbd81b9da	-0.063342765
220	0xbe96c780	-0.2944908
221	0xbe92b8f1	-0.28656724
222	0xbe1022fb	-0.14075844
223	0x3b18a560	0.002329193
224	0x3e470d7f	0.19438742
225	0xbe492d0e	-0.19646093
226	0xbd0a7786	-0.033805393
227	0x3d3cab92	0.04606206
228	0xbe02e54a	-0.1278278
229	0xbdb1cabe	-0.08681248
230	0xbce30930	-0.027714342
231	0x3ed1701f	0.40905854
232	0x3d327fea	0.04357902
233	0xbe52af7a	-0.20574751
234	0x3e485ca2	0.19566587
235	0xbd6fda06	-0.058557533
236	0x3d3390d6	0.0438393
237	0x3d16eb3e	0.03684544
238	0xbd6d7272	-0.05797047
239	0xbe1b4730	-0.15163875
240	0xbcc47e79	-0.023986088
241	0xbe423dbc	-0.18968862
242	0x3d5d86a2	0.054083474
243	0xbe2827fa	-0.164215
244	0xbd774466	-0.060367964
245	0x3caa6c30	0.020803541
246	0x3e06debe	0.13170907
247	0xbd2e74e3	-0.04259194
248	0xbc453808	-0.012037285
249	0x3ce8fd11	0.028440984
250	0xbe0cfec6	-0.13769063
251	0xbe091dc7	-0.13390265
252	0xbe62ee92	-0.2216132
253	0xbe2d89a8	-0.16947043
254	0xbdcccf51	-0.1000048
255	0xbd5df7e0	-0.05419147

lstm.bias_ih_l0 f4 [400]
0	0x3e390f0c	0.18072146
1	0x3e64b336	0.22333989
2	0x3d16eb67	0.03684559
3	0xbe1eb47e	-0.1549854
4	0x3ddcd561	0.10782886
5	0x3d8e3ffc	0.06945798
6	0xbd4e5c62	-0.050381072
7	0x3e1b07c0	0.15139675
8	0x3de9cee6	0.11416416
9	0xbe7f2fcd	-0.24920578
10	0x3d8d7cce	0.0690857
11	0xbde4ca50	-0.111714005
12	0xbc8c58e2	-0.017132226
13	0xbd54f864	-0.051994696
14	0x3e4431fb	0.19159691
15	0x3e4b4f8c	0.19854563
16	0x3dfedca8	0.124444306
17	0xbcb71840	-0.02235043
18	0x3d11ba8b	0.035578292
19	0xbd6e8340	-0.05823064
20	0xbe887eb3	-0.26659164
21	0x3e9c8248	0.30568147
22	0x3ebd587d	0.36981574
23	0xbc9e3098	-0.01931028
24	0xbdab6ea2	-0.08370711
25	0x3d8a25ad	0.06745467
26	0xbdf0dea7	-0.117612176
27	0xbc06d2a5	-0.0082289325
28	0x3c2999ec	0.010351639
29	0xbdf16282	-0.11786367
30	0x3e4095e4	0.18807179
31	0x3d1e0040	0.038574457
32	0xbee9fa69	-0.4569886
33	0xbe0c40b3	-0.13696556
34	0xbced9d7c	-0.029005758
35	0xbed1a8eb	-0.40949187
36	0x3dba5c26	0.09099607
37	0xbe0eb93d	-0.1393785
38	0xbdfb0d35	-0.122583784
39	0x3d9ced09	0.07662398
40	0x3e812a25	0.25227466
41	0x3db16818	0.086624324
42	0xbe3fef08	-0.18743527
43	0xbdcea804	-0.1009064
44	0xbdd8de80	-0.105893135
45	0xbd9e8ab6	-0.07741301
46	0x3dece584	0.11567214
47	0xbdb31404	-0.08744052
48	0x3d9f3261	0.07773281
49	0x3daae76e	0.08344923
50	0x3ee734c4	0.45157444
51	0x3e263030	0.1622932
52	0xbe6e34fc	-0.232624
53	0x3c613210	0.013744846
54	0x3d850f6b	0.06497081
55	0xbc4aa0e0	-0.012367457
56	0x3c6c58cc	0.014425468
57	0xbe731bfb	-0.23741142
58	0x3df9855a	0.12183638
59	0x3ce43dd0	0.027861506
60	0x3cddf074	0.027092196
61	0xbe00b600	-0.12569427
62	0x3e114145	0.14185055
63	0xbe41510d	-0.18878575
64	0xbe8dc2f7	-0.2768781
65	0x3e4e3c94	0.20140296
66	0x3cdb1241	0.026742103
67	0x3db6b4b3	0.089211844
68	0x3e695868	0.2278763
69	0x3dcec658	0.10096425
70	0x3dbd8d90	0.092555165
71	0xbd8c7ede	-0.068601355
72	0xbe3b4ae9	-0.18290295
73	0x3dd31554	0.103068024
74	0x3e82ead1	0.25569776
75	0xbe301190	-0.171942
76	0x3df2c66a	0.11854251
77	0x3de1614c	0.11004886
78	0x3d15c40a	0.03656391
79	0x3dfe39fa	0.12413402
80	0xbe3d4296	-0.18482432
81	0xbe76d0c6	-0.24103078
82	0xbe95e542	-0.29276472
83	0xbd8058c8	-0.06266934
84	0x3e2a5ab1	0.16636159
85	0x3db7c272	0.089726344
86	0xbeb6cec1	-0.35704616
87	0xbce37788	-0.027766958
88	0x3cc515e8	0.024058297
89	0x3e5516c4	0.20809466
90	0xbdaf2850	-0.08552611
91	0xbd80166f	-0.06254279
92	0xbe1ca8d6	-0.15298781
93	0xbe8871a0	-0.2664919
94	0x3e0e2aa4	0.13883454
95	0x3e42d8ef	0.19028066
96	0xbe4e84c6	-0.20167837
97	0x3e1b65b2	0.15175512
98	0x3d1c539a	0.038165666
99	0x3e1adfc5	0.15124424
100	0x3d6aaffd	0.05729674
101	0x3e032cc0	0.1281004
102	0x3cd75609	0.026286142
103	0x3ca698fc	0.02033662
104	0xbd93fb07	-0.07225614
105	0x3d9dab60	0.07698703
106	0x3d2fee8c	0.042952105
107	0xbd14d8c0	-0.03633952
108	0x3e07567d	0.13216586
109	0xbe19542a	-0.14973512
110	0xbde1272c	-0.109937996
111	0x3ec947f7	0.39312717
112	0xbd8041eb	-0.06262573
113	0x3d7c3bfc	0.061580643
114	0x3eda148a	0.42593795
115	0x3b877cac	0.004134735
116	0xbbe8a300	-0.0070995092
117	0x3e199644	0.14998728
118	0x3e601793	0.21883993
119	0x3d80721e	0.06271766
120	0xbe5b2e1d	-0.2140431
121	0x3e6b3aa0	0.22971582
122	0xbdd08274	-0.10181132
123	0x3e39162e	0.18074867
124	0xbe5c47fa	-0.21511832
125	0x3e0d92be	0.13825509
126	0x3dd06ea1	0.10177351
127	0x3d59e9a1	0.05320132
128	0x3e641106	0.22272119
129	0x3dc1ace6	0.09456806
130	0x3eae83b3	0.34084854
131	0xbe4388be	-0.19095132
132	0x3e1edb25	0.15513285
133	0xbd78c984	-0.060739055
134	0xbd92f3ce	-0.07175408
135	0x3c54cd5e	0.0129884165
136	0xbd9befc6	-0.076140925
137	0x3d34383c	0.04399894
138	0x3ea9fd5c	0.3320111
139	0x3b84b340	0.0040496886
140	0x3dbf6594	0.09345546
141	0xbed3f148	-0.4139502
142	0xbe0083aa	-0.12550226
143	0xbe278c88	-0.16362202
144	0xbd817233	-0.0632061
145	0xbd7c72ca	-0.06163291
146	0xbe30bca5	-0.17259462
147	0x3dfaabbf	0.12239789
148	0xbebc3d74	-0.36765635
149	0xbe908348	-0.2822516
150	0xbdec9f62	-0.11553837
151	0xbd5fc818	-0.054634184
152	0x3b020d80	0.0019844472
153	0xbdb3d9ed	-0.087818004
154	0xbe8a079b	-0.26958928
155	0xbe75812b	-0.23975055
156	0xbb598040	-0.0033188015
157	0x3d468de2	0.048475154
158	0x3c9b9b29	0.018994885
159	0x3db801b1	0.089846976
160	0xbca1d040	-0.019752622
161	0x3e1153ab	0.14192073
162	0x3ddc61f2	0.10760869
163	0x3e08181d	0.13290448
164	0x3db30785	0.087416686
165	0xbd1b2291	-0.037874762
166	0xbcdf5f3f	-0.027267097
167	0x3dd4ee62	0.103970304
168	0x3e1b1550	0.15144849
169	0x3e0532bb	0.13007633
170	0xbe17eecd	-0.14837189
171	0x3e7de137	0.24792944
172	0xbda44008	-0.080200255
173	0x3db7a147	0.08966308
174	0x3e411abd	0.18857856
175	0xbc9b2006	-0.018936168
176	0x3ec29cda	0.38010293
177	0x3e2ced56	0.16887411
178	0x3e2657b9	0.16244401
179	0x3de98234	0.114017874
180	0xbd8015ff	-0.062541954
181	0x3d26c2c4	0.040713087
182	0x3d88e107	0.066835456
183	0x3d8c6764	0.06855658
184	0x3db86274	0.090031534
185	0xbb205680	-0.002446562
186	0xbd97b925	-0.074083604
187	0xbe23b5bd	-0.15987296
188	0x3e621865	0.22079618
189	0x3e9015e2	0.28141695
190	0x3d0dcb3c	0.034617648
191	0x3d881ed0	0.06646502
192	0xbd23931d	-0.03993522
193	0xba99be80	-0.0011729747
194	0xbe5b1951	-0.21396376
195	0x3c6b0424	0.014344249
196	0x3e43f56f	0.19136594
197	0xbd4e7598	-0.050405115
198	0x3e44bc28	0.19212401
199	0x3d1d9b42	0.038478144
200	0xbe6960b9	-0.22790803
201	0xbc562eae	-0.013072653
202	0xbea78f1c	-0.3272637
203	0x3db8aed4	0.09017721
204	0x3da4e0ce	0.080506906
205	0x3d79e28e	0.061007075
206	0x3d1d5254	0.038408592
207	0xbd9572f0	-0.07297313
208	0xbd8ccfc0	-0.06875563
209	0xbdc01a1a	-0.093799785
210	0x3d79254a	0.060826577
211	0x3e090496	0.13380656
212	0xbe1e27c6	-0.1544486
213	0xbddad638	-0.1068539
214	0x3ca782c0	0.020448089
215	0x3d900a0e	0.07033168
216	0xbdd7c517	-0.10535639
217	0xbdd3f14c	-0.10348758
218	0x3d3c480d	0.04596715
219	0x3d1e850e	0.03870111
220	0xbce67fac	-0.02813705
221	0x3dad3892	0.084580556
222	0x3d2d0c74	0.042248204
223	0xbd4cf453	-0.050037693
224	0xbd8022f5	-0.062566675
225	0x3d5cfaac	0.053949997
226	0xbda9ec80	-0.08297062
227	0xbe725ff2	-0.23669413
228	0x3e05e2fc	0.13074869
229	0x3d6eee16	0.058332525
230	0x3d36e6fe	0.044653885
231	0xbc8179e2	-0.015805189
232	0x3e00c944	0.12576777
233	0xbdbf84a5	-0.09351472
234	0x3dda1739	0.106489606
235	0x3d4e3568	0.0503439
236	0xbe32212c	-0.17395467
237	0x3d5c7da0	0.053830743
238	0x3dff854c	0.12476596
239	0x3be14620	0.0068748146
240	0xbd3ad812	-0.045616217
241	0x3e3396c6	0.17537984
242	0x3e0521ba	0.13001147
243	0xbcad6140	-0.021164536
244	0xbe8a1f05	-0.2697679
245	0xbc11d188	-0.008900054
246	0xbdceca40	-0.1009717
247	0xbe3e1af8	-0.18564975
248	0xbe405aff	-0.18784712
249	0xbd244736	-0.040106975
250	0x3e0f4264	0.1399017
251	0x3e13b399	0.1442398
252	0x3d184930	0.037179172
253	0x3defcae0	0.11708617
254	0xbd309368	-0.043109328
255	0x3df2c98a	0.11854847

lstm.bias_hh_l0 f4 [400]
0	0xbd4cb8f0	-0.049981058
1	0xbe450ccb	-0.19243161
2	0x3e0149ae	0.12625763
3	0x3e0e9b2c	0.13926381
4	0xbc8a46e8	-0.016879514
5	0xbe0dae3c	-0.13835996
6	0x3dbc6b7c	0.092001885
7	0x3e79ec6d	0.24406596
8	0xbde68334	-0.11255494
9	0xbdcf154c	-0.10111484
10	0x3e05ad5c	0.13054413
11	0x3d730e7a	0.059339978
12	0xbe43ea32	-0.19132307
13	0x3d588196	0.052857958
14	0x3dd63d93	0.10460963
15	0x3db783a3	0.089606546
16	0xbe13a987	-0.14420138
17	0x3dc95ee6	0.098325536
18	0xbdd341d5	-0.10315291
19	0x3e55db08	0.20884335
20	0xbd009988	-0.03139642
21	0xbd489aaa	-0.048975624
22	0x3e899b8f	0.26876494
23	0xbcddf2e4	-0.027093358
24	0x3d6a6099	0.05722103
25	0xbeb0d1f4	-0.34535182
26	0x3d5fdb10	0.054652274
27	0xbe18c2a6	-0.14918002
28	0x3dff3130	0.12460554
29	0xbc89e9ec	-0.016835175
30	0xbdc9708c	-0.0983592
31	0xbce83f7e	-0.028350588
32	0xbe333fde	-0.17504832
33	0xbe28cd1a	-0.1648449
34	0x3cc725f8	0.024310097
35	0xbdbed169	-0.093172856
36	0x3d1f66f9	0.03891656
37	0x3e48780c	0.19577044
38	0xbe247f12	-0.16064098
39	0xbd338652	-0.04382927
40	0xbcb629b0	-0.022236675
41	0x3c208094	0.00979628
42	0x3d93bc7d	0.07213686
43	0x3e1de389	0.15418829
44	0x3e471f1e	0.19445464
45	0x3e3970d4	0.18109447
46	0xbdbefd6c	-0.0932568
47	0xbe300673	-0.1718996
48	0x3c147a2e	0.009062333
49	0xbe65d9c4	-0.22446352
50	0xbcf4523a	-0.029824365
51	0x3e54cbff	0.20780943
52	0xbe20d92d	-0.15707846
53	0x3e7657e1	0.2405696
54	0x3e450ef0	0.1924398
55	0x3ccc1630	0.024912924
56	0xbd50de7e	-0.050993435
57	0xbbd33b20	-0.0064462572
58	0x3de7ed00	0.11324501
59	0xbd09b98e	-0.033624224
60	0xbd8592df	-0.06522154
61	0xbe5af352	-0.21381882
62	0x3ddc64ca	0.107614115
63	0x3d8dc264	0.06921843
64	0xbdfdcd4e	-0.123926744
65	0x3e0be4c0	0.1366148
66	0xbd992048	-0.0747686
67	0x3dd37695	0.10325352
68	0x3bcd3d20	0.00626339
69	0xbdc3da37	-0.095631056
70	0xbde6a909	-0.1126271
71	0x3e0eba7e	0.13938329
72	0x3e2d093b	0.16898052
73	0x3da80554	0.08204141
74	0x3dc0e2c8	0.09418255
75	0x3ea8a7da	0.3294056
76	0xbca53148	-0.0201651
77	0xbdfac333	-0.122442625
78	0xbdbb3ac4	-0.09142068
79	0x3dd5fabe	0.10448216
80	0xbe5344c7	-0.20631705
81	0xbcf44fb0	-0.029823154
82	0x3dcf970a	0.1013623
83	0xbbc67960	-0.0060569495
84	0xbdf7557e	-0.12076853
85	0x3e604554	0.21901447
86	0xbdcdf05b	-0.1005561
87	0xbd091d04	-0.033474937
88	0xbe5f8736	-0.21828923
89	0x3db77ff4	0.08959952
90	0xbe27ab42	-0.16373923
91	0x3e3c24b2	0.18373373
92	0xbcebbd88	-0.028776899
93	0x3d72925a	0.059221603
94	0x3dbf5d8b	0.09344014
95	0xbd3fc86e	-0.046822004
96	0x3c09f570	0.008420333
97	0x3e0c027c	0.13672823
98	0xbcb815a7	-0.022471262
99	0x3e8bb3c0	0.27285576
100	0x3e1af03c	0.15130705
101	0x3e803456	0.2503993
102	0x3d171a20	0.03689015
103	0x3defabee	0.11702715
104	0xbe2089f8	-0.15677631
105	0xbe2dedfa	-0.16985312
106	0x3e0c7ae8	0.1371876
107	0x3dda9916	0.1067373
108	0x3db48384	0.08814147
109	0x3e0aa04a	0.13537708
110	0x3e54682f	0.20742868
111	0x3e113b6c	0.14182824
112	0xbd1d1f8c	-0.038360164
113	0x3ba2c290	0.0049670413
114	0x3dd9f4ae	0.10642372
115	0x3eb82d4a	0.35972053
116	0xbe93150d	-0.28726998
117	0x3e4bda80	0.1990757
118	0xbe56165e	-0.2090697
119	0xbe1fc105	-0.15600975
120	0x3d170174	0.03686662
121	0xbdd80cf8	-0.105493486
122	0xbe24edb8	-0.16106308
123	0x3a7fef00	0.0009763092
124	0xbd144f57	-0.036208477
125	0xbdb30506	-0.087411925
126	0x3e74cc45	0.23906048
127	0x3da2ed3e	0.079554066
128	0xbd8bb1aa	-0.06820996
129	0x3e50cf95	0.20391686
130	0xbe82b6a2	-0.25529963
131	0x3e3fdd77	0.18736826
132	0x3d39784a	0.045280732
133	0x3e18b2fb	0.14912026
134	0xbe85d566	-0.26139373
135	0xbdf7daf6	-0.1210231
136	0xba54c280	-0.0008116141
137	0xbcae2584	-0.021258123
138	0x3e1f3c6e	0.15550396
139	0x3cb26600	0.021777153
140	0x3dab8ae2	0.08376099
141	0x3dbb0c34	0.09133187
142	0xbe37221a	-0.17884102
143	0x3e7b3236	0.24530873
144	0xbcb46e8c	-0.02202537
145	0xbd5a544c	-0.053303048
146	0x3e57eab9	0.21085633
147	0x3ec6bf96	0.38818043
148	0x3c1089a1	0.008821876
149	0xbe0b6b08	-0.13615048
150	0xbe4e65a0	-0.20155954
151	0x3d0beb6d	0.034160066
152	0x3d194263	0.037416827
153	0x3dc46269	0.09589083
154	0x3e3ebb36	0.18626103
155	0x3e273178	0.16327465
156	0x3d8784d2	0.0661713
157	0x3d3e4210	0.04644972
158	0xbe82d875	-0.2555577
159	0x3e714e34	0.23564988
160	0xbd8c0710	-0.068372846
161	0x3c4db9d8	0.012556516
162	0xb9f8b700	-0.00047438592
163	0x3d41f8a1	0.04735625
164	0xbd1fa000	-0.038970947
165	0x3eafde0d	0.343491
166	0x3dfecab2	0.12441005
167	0xbe7e0772	-0.24807528
168	0xbde2c07f	-0.11071872
169	0x3d17f638	0.037100047
170	0x3ea12483	0.3147317
171	0xbe509cec	-0.20372361
172	0xbdcc545e	-0.09977029
173	0xbd403433	-0.04692478
174	0x3e4e0d16	0.2012218
175	0xbd5e004c	-0.054199502
176	0xbde64984	-0.11244491
177	0xbe0687f1	-0.13137795
178	0x3d1ec150	0.038758576
179	0xbe4a21f2	-0.19739512
180	0xbbf59ac0	-0.0074952543
181	0x3e0d188a	0.13778892
182	0x3ddd4f06	0.10806088
183	0x3c9d39f8	0.01919268
184	0xbe24f8b6	-0.161105
185	0xbcc3cb0a	-0.023900528
186	0xbd8e695b	-0.06953689
187	0xbb231640	-0.0024885088
188	0x3c7ab9a0	0.0153030455
189	0x3b228ad0	0.0024801977
190	0x3e52c5d3	0.20583276
191	0xbe19166e	-0.14949962
192	0xbb41a000	-0.002954483
193	0x3e53e8a8	0.2069422
194	0x3db70cca	0.08937986
195	0xbe7e6d71	-0.24846436
196	0x3ce657e8	0.028118089
197	0xbd0860d2	-0.03329546
198	0xbdad2384	-0.0845404
199	0x3e6041d0	0.21900105
200	0x3d75b0cc	0.05998306
201	0xbd99fa5d	-0.07518456
202	0x3e0cb440	0.13740635
203	0xbe42d420	-0.19026232
204	0xbd4366b1	-0.047705356
205	0xbdfa4dfe	-0.12221907
206	0x3daf891a	0.08571072
207	0xbe9532e2	-0.29140383
208	0xbe9cf624	-0.3065654
209	0xbc72ddbc	-0.014823373
210	0xbe2f4782	-0.17117122
211	0xbcc7248a	-0.024309415
212	0x3da7aaa8	0.08186847
213	0xbe4e4da4	-0.20146805
214	0x3d076cdc	0.0330628
215	0x3dffeb64	0.12496069
216	0xbd96c8ca	-0.07362516
217	0x3dfeeee1	0.12447906
218	0x3e8fa726	0.28057212
219	0xbd6ed578	-0.05830905
220	0x3d4a19d2	0.04934103
221	0xbe3e5f98	-0.18591154
222	0xbca0dfd0	-0.019637972
223	0x3e17d877	0.14828669
224	0x3d5b9ed4	0.053618267
225	0x3d22a794	0.039710596
226	0x3e0c9f6b	0.13732688
227	0xbe47cc7a	-0.19511595
228	0xbb6533c0	-0.0034973472
229	0xbda5d98c	-0.080981344
230	0xbb91ff60	-0.004455492
231	0xbe1d1fae	-0.15344116
232	0xbe00e595	-0.12587579
233	0x3d80765b	0.062725745
234	0x3e25f251	0.16205718
235	0x3e87b9ef	0.26509044
236	0x3d71235d	0.058871616
237	0xbed33dfa	-0.41258222
238	0xbe503dda	-0.20336094
239	0xbd10bd74	-0.035336927
240	0xbe73a5d1	-0.23793723
241	0xbe01af21	-0.12664463
242	0x3dc288db	0.09498759
243	0x3ddf3855	0.10899416
244	0x3d15867a	0.0365052
245	0xbd485531	-0.04890937
246	0x3e00982e	0.12558052
247	0xbdc71840	-0.09721422
248	0x3e9405aa	0.2891057
249	0x3dbc9353	0.09207787
250	0xbd37f036	-0.044906817
251	0xbd6dbdd0	-0.058042347
252	0x3dd0bd6f	0.101923816
253	0x38e95800	0.00011126697
254	0xbd87f691	-0.06638826
255	0xbdd78403	-0.10523226

linear.weight f4 [1, 100]
0	0xbc2e0a3a	-0.010622555
1	0xbd5145d8	-0.051092
2	0x3d8a16e3	0.067426465
3	0x3cfeef38	0.031119928
4	0xbdc51cd8	-0.09624642
5	0xbab0c000	-0.0013484955
6	0x3de1ef8a	0.110320166
7	0x3b642860	0.0034814104
8	0x3d85c95c	0.06532547
9	0xbd204115	-0.039124567
10	0x3dc8ce9b	0.09805032
11	0xbde5393b	-0.111925565
12	0x3cdae6e6	0.02672143
13	0x3e90440e	0.28176922
14	0xbe8749e4	-0.26423562
15	0xbd696508	-0.056981117
16	0xbd9e2e4c	-0.07723674
17	0x3e3560b1	0.17712666
18	0x3dfe28d4	0.12410131
19	0xbbe3dab8	-0.0069535635
20	0x3d064f3a	0.0327904
21	0x3d113a20	0.035455823
22	0x3dd011e9	0.10159666
23	0xbe61b7ad	-0.22042723
24	0xbce98150	-0.028504044
25	0x3d8e9f18	0.069639385
26	0xbd39f0a8	-0.045395523
27	0x3d066a7f	0.032816406
28	0xbd86c353	-0.06580224
29	0xbddfceeb	-0.10928138
30	0xbda91a04	-0.08256915
31	0xbea4f3be	-0.3221721
32	0xbbd1d370	-0.006403379
33	0xbca888c7	-0.020573033
34	0xbe14fe34	-0.14550096
35	0x3e9d9de5	0.30784526
36	0x3bf4b690	0.007468052
37	0x3e50ae98	0.20379102
38	0x3e4bb119	0.19891776
39	0xbb4b8358	-0.0031053629
40	0x3e0dad91	0.13835742
41	0xbe2ebbd0	-0.17063832
42	0xbe0dbc76	-0.13841423
43	0x3d037e92	0.03210313
44	0x3e31ef77	0.17376505
45	0xbd9db218	-0.07699984
46	0xbddf2d10	-0.10897267
47	0xbe6951f2	-0.22785166
48	0xbe2593e4	-0.16169697
49	0x3d892c4e	0.066979036
50	0x3da6113a	0.081087545
51	0xbc443db8	-0.0119776055
52	0x3de76612	0.11298765
53	0xbeb5e832	-0.35528713
54	0x3d28c6ec	0.04120533
55	0xbe05c4c4	-0.13063341
56	0xbca7a812	-0.020465884
57	0x3de61cbf	0.11235952
58	0xbe5caf44	-0.21551234
59	0xbc8de560	-0.017321289
60	0xbd5ab2a6	-0.05339303
61	0x3cfc0234	0.03076277
62	0xbaaf0600	-0.0013353229
63	0x3d3bd0db	0.045853477
64	0xbe5ee7f4	-0.2176817
65	0xbe19aaf4	-0.1500662
66	0x3d374acd	0.04474907
67	0xbdac5e11	-0.08416379
68	0xbe569ef0	-0.20959067
69	0xbdd6c0b4	-0.10485974
70	0x3db16334	0.086614996
71	0x3ecea385	0.4035913
72	0xbcb4b298	-0.022057816
73	0xbddc016c	-0.10742459
74	0xbd08cbf4	-0.03339763
75	0xbe463f38	-0.19360054
76	0x3dbede72	0.09319772
77	0xbdcec04c	-0.100952715
78	0xbe779c1c	-0.24180645
79	0x3d99256a	0.07477839
80	0x3d289421	0.04115689
81	0xbd72eb6c	-0.059306547
82	0xbe405ce9	-0.18785442
83	0xbcf43346	-0.029809605
84	0x3d653a41	0.05596376
85	0xbe1133c4	-0.14179903
86	0xbdba4997	-0.090960674
87	0x3e443a7a	0.19162932
88	0xbd3c4e22	-0.04597295
89	0xbdb60d46	-0.088892505
90	0xbda553b0	-0.08072603
91	0x3e20b662	0.15694574
92	0xbdb28018	-0.08715838
93	0xbe025df2	-0.1273115
94	0x3c9557f8	0.018230423
95	0x3e84517e	0.25843424
96	0xbe55cdb3	-0.2087925
97	0xbd75d477	-0.060017075
98	0x3d506127	0.0508739
99	0x3eabcb06	0.33553332
