results/base_bs8_sl90_ep5/model.pt (torch_old, 166230 bytes, 5 tensors)

lstm.weight_ih_l0 f4 [400, 1]
0	0xbe454f0e	-0.19268438
1	0x3e245e5a	0.16051617
2	0xbda1a3f1	-0.078925975
3	0x3bf81970	0.0075713918
4	0x3dce8577	0.1008405
5	0x3e1eccf6	0.15507874
6	0x3c56e52f	0.013116165
7	0x3d6bf9ec	0.05761139
8	0xbdd821e3	-0.105533384
9	0x3d9037f9	0.07041926
10	0x3de446c1	0.11146308
11	0x3ddbc3e0	0.107307196
12	0x3da7f3a2	0.08200766
13	0x3e72b648	0.23702347
14	0x3d8b5558	0.068033874
15	0x3e0a7830	0.1352241
16	0xbd99494b	-0.07484683
17	0x3defbb2e	0.117056236
18	0x3ceaa188	0.028641477
19	0xbc97616f	-0.018479077
20	0xbe0c3c58	-0.13694894
21	0xbe0507f9	-0.12991323
22	0x3e1cafbf	0.15301417
23	0x3c874f0b	0.016517183
24	0xbe1e3e1d	-0.15453382
25	0x3c7b4bf6	0.015337935
26	0x3def12d5	0.11673514
27	0x3c71ef7c	0.01476657
28	0xbe1354f8	-0.14387882
29	0x3d0f37a5	0.034965176
30	0x3e334a66	0.1750885
31	0x3db48fee	0.08816515
32	0x3c40ad91	0.011760131
33	0x3ea5c492	0.32376534
34	0x3e45854e	0.19289133
35	0x3d5426c4	0.051794782
36	0x3e49620e	0.19666311
37	0x3ea64307	0.32473013
38	0xbe00d251	-0.1258023
39	0xbddb2097	-0.106995754
40	0x3e795ca6	0.24351749
41	0x3e124688	0.14284718
42	0xbe019c46	-0.1265727
43	0x3d843454	0.06455293
44	0x3dbb737e	0.09152888
45	0xbe9ebd73	-0.31003913
46	0xbe4e5313	-0.20148878
47	0x3ea848f5	0.32868162
48	0xbd0e202c	-0.03469865
49	0xbccdb8e0	-0.02511257
50	0x3e1a42c8	0.15064538
51	0x3e0a0431	0.13478161
52	0x3e9ac7e8	0.3023064
53	0x3cae0187	0.021240963
54	0xbe4b29f7	-0.19840227
55	0xbca65af7	-0.020307047
56	0x3dbe059b	0.09278413
57	0xbe77cf61	-0.24200203
58	0xbd02581a	-0.0318223
59	0x3ee386df	0.44438836
60	0xbdb48847	-0.08815055
61	0x3e6b24c3	0.22963242
62	0xbe32447a	-0.17408934
63	0x3e3827f5	0.17983992
64	0x3d985941	0.07438899
65	0x3dd6826e	0.10474096
66	0xbe3b0ce6	-0.18266639
67	0xbe687c6c	-0.22703713
68	0xbdb9e290	-0.090764165
69	0x3e61e609	0.22060408
70	0xbe64ba00	-0.22336578
71	0x3c558e64	0.013034437
72	0xbdc07a17	-0.09398287
73	0xbe781f23	-0.24230628
74	0xbd21017d	-0.03930806
75	0x3e3c5f93	0.18395834
76	0xbe79a444	-0.24379069
77	0x3e0da97d	0.13834186
78	0x3c6f5f30	0.014610097
79	0xbdb0dbc6	-0.086356685
80	0xbcb8cdf8	-0.022559151
81	0xbd8a765f	-0.06760859
82	0x3e75d65e	0.24007556
83	0x3e920ef9	0.28527048
84	0x3d2febbf	0.042949434
85	0x3e784765	0.24245985
86	0x3c82dff0	0.015975922
87	0xbde8b845	-0.113632716
88	0xbce98c48	-0.028509274
89	0x3df18132	0.1179222
90	0x3d6ecc5f	0.058300372
91	0x3e1b2d53	0.15154009
92	0x3da96583	0.08271315
93	0xbe465d43	-0.19371514
94	0xbcef846e	-0.029237952
95	0x3df34f4d	0.1188036
96	0xbe192a51	-0.14957549
97	0xbdbacd39	-0.09121174
98	0x3e95c2bb	0.2925013
99	0xbdfda522	-0.12385012
100	0xbe695189	-0.2278501
101	0x3e632ad6	0.2218431
102	0xbe5c6b3c	-0.21525282
103	0xbde6aeed	-0.11263833
104	0xbd8a2ecf	-0.06747209
105	0x3e3cb276	0.18427452
106	0x3dfe4dae	0.1241716
107	0xbdcac2d8	-0.09900445
108	0xbda5b9e3	-0.08092096
109	0x3dd48dc0	0.10378599
110	0x3dcf2f94	0.10116497
111	0x3d5813c5	0.05275323
112	0x3e154a58	0.14579141
113	0x3e7ee32f	0.24891351
114	0x3c405bbb	0.01174062
115	0x3e9dd7d4	0.30828726
116	0xbd33e610	-0.043920577
117	0x3e118bcd	0.14213486
118	0xbc899a75	-0.016797284
119	0xbc2a89b2	-0.010408806
120	0xbe27b6e6	-0.16378364
121	0xbe4dd045	-0.2009898
122	0x3d763154	0.060105637
123	0x3c334221	0.010941059
124	0xbd2e03fd	-0.042484272
125	0x3d27153b	0.04079173
126	0xbc6c604d	-0.014427257
127	0x3dbb1ac6	0.09135966
128	0x3d59c102	0.053162582
129	0x3c8a6a3e	0.016896363
130	0x3d9515e4	0.07279566
131	0x3c544bba	0.012957508
132	0xbd688da6	-0.05677571
133	0x3ea5963a	0.32341176
134	0x3e3c0cb2	0.18364218
135	0xbd3275cf	-0.043569382
136	0x3dfbdbbf	0.122977726
137	0x3e8bc96d	0.27302113
138	0xbe6add9b	-0.22936098
139	0x3d5529dc	0.052041873
140	0x3db7c79d	0.0897362
141	0x3e0cb03c	0.13739103
142	0xbe189466	-0.1490036
143	0xbdea27a8	-0.11433345
144	0x3d0a4e5c	0.033766136
145	0xbebce226	-0.36891288
146	0xbe29ec76	-0.16594109
147	0x3e8fe265	0.28102413
148	0xbe1114d3	-0.141681
149	0x3d4a0f7d	0.049331177
150	0x3e2cbe84	0.16869551
151	0x3dfdf858	0.124008834
152	0x3e4eb3ac	0.20185727
153	0x3e4db8f3	0.20090084
154	0xbe528049	-0.2055675
155	0xbd8b074c	-0.06788501
156	0xbd57dc84	-0.052700534
157	0xbde96a35	-0.113972105
158	0xbd35c371	-0.04437584
159	0x3eae1b31	0.3400512
160	0xbe6b6ad4	-0.2298997
161	0x3e5ec55d	0.21754976
162	0xbe759e7e	-0.23986241
163	0x3d999824	0.07499722
164	0x3e49a9ca	0.19693676
165	0x3ca006ef	0.019534556
166	0xbe0ae1a5	-0.13562639
167	0xbe5ec08b	-0.21753137
168	0xbe505a85	-0.2034703
169	0x3edc8481	0.43069842
170	0xbe147c92	-0.14500645
171	0x3db1fddc	0.08690998
172	0xbe73e244	-0.23816782
173	0xbe61ba28	-0.22043669
174	0xbdf0b149	-0.117525645
175	0x3e3124fc	0.17299265
176	0xbe8f18c1	-0.27948573
177	0x3e1be497	0.15223919
178	0xbe1161ee	-0.14197513
179	0xbe831455	-0.2560145
180	0x3d9a7a08	0.07542807
181	0xbd7a6c1a	-0.06113825
182	0x3e2f01f0	0.17090583
183	0x3e6158a0	0.22006464
184	0x3dd62b55	0.10457484
185	0x3dc96030	0.098327994
186	0x3d27cd11	0.04096705
187	0xbe33ad3b	-0.17546551
188	0xbdc767a3	-0.09736564
189	0x3e8bf2f0	0.27333784
190	0x3d99904f	0.07498228
191	0xbc1fd550	-0.0097554475
192	0x3e53ddfe	0.20690152
193	0xbdb56033	-0.08856239
194	0x3d775bcd	0.060390282
195	0x3d5e0ddf	0.054212447
196	0xbe0bcb84	-0.13651854
197	0xbe8e1712	-0.27751976
198	0x3e6e1a78	0.23252285
199	0xbe74a20d	-0.23889942
200	0xbee7a985	-0.4524652
201	0x3da0cf7b	0.07852074
202	0xbdcbfd7f	-0.0996046
203	0xbe399894	-0.1812461
204	0x3ef93791	0.48675206
205	0x3d157e59	0.036497448
206	0x3e5e0bb9	0.2168416
207	0x3d80436f	0.06262862
208	0x3e905f90	0.28197908
209	0x3e032877	0.12808405
210	0x3cd3750f	0.025812654
211	0x3d96dfec	0.073669285
212	0xbd885ea5	-0.06658677
213	0x3e81e495	0.25369707
214	0x3d5ce135	0.05392571
215	0xbc355e02	-0.0110697765
216	0xbe068191	-0.13135363
217	0xbcd62040	-0.026138425
218	0xbe28597d	-0.16440387
219	0x3db1a80f	0.08674633
220	0xbe93641e	-0.2878732
221	0x3e37a696	0.17934641
222	0xbd2331c9	-0.0398424
223	0xbe93d9c5	-0.28877082
224	0x3e2d48f2	0.16922358
225	0x3e680c57	0.22660957
226	0x3c4f5934	0.012655545
227	0x3de37d32	0.111078635
228	0xbed810ea	-0.42200404
229	0xbcc45f44	-0.023971207
230	0xbe5a10b2	-0.21295431
231	0xbbfdbeb3	-0.0077436804
232	0xbbdf504c	-0.006814992
233	0xbd9ca5eb	-0.07648834
234	0x3d87fe10	0.066402555
235	0x3c858a81	0.016301395
236	0x3cc4a4a6	0.024004292
237	0xbe12dae2	-0.1434131
238	0xbe1b2a10	-0.15152764
239	0x3e1bb0e8	0.15204203
240	0x3d383b17	0.044978227
241	0xbd9b1b59	-0.075735755
242	0x3dc43781	0.09580899
243	0x3d9d3da5	0.076777734
244	0x3dca4f15	0.09878365
245	0xbd3a8b78	-0.045543164
246	0xbddc7283	-0.10764029
247	0xbda59764	-0.08085516
248	0x3e29a2ea	0.16566053
249	0xbdeb551f	-0.11490845
250	0x3c22f6d7	0.0099465465
251	0x3d869fce	0.06573449
252	0x3d556244	0.052095667
253	0xbd658cb4	-0.056042388
254	0x3db24882	0.08705236
255	0x3e596612	0.21230343

lstm.weight_hh_l0 f4 [400, 100]
0	0x3cf517c8	0.029918566
1	0xbccce85d	-0.025013143
2	0xbceb25db	-0.028704574
3	0xbca0dd96	-0.01963691
4	0xbb0a64ab	-0.0021117132
5	0x3d8fc59c	0.07020113
6	0x3d39381f	0.045219537
7	0x3cf0a6d3	0.029376423
8	0xbc22b5ed	-0.00993107
9	0xbbdc99e0	-0.0067322105
10	0x3e233f90	0.15942216
11	0xbe2b1dac	-0.16710538
12	0x3da65f62	0.081236616
13	0x3de690ba	0.11258073
14	0x3ce24216	0.027619403
15	0x3c160d36	0.009158423
16	0x3d74a70f	0.059729632
17	0xbe175bda	-0.14781132
18	0xbbd4a97d	-0.006489931
19	0x3d4c04ed	0.049809385
20	0xbd20d105	-0.039261837
21	0x3db21cf1	0.086969264
22	0xbcbc8ee8	-0.023017362
23	0x3de8a384	0.11359313
24	0x3c47f1da	0.012203658
25	0x3d915128	0.070955575
26	0x3e255696	0.16146311
27	0x3dcbde78	0.09954542
28	0xbd8d0772	-0.06886186
29	0x3bc42dde	0.005986913
30	0xbc3a7798	-0.011381052
31	0xbd846dea	-0.06466277
32	0xba311ea6	-0.0006756581
33	0xbc42711f	-0.0118677905
34	0xbd192c63	-0.037395846
35	0xbe3b8e26	-0.18315944
36	0x3c2b713b	0.010464008
37	0x3e4a6dc0	0.19768429
38	0x3d93b5f4	0.07212439
39	0x3c6040ba	0.013687307
40	0x3d525188	0.051347286
41	0xbc1774fd	-0.009244201
42	0x3cf5cd3a	0.030005086
43	0x3de3be7a	0.11120315
44	0xbcbc1918	-0.022961184
45	0xbe1a284c	-0.15054435
46	0xbd4bdb84	-0.049769893
47	0x3c305e46	0.010764664
48	0x3e0ffe4b	0.14061849
49	0xbb91bff8	-0.0044479333
50	0xbd18de2e	-0.037321262
51	0x3e271bd5	0.16319211
52	0xbd71a908	-0.05899909
53	0xbd0ed019	-0.034866426
54	0xbd7df248	-0.061998636
55	0xbac9a881	-0.0015385301
56	0x3d7085a4	0.0587212
57	0xbdbac8f3	-0.09120359
58	0x3d730015	0.05932625
59	0xbb61ae88	-0.0034436304
60	0xbc6cd58e	-0.014455212
61	0x3d5b14a9	0.0534865
62	0xbdf5674c	-0.11982593
63	0x3cd952a0	0.026528656
64	0xbd6fea71	-0.05857319
65	0x3e39efbe	0.1815786
66	0xbde9203d	-0.11383102
67	0xbd5781e5	-0.05261411
68	0x3c4908c4	0.012270156
69	0xbdcd4037	-0.10022014
70	0x3df67238	0.12033504
71	0x3cbfabd2	0.02339736
72	0xbd46599a	-0.048425294
73	0xbd4d8fc8	-0.05018595
74	0xbd16aabd	-0.036783922
75	0xbc2e00ae	-0.010620279
76	0x3e171f6f	0.14758085
77	0xbd31ba0c	-0.04339032
78	0xbda34d33	-0.07973709
79	0x3af1e8c9	0.0018456216
80	0x3d24f9d6	0.040277325
81	0xbd56b6ae	-0.05242031
82	0xbdd7de9f	-0.105405085
83	0x3d5f4255	0.05450662
84	0xbd49d428	-0.049274594
85	0x3c1dcd01	0.009631396
86	0xbdb3d97b	-0.087817155
87	0xbdb08e9a	-0.08620949
88	0x3cfc984d	0.030834341
89	0x3cd18950	0.025578171
90	0x3d9a83bf	0.0754466
91	0x3c876d63	0.016531652
92	0x3dceeb43	0.10103466
93	0x3dee43e1	0.116340406
94	0xbbba1ac4	-0.0056794602
95	0xbd825435	-0.063637175
96	0x3d542d10	0.051800787
97	0xbdbb3034	-0.091400534
98	0xbdc487d0	-0.09596217
99	0x3be721e4	0.0070536006
100	0xbe29072a	-0.16506639
101	0xbd081569	-0.033223543
102	0xbcc3b917	-0.023891969
103	0xbd4c6f0f	-0.0499106
104	0xbd83b999	-0.06431884
105	0x3de212a7	0.11038714
106	0x3d72871f	0.059210893
107	0x3da93860	0.08262706
108	0x3d244dfe	0.04011344
109	0x3e3814c8	0.17976677
110	0x3de52918	0.11189479
111	0x3d8e0ea1	0.06936384
112	0x3e1ca705	0.15298088
113	0xbe26f6f4	-0.16305143
114	0xbc6356a1	-0.013875634
115	0xbe29d517	-0.16585194
116	0xbde54b50	-0.11196005
117	0xbe003d2a	-0.12523332
118	0xbbab3cbe	-0.005225747
119	0x3dde5fb2	0.10858096
120	0xbe7d12ae	-0.24714157
121	0xbd4f24ed	-0.050572325
122	0x3dff1895	0.124558605
123	0x3cc14926	0.02359445
124	0x3e08d37e	0.13361928
125	0xbc079f11	-0.0082776705
126	0xbe0d2af6	-0.1378592
127	0xbd2eacee	-0.042645387
128	0xbe0fc052	-0.14038208
129	0xbd6a05b4	-0.057134345
130	0xbdda4f84	-0.10659698
131	0xbd99f4cf	-0.07517397
132	0xbccd2c09	-0.025045412
133	0x3e60f398	0.21967924
134	0xbdb9929f	-0.09061169
135	0x3d5d9b51	0.0541032
136	0xbd9b565b	-0.075848304
137	0x3b996cd0	0.004682161
138	0xbe10070c	-0.14065188
139	0x3c861298	0.016366288
140	0x3d1ca63c	0.03824447
141	0x3db3364f	0.08750593
142	0x3d7ed919	0.06221876
143	0x3db5bc47	0.08873802
144	0xbe2083bb	-0.15675251
145	0xbdbc3229	-0.09189255
146	0xbd4c71c7	-0.049913194
147	0xbdf300c3	-0.1186538
148	0x3db1ac4f	0.086754434
149	0xbe8bfcf7	-0.27341434
150	0x3e397337	0.18110357
151	0xbc9d9233	-0.019234752
152	0x3e8c5ae1	0.27413085
153	0x3dd19104	0.10232738
154	0x3dbb7cc0	0.091546535
155	0x3da13c54	0.07872835
156	0x3d2c1b09	0.04201797
157	0xbcd60ed8	-0.026130125
158	0x3d9e50ea	0.07730277
159	0xbd5c427a	-0.053774334
160	0x3d0726a1	0.032995824
161	0xbe0dc0af	-0.13843034
162	0xbd196393	-0.037448477
163	0xbddf3326	-0.10898428
164	0xba3ea300	-0.00072722137
165	0xbd30c739	-0.043158744
166	0xbd1b7020	-0.037948728
167	0x3d16a18a	0.03677515
168	0x3d8b4ad9	0.068013854
169	0x3dcedd48	0.101008
170	0x3c205ba7	0.009787477
171	0xbcd986df	-0.02655357
172	0xbd0fc33f	-0.03509831
173	0xbd1339af	-0.035943683
174	0x3d5c07e6	0.05371847
175	0xbe5b0668	-0.21389163
176	0x3de4e27b	0.1117601
177	0xbbc80d7c	-0.006105123
178	0x3cf56eab	0.029959997
179	0x3dfa980f	0.12236034
180	0x3e4de423	0.20106559
181	0x3e0aa53f	0.13539599
182	0xbd9068e2	-0.07051255
183	0xbde89aff	-0.11357688
184	0x3e278337	0.16358648
185	0xbcf95ae6	-0.030438852
186	0xbc380df5	-0.011233796
187	0x3da322c0	0.079656124
188	0x3d52bec0	0.051451445
189	0xbd7aad12	-0.06120021
190	0xbdd30cab	-0.103051506
191	0xbe5d88e8	-0.21634257
192	0xbd38a99c	-0.045083627
193	0xbc8e5b82	-0.017377619
194	0x3e13f215	0.14447816
195	0xbccd3d54	-0.025053658
196	0xbc0efa04	-0.008726601
197	0x3e433f43	0.19067101
198	0xbe6e40e5	-0.23266943
199	0x3d32bbc6	0.043636106
200	0x3d0b34e5	0.03398599
201	0xbd845de0	-0.06463218
202	0x3d059770	0.032615125
203	0x3dd45a8c	0.10368833
204	0xbe2ca8b6	-0.16861233
205	0xbc996e13	-0.018729245
206	0x3d3c299b	0.045938116
207	0xbd853795	-0.06504742
208	0x3deaf789	0.11472995
209	0x3dc2b8b6	0.09507887
210	0x3deb614a	0.11493166
211	0x3d0cc4d2	0.03436739
212	0x3d226617	0.03964814
213	0x3d40004e	0.04687529
214	0x3caf0c34	0.021368124
215	0xbdbde21f	-0.09271645
216	0x3d623690	0.055227816
217	0x3de1ba35	0.11021844
218	0x3d3173da	0.043323375
219	0x3d014bb3	0.031566333
220	0x3d013db0	0.03155297
221	0xbcba03ef	-0.022706954
222	0x3c62b29e	0.013836531
223	0xbd6454fd	-0.055745114
224	0x3dde53d9	0.108558364
225	0x3c948cc9	0.018133538
226	0xb8670c0d	-5.5085915e-05
227	0xbcc7ec22	-0.02440459
228	0x3d9a95fa	0.07548137
229	0xbd1e34f5	-0.038624723
230	0xbc8db268	-0.017296985
231	0xbd267031	-0.040634338
232	0x3d9fcde5	0.07802943
233	0x3dcf7294	0.10129276
234	0xbd89fffb	-0.067382775
235	0x3dce1ea1	0.10064436
236	0x3e08c38e	0.13355848
237	0x3c88ca40	0.016698003
238	0xbd222ed6	-0.039595447
239	0xbdafdb4f	-0.08586752
240	0xbe016ef3	-0.1263998
241	0xbb6f04d3	-0.0036471381
242	0x3d470a57	0.048593845
243	0xbdc2a75a	-0.09504576
244	0xbd956f00	-0.07296562
245	0xbcba235b	-0.022721937
246	0x3c672c46	0.014109677
247	0x3d3f702b	0.04673783
248	0xbd90bde7	-0.07067471
249	0xbe1c55af	-0.1526706
250	0x3c5cdb9c	0.013480093
251	0x3da1ec85	0.07906441
252	0x3dea133d	0.11429451
253	0xbcf7abbe	-0.03023326
254	0x3df7e583	0.12104323
255	0x3bc589a0	0.006028369

lstm.bias_ih_l0 f4 [400]
0	0x3e00602c	0.12536687
1	0x3ba087ff	0.0048990245
2	0xbdee9331	-0.11649168
3	0x3e2c2bbc	0.16813558
4	0xbe36fce8	-0.17869914
5	0xbdee08ee	-0.11622797
6	0xbe20d6bf	-0.15706919
7	0x3d740f26	0.05958476
8	0xbe1e1cfb	-0.15440743
9	0xbc42258e	-0.011849774
10	0x3d5f3c00	0.05450058
11	0xbd090f5f	-0.033461925
12	0xbd850e54	-0.064968735
13	0x3bcea5b5	0.006306375
14	0x3d3e7457	0.04649767
15	0xbdd8563f	-0.10563325
16	0xbcd55f75	-0.026046494
17	0x3d0fe04e	0.035126023
18	0xbd99b9a1	-0.07506109
19	0xbd85471f	-0.06507706
20	0xbc9556ac	-0.018229805
21	0x3d69d97a	0.057092167
22	0xbdbb691e	-0.09150909
23	0x3d8c23d4	0.06842771
24	0xbd8142b5	-0.063115515
25	0x3c29e575	0.010369648
26	0x3d981374	0.074255854
27	0xbca479e9	-0.020077663
28	0x3d568347	0.05237129
29	0xbd13910e	-0.036027007
30	0xbc3955c3	-0.011311951
31	0xbd95c468	-0.07312852
32	0x3e6b2f8f	0.22967361
33	0xbe21affb	-0.15789787
34	0xbe79afcc	-0.24383467
35	0xbcc0df9c	-0.023544125
36	0xbd11cd62	-0.03559626
37	0xbde26a6b	-0.11055454
38	0xbcd08675	-0.02545474
39	0xbe1ca7e2	-0.15298417
40	0xbe4675ca	-0.1938087
41	0x3bf75cb5	0.0075488933
42	0xbe104e2e	-0.14092323
43	0xbdbaeaf4	-0.09126845
44	0xbca3fb8d	-0.02001741
45	0xbdd79a77	-0.10527509
46	0xbc7e7ff9	-0.015533441
47	0x3c85fe2b	0.016356548
48	0x3e199f65	0.1500221
49	0xbe101ff0	-0.14074683
50	0x3d985042	0.07437183
51	0xbe1a6046	-0.15075788
52	0x3dd901af	0.10596024
53	0x3d62449f	0.055241223
54	0xbd80043d	-0.062508084
55	0x3cb8da47	0.02256502
56	0x3ddb0063	0.10693433
57	0xbe07ec9c	-0.13273853
58	0x3d158bdd	0.036510337
59	0xbd016e01	-0.03159905
60	0x3e2fdd41	0.17174245
61	0xbbbbbf0d	-0.005729562
62	0x3d8d577c	0.06901452
63	0xbcce6f44	-0.02519954
64	0xbe10edd0	-0.14153218
65	0xbdb05cec	-0.086114734
66	0xbd9885e6	-0.07447414
67	0x3d7cf6d2	0.061758824
68	0xbda2c563	-0.07947805
69	0xbd93002b	-0.071777664
70	0xbe05eaa3	-0.13077788
71	0xbd0d9db9	-0.034574244
72	0xbdd359a5	-0.10319833
73	0x3dedb3d7	0.11606567
74	0x3d300a54	0.0429786
75	0xbd892583	-0.06696608
76	0x3e275255	0.16340001
77	0xbd97958e	-0.07401572
78	0x3d0f9c78	0.03506133
79	0x3c4da512	0.012551563
80	0x3d60f507	0.054921176
81	0xbdfa1bb4	-0.12212315
82	0xbce68c32	-0.028143022
83	0xbdcfaffe	-0.1014099
84	0xbd53c08f	-0.05169731
85	0xbdba24ad	-0.090890266
86	0x3d8188ac	0.06324896
87	0xbc7a15c9	-0.015263983
88	0x3c47023d	0.01214653
89	0xbde4c039	-0.11169476
90	0xbd4b8861	-0.049690608
91	0xbd036754	-0.032080963
92	0xbdf4cdb8	-0.119533
93	0x3c5230c6	0.012829011
94	0x3d54232a	0.051791348
95	0xbd180533	-0.037114333
96	0xbdf1a910	-0.11799824
97	0xbb0b25ef	-0.0021232327
98	0xbe1b523f	-0.15168093
99	0xbe44758f	-0.1918547
100	0x3d913225	0.070896424
101	0xbd6116cf	-0.054953393
102	0x3daf913f	0.08572625
103	0x3de26eff	0.11056327
104	0x3e21bd51	0.15794875
105	0xbd628716	-0.05530461
106	0xbd4b77ff	-0.049674984
107	0x3cb9e184	0.022690542
108	0xbd86b44b	-0.06577357
109	0x3c59063d	0.013246116
110	0x3da38be6	0.07985668
111	0x3d203016	0.03910836
112	0x3cb61449	0.02222647
113	0xbe018dfe	-0.12651822
114	0xbd68305e	-0.05668675
115	0xbe123072	-0.14276293
116	0xbde305a1	-0.11085058
117	0xbc937ca4	-0.01800377
118	0xbdda97af	-0.106734626
119	0x3bc4d85e	0.0060072383
120	0x3d6deb28	0.05808559
121	0x3d44c7c5	0.048042078
122	0xbd9d9c8d	-0.07695875
123	0xbdb8fe43	-0.090328716
124	0x3d942cd6	0.07235114
125	0xbdddf6c1	-0.1083808
126	0x3da0f45e	0.07859109
127	0xbd04b97a	-0.032403447
128	0x3ccaec80	0.024770975
129	0xbab46dec	-0.001376567
130	0xbdb720c2	-0.08941795
131	0xbe314379	-0.17310895
132	0x3e462cc4	0.19353014
133	0xbdfb96e1	-0.12284637
134	0xbde1f00a	-0.11032112
135	0x3d72c2d0	0.05926782
136	0xbc651d3c	-0.013984021
137	0x3d36f119	0.044663522
138	0xbdaf567b	-0.08561417
139	0xbdcb22a0	-0.099187136
140	0xbe2f2e98	-0.17107618
141	0xbdf8d458	-0.12149876
142	0x3c2db418	0.01060202
143	0x3dc00e9e	0.09377788
144	0x3e0e7fcb	0.13915937
145	0xbd9b92b2	-0.07596339
146	0x3ce6caef	0.028172938
147	0x3c8714ac	0.01648935
148	0x3dd15b88	0.10222536
149	0x3cadefa0	0.021232426
150	0xbd850f21	-0.06497026
151	0xbd780499	-0.06055126
152	0xbd6953ab	-0.056964558
153	0x3d46e04d	0.048553754
154	0xbe2707f2	-0.16311625
155	0xbd655755	-0.05599149
156	0x3d09a701	0.033606533
157	0xbc89ac79	-0.016805874
158	0x3bf03535	0.0073305615
159	0x3d0c15f5	0.034200627
160	0x3e731ad4	0.23740703
161	0xbdc35730	-0.09538114
162	0x3de1f5a2	0.11033179
163	0x3d22f646	0.039785646
164	0xbdde4465	-0.10852889
165	0xbd9a180e	-0.07524119
166	0xbdbdf6d8	-0.09275597
167	0x3cd8b631	0.026454063
168	0x3e041047	0.12896834
169	0xbdb6359d	-0.08896945
170	0xbe036812	-0.12832668
171	0x3d45d312	0.048296995
172	0xbdd9f68e	-0.1064273
173	0x3d32e3b7	0.043674197
174	0xbd301119	-0.042985056
175	0xbbdaf6c9	-0.006682251
176	0x3dc37161	0.0954311
177	0x3d6fb5c0	0.05852294
178	0x3da54141	0.08069087
179	0x3da5b417	0.0809099
180	0x3d9a52be	0.07535313
181	0xbdd24c97	-0.102685146
182	0xbbe419a1	-0.006961063
183	0xbdf4fa0d	-0.11961756
184	0xbc31189f	-0.010809093
185	0xbe18113c	-0.14850324
186	0xbd6cb035	-0.05778523
187	0xbe117043	-0.1420298
188	0x3dc87ae1	0.09789062
189	0xbe19e687	-0.15029345
190	0x3d750398	0.05981788
191	0x3d3ff4f5	0.04686447
192	0x3c9ba51d	0.01899963
193	0x3e0ba0ae	0.13635513
194	0xbcf633ff	-0.03005409
195	0xbe15ab62	-0.14616159
196	0xbd8aefac	-0.06783995
197	0x3d8c296f	0.0684384
198	0x3cdb6d1e	0.02678543
199	0xbe19fe65	-0.1503845
200	0xbc946971	-0.018116685
201	0xbb92a52c	-0.0044752564
202	0xbc034248	-0.008011408
203	0xbd93ca94	-0.07216373
204	0x3d482dd5	0.048871834
205	0x3c91b845	0.017788062
206	0xbcdc72a0	-0.026910126
207	0x3d6c5bd4	0.05770476
208	0x3c4ebeec	0.0126187615
209	0x3dcfbb48	0.10143143
210	0x3dd95d56	0.106135055
211	0x3dbba9dc	0.091632575
212	0x3e1997d4	0.14999324
213	0x3c42cac2	0.011889162
214	0xbe06a7ed	-0.13149996
215	0xbdc36d45	-0.09542326
216	0x3d8e92f8	0.06961626
217	0xbcdc2fad	-0.026878202
218	0xbd5b5201	-0.053545002
219	0x3ddac0a7	0.10681277
220	0xbd36cd10	-0.044629157
221	0x3cbf9ce9	0.02339025
222	0x3d167f53	0.03674252
223	0x3d95b6fe	0.073102936
224	0xbca16fd2	-0.01970664
225	0x3db1e057	0.086853676
226	0x3d706615	0.058691103
227	0xbc2074df	-0.009793489
228	0xbdb7838e	-0.08960639
229	0xbdeb0c96	-0.1147701
230	0x3d253cb4	0.040341094
231	0xbda43d11	-0.0801946
232	0xbdeb408b	-0.1148692
233	0xbcc2d536	-0.023783308
234	0x3d863fdb	0.06555148
235	0xbdf2ff9c	-0.1186516
236	0xbd3d217d	-0.046174515
237	0xbd91a084	-0.07110694
238	0x3da984ce	0.082772836
239	0x3cf883ce	0.030336287
240	0xbcd6d3a7	-0.02622397
241	0xbc48b1d1	-0.012249426
242	0xbc888883	-0.016666656
243	0x3d8a4fdd	0.06753514
244	0x3d7a183a	0.06105826
245	0x3cf5eda8	0.03002055
246	0xbded8cd8	-0.115991294
247	0xbce9360e	-0.028468158
248	0x3dc662b9	0.096867986
249	0xbc49fb0a	-0.012327919
250	0x3e0754c0	0.13215923
251	0x3d636fb4	0.05552645
252	0x3d58f594	0.052968577
253	0x3ddca008	0.10772711
254	0x3d5e298e	0.05423885
255	0xbd7325d3	-0.059362244

lstm.bias_hh_l0 f4 [400]
0	0x3db9a88c	0.09065351
1	0x3d604c80	0.054760456
2	0xbd8b89c2	-0.068133846
3	0x3e26b858	0.16281259
4	0xbe69a0a8	-0.22815192
5	0xbe1f5ec6	-0.15563497
6	0xbdfcbe35	-0.123409666
7	0xbd92716b	-0.07150539
8	0xbdbce969	-0.09224207
9	0xbd4793e0	-0.04872501
10	0x3e055e2b	0.13024203
11	0xbdebd422	-0.115150705
12	0xbd469f57	-0.048491802
13	0xbde6f790	-0.112776875
14	0x3c99bd03	0.018766886
15	0xbcefd3ea	-0.029275853
16	0x3c7bd8db	0.015371527
17	0xbda2c901	-0.07948495
18	0xbdd86130	-0.10565412
19	0xbe1144f5	-0.14186461
20	0x3c6b6fc5	0.01436991
21	0x3b45923d	0.003014698
22	0xbddcb771	-0.10777176
23	0x3d6ac931	0.057320777
24	0xbd4f66b8	-0.05063507
25	0x3ba5b2d6	0.0050567193
26	0xbc4ff275	-0.012692084
27	0x3ca55254	0.020180859
28	0xbd7182b5	-0.058962543
29	0x3e1abe44	0.15111643
30	0xbe219e95	-0.1578315
31	0xbd8588da	-0.06520243
32	0x3e279aae	0.163676
33	0x3ba15165	0.004923033
34	0xbddb0ca8	-0.10695773
35	0x3d35f24e	0.044420533
36	0xbe33cdbd	-0.17558952
37	0xbdd0bb00	-0.101919174
38	0x3da8eb7c	0.0824804
39	0xbca7482b	-0.020420155
40	0xbd818b7f	-0.06325435
41	0xbe0a40a6	-0.13501224
42	0xbd754db4	-0.059888557
43	0xbcd216c7	-0.025645627
44	0x3d9a2515	0.07526604
45	0xbdf6bb5f	-0.12047457
46	0xbd5e4362	-0.05426348
47	0x3d77bad1	0.060480896
48	0x3e2837f5	0.16427596
49	0xbc942d66	-0.018088054
50	0x3d94d6ae	0.072675094
51	0xbbe2fd39	-0.006927159
52	0xbd660c2d	-0.056163955
53	0xbca2d9dc	-0.019879274
54	0xbcc45b45	-0.023969302
55	0xbe2c851e	-0.16847655
56	0x3dfededc	0.12444851
57	0xbd8d93e0	-0.069129705
58	0xbdf29bd9	-0.11846132
59	0x3b93d7eb	0.0045118234
60	0x3db610af	0.08889901
61	0xbd8fb8ce	-0.070176706
62	0x3c8f3c97	0.017484946
63	0xbbc4458a	-0.005989735
64	0xbd2d7740	-0.042350054
65	0x3d1a8b5e	0.037730567
66	0xbc7ada1d	-0.015310791
67	0x3d042f00	0.032271385
68	0x3cba9c23	0.02277953
69	0xbd86de59	-0.06585378
70	0xbe14e58f	-0.14540695
71	0xbda500c6	-0.08056788
72	0xbd864e74	-0.065579325
73	0x3dcbd178	0.09952062
74	0xbd5f8602	-0.05457116
75	0x3dd4468a	0.10365017
76	0x3db21279	0.0869493
77	0xbd22ba07	-0.03972819
78	0x3e5243a7	0.2053362
79	0x3d4e65d0	0.050390065
80	0x3ce8fc68	0.02844067
81	0xbcdc344c	-0.026880406
82	0xbdeb25e2	-0.11481835
83	0xbd244785	-0.04010727
84	0xbd5b59cb	-0.05355243
85	0xbd422aa7	-0.047403958
86	0xbddafcc6	-0.10692744
87	0xbdeb9d66	-0.11504631
88	0x3d77ffc1	0.06054664
89	0xbe3b336b	-0.18281333
90	0xbbf6edc6	-0.007535669
91	0xbd26b2c7	-0.04069784
92	0xbe130676	-0.14357933
93	0xbcb77691	-0.022395404
94	0xbcfa8caf	-0.030584661
95	0xbe1d8582	-0.1538296
96	0x3c2a5e1f	0.010398417
97	0xbba9ee8b	-0.0051859072
98	0xbe295df9	-0.16539754
99	0xbe057053	-0.1303113
100	0xbd17ebad	-0.037089992
101	0x3bf35680	0.007426083
102	0x3d78abd5	0.060710747
103	0x3dacbb75	0.08434192
104	0x3e6abb6e	0.22923061
105	0x3d79d960	0.06099832
106	0xbd88c80b	-0.0667878
107	0x3dd79521	0.10526491
108	0xbdc6e60b	-0.09711846
109	0xbdde7167	-0.108614735
110	0xbd31c110	-0.04339701
111	0xbd9aef14	-0.07565132
112	0xbd046d50	-0.03233081
113	0xbd113b19	-0.03545675
114	0x3d30d575	0.04317232
115	0xbe17b599	-0.14815368
116	0xbdc5fb8b	-0.09667119
117	0xbc9dac33	-0.01924715
118	0x3b37c40e	0.0028040442
119	0xbe0516d1	-0.12996985
120	0xbbc2a1bd	-0.005939691
121	0x3e2369c3	0.15958314
122	0xbdd888a3	-0.105729364
123	0xbde3d8d4	-0.11125341
124	0x3a723505	0.0009239468
125	0xbd99077f	-0.07472133
126	0x3ddfc79c	0.10926744
127	0xbcf08a14	-0.029362716
128	0xbddd3055	-0.10800234
129	0xbc74e575	-0.014947285
130	0xbd5c16a3	-0.053732526
131	0xbbd64542	-0.006539018
132	0x3eab7508	0.33487725
133	0xbcd0991a	-0.02546363
134	0xbe2a560a	-0.16634384
135	0x3dc2e345	0.095160045
136	0xbe10e17b	-0.14148514
137	0x3c515190	0.012775794
138	0xbd5651c0	-0.052324057
139	0xbe17e660	-0.14833975
140	0xbe1a7f5e	-0.15087649
141	0x3c3d9249	0.011570522
142	0xbb7f104c	-0.0038919626
143	0x3d8650f8	0.06558412
144	0x3c8f2125	0.01747186
145	0xbdd4be0c	-0.10387811
146	0xbd2ad014	-0.041702345
147	0xbdc054bb	-0.09391161
148	0x3de3a4bf	0.11115407
149	0x3cee8916	0.029118102
150	0xbca37918	-0.019955203
151	0xbe24d334	-0.16096193
152	0x3d16e71e	0.036841504
153	0x3d6b371f	0.057425614
154	0xbe156ef9	-0.14593114
155	0xbdcf7615	-0.10129944
156	0x3d6ed2d0	0.058306515
157	0xbd5a09e4	-0.05323209
158	0xbd309432	-0.04311008
159	0xbd1337c0	-0.03594184
160	0x3e653205	0.22382362
161	0x3d2cd54b	0.0421956
162	0xbd726f70	-0.059188306
163	0xbd8e2e8d	-0.069424726
164	0xbc0f7de7	-0.008758045
165	0x3cea0322	0.028565947
166	0xbd594aca	-0.05304984
167	0x3d2def78	0.042464703
168	0x3e0bcaee	0.1365163
169	0xbd56c15d	-0.0524305
170	0xbc007b53	-0.007841903
171	0x3c6d802f	0.014495893
172	0x3c420e40	0.011844218
173	0x3d8cc701	0.068738945
174	0x3d935e96	0.07195775
175	0xbd8f150a	-0.06986435
176	0x3d85582c	0.06510958
177	0xbcd79d8b	-0.02632024
178	0x3e57383c	0.21017545
179	0xbc3653e2	-0.011128398
180	0xbd293b3f	-0.041316267
181	0xbd855293	-0.065098904
182	0xbd594114	-0.05304058
183	0x3c0499a7	0.008093274
184	0xbdd29afa	-0.10283466
185	0xbe1b63c1	-0.15174772
186	0xbdb45099	-0.08804435
187	0xbdbace73	-0.09121408
188	0x3c663798	0.0140513405
189	0xbe29802c	-0.165528
190	0x3d97da57	0.07414692
191	0xbd8eee12	-0.06979002
192	0x3cf45dfa	0.029829968
193	0x3e5d6c3d	0.21623321
194	0x3d8ab1c7	0.067721896
195	0xbd275091	-0.04084832
196	0xbdcf850a	-0.10132797
197	0x3de18b4a	0.110128954
198	0xbe19366c	-0.14962167
199	0x3c45f590	0.012082472
200	0x3c8fdb55	0.01756064
201	0x3deb0aab	0.11476644
202	0xbc571f46	-0.013130015
203	0xbddb0dea	-0.10696013
204	0xbd245239	-0.040117476
205	0x3d733f09	0.059386287
206	0xbccfed9c	-0.025381856
207	0xbd285486	-0.041096233
208	0x3caa0066	0.020752143
209	0x3d828aee	0.06374155
210	0x3d9e8fc2	0.077422634
211	0x3d71f0fc	0.05906771
212	0xbb1251c1	-0.002232656
213	0x3cbb0270	0.02282831
214	0x3cb235e2	0.021754209
215	0xbd897a1c	-0.06712744
216	0x3da85d03	0.082208656
217	0xbc90d1c1	-0.017678143
218	0x3d107841	0.035270933
219	0x3bdf76fc	0.006819604
220	0xbbe91538	-0.007113125
221	0x3dac0429	0.08399231
222	0x3cc5da2d	0.024151886
223	0x3aa78025	0.0012779279
224	0xbd2bd07e	-0.04194688
225	0x3be61ef0	0.007022731
226	0x3df3b0bf	0.11898946
227	0x3df56692	0.11982454
228	0x3dc78d3c	0.09743735
229	0x3b8f7232	0.004377627
230	0x3cdf5f5b	0.027267149
231	0xbd89957b	-0.06717964
232	0x3c91fa1d	0.017819459
233	0x3de8108e	0.113312826
234	0xbd164858	-0.036690086
235	0xbde54c99	-0.111962505
236	0x3da86cdd	0.08223889
237	0xbd8609c5	-0.06544832
238	0x3c83faf1	0.01611087
239	0x3d0ca270	0.0343346
240	0xbd876428	-0.066109
241	0xbdd4fe4a	-0.10400064
242	0x3ace6992	0.0015748015
243	0x3cac31ba	0.021019805
244	0x3e0b4bb3	0.13603096
245	0xbd12e6b2	-0.03586454
246	0x3d88a86f	0.06672751
247	0xbda83446	-0.08213095
248	0x3d85c348	0.065313876
249	0xbd2c2268	-0.042025
250	0x3da426e7	0.080152325
251	0x3db95f52	0.09051384
252	0x3de215ec	0.110393375
253	0x3d22a250	0.039705575
254	0xbc4cba37	-0.012495569
255	0x3d991ddc	0.07476398

linear.weight f4 [1, 100]
0	0xbe0bc254	-0.13648349
1	0xbd170344	-0.03686835
2	0x3b7b3890	0.0038333274
3	0xbd506160	-0.050874114
4	0x3e5a8082	0.21338084
5	0xbd30444f	-0.043033894
6	0x3d81005a	0.06298895
7	0x3cafaa0f	0.021443395
8	0x3d8df5b1	0.069316275
9	0x3c7f4736	0.015580943
10	0xbcd47039	-0.025932418
11	0xbc8022e2	-0.015641633
12	0xbb2d41df	-0.0026436967
13	0xbc31da11	-0.010855214
14	0x3d6966df	0.05698287
15	0xbcc468ef	-0.023975817
16	0xbdb4e8cb	-0.08833464
17	0x3d467dae	0.0484597
18	0xbc7fcc70	-0.015612707
19	0x3d0823da	0.033237316
20	0xbde0ff56	-0.109862015
21	0x3d8032c8	0.06259686
22	0xbcb85053	-0.02249924
23	0xbda02189	-0.07818896
24	0x3d5c7055	0.053818066
25	0x3d8f76ba	0.07005067
26	0x3cb4e9a6	0.022084069
27	0xbd24e4a1	-0.0402571
28	0xbdc7f48c	-0.097634405
29	0x3d0ee4e9	0.034886274
30	0xbd0b8342	-0.034060724
31	0x3c92e8b7	0.017933233
32	0xbc4f6808	-0.01265908
33	0x3bd21370	0.0064110085
34	0xbbb66e7a	-0.005567369
35	0x3daf720d	0.08566675
36	0xbbab254b	-0.0052229515
37	0x3e1e646f	0.15468
38	0xbde924a6	-0.11383943
39	0x3cf9e508	0.030504718
40	0x3d03cb64	0.03217639
41	0xbd1b853d	-0.037968863
42	0x3dbe53c7	0.09293323
43	0xbd5be412	-0.0536843
44	0xbd61f31a	-0.05516348
45	0xbbd42d88	-0.0064751543
46	0xbdad44ae	-0.08460365
47	0x3c153603	0.009107116
48	0x3c8a02dd	0.016847068
49	0xbcf7f472	-0.030267928
50	0xbc13d350	-0.009022549
51	0xbd4652d6	-0.048418842
52	0xbc19c98f	-0.009386434
53	0xbd7f61a9	-0.062348995
54	0x3cb3c667	0.021945192
55	0x3d73ba88	0.059504062
56	0xbdc152c9	-0.09439618
57	0xbd8c6546	-0.06855254
58	0xbd51f3ac	-0.051257774
59	0xbc88b874	-0.016689517
60	0x3d417fef	0.047241148
61	0x3b89e3fb	0.0042080856
62	0xbd9d325b	-0.0767562
63	0x3c28495e	0.010271398
64	0xbda66c44	-0.08126119
65	0xbcfd27dc	-0.030902795
66	0xbd8dd017	-0.069244556
67	0xbd4d6481	-0.050144676
68	0x3d262a39	0.04056761
69	0xbdb950a2	-0.090485826
70	0x3c9cb41c	0.019128852
71	0xbda43fbe	-0.0801997
72	0xbd743f77	-0.059630837
73	0xbd1ba926	-0.03800311
74	0x3db11b53	0.0864779
75	0xbd12d5c8	-0.03584841
76	0x3d317cec	0.043332025
77	0x3cbb14b0	0.022837013
78	0x3d98958d	0.074503995
79	0x3d9f43af	0.077765815
80	0x3cb61e47	0.022231234
81	0x3d347fe9	0.044067297
82	0x3cad174e	0.021129277
83	0x3bb948f6	0.0056544496
84	0xbb022522	-0.0019858559
85	0x3cbd0dfe	0.023077961
86	0xbcc87f9e	-0.024474915
87	0x3dd7f8bc	0.10545489
88	0xbcd1b108	-0.02559711
89	0x3c4eea2e	0.012629075
90	0xbc5c9482	-0.013463141
91	0xbd8304fa	-0.063974336
92	0x3c5efcdf	0.013610094
93	0xbce422ab	-0.027848562
94	0xbc6f1027	-0.014591253
95	0xbce2e136	-0.02769528
96	0x3ba574e0	0.005049333
97	0x3d440761	0.0478586
98	0xbd751018	-0.0598298
99	0x3ccc517d	0.0249412
