results/base_bs8_sl90_ep5/model.pt (torch_old, 166230 bytes, 5 tensors)

lstm.weight_ih_l0 f4 [400, 1]
000000 60 89 53 3d 3c 5b 02 3e 30 06 e4 bc cf 2b a3 3d
       0.051644683 0.12730116 -0.027834982 0.0796734
000010 ab 34 58 3c c1 47 8b 3d 44 ee 62 3e de db 09 3c
       0.013196151 0.06800795 0.22161204 0.008414237
000020 8c 37 8e bd 96 90 6f bb e6 c3 28 bd 31 51 a3 3d
       -0.069441885 -0.0036554686 -0.04120245 0.079744704
000030 64 ff 02 3e c8 87 67 3e 55 ba 36 3d b0 e1 a7 3d
       0.12792736 0.2261039 0.044611294 0.08197343
000040 35 bf 27 bd c4 7d 8c 3d b4 0d e9 3c f9 0d 15 be
       -0.040953834 0.068599254 0.028448917 -0.14556111
000050 bb 77 10 be 5b 7c 24 3c 4e bf 56 3e 3a 85 77 bd
       -0.14108174 0.010039414 0.20971414 -0.06042979
000060 39 d8 3d 3e 52 05 fa bd 24 4c 4f bc 7b 4f a8 bb
       0.18539514 -0.12208046 -0.012652431 -0.005136428
000070 0c 4d 28 3d 5d 26 02 be 53 42 1b be 22 28 6e bb
       0.041089103 -0.12709947 -0.1516202 -0.003633984
000080 c3 ed 2e 3e 50 19 46 bd 01 29 a3 3d 4d 10 e7 bd
       0.17082886 -0.048363984 0.07966805 -0.11282406
000090 f4 34 32 3e 4e ec f4 3d 80 c1 d1 bd 06 10 1a be
       0.17403013 0.11959134 -0.10241985 -0.15045175
0000a0 d5 cd cf bd cc 2e e8 bd 2c 6c b4 3d 15 f7 bb 3d
       -0.10146681 -0.11337051 0.08809695 0.091779865
0000b0 b9 cf f1 bc 16 f3 85 bd 3a 65 d9 3c fc da c6 3c
       -0.029517995 -0.065405056 0.026537526 0.024274342
0000c0 93 31 c7 bc 45 5c 24 3c 78 35 41 bc 81 51 65 3e
       -0.024315631 0.010031764 -0.011792533 0.22394373
0000d0 21 cf 26 be 07 a4 a3 bc 97 83 f4 bd 45 8b 26 be
       -0.16289951 -0.019975675 -0.11939161 -0.16264065
0000e0 93 77 c7 ba bb 6d 54 3c 62 27 34 3d 26 d3 4d bd
       -0.0015218131 0.012965615 0.04398287 -0.050250195
0000f0 56 be 4c be 6a 0a cb bb 64 de e5 3d 06 89 38 be
       -0.19994482 -0.00619631 0.11224058 -0.1802102
000100 c8 be b5 3d fa d5 40 3d f0 2c 41 3c 90 1d 3c 3d
       0.08874279 0.047079064 0.011790499 0.04592663
000110 f8 15 a8 bc 3e 51 3f bd 80 1a 52 3c 58 d6 9f bc
       -0.020518288 -0.046708338 0.012823701 -0.019511387
000120 35 08 cf bd bf 37 cb 3d a3 b6 aa b8 ac c5 e2 3d
       -0.10108987 0.09922742 -8.1402504e-05 0.11072859
000130 5d 2b cc bd a6 ba 1b 3d a6 e0 49 37 0c 4c 42 3d
       -0.099692084 0.0380198 1.2032839e-05 0.047435805
000140 d9 02 ec 3c ae e2 d8 bc 39 52 26 be 40 e3 d2 bd
       0.028809952 -0.026475277 -0.16242303 -0.10297251
000150 b7 fb a6 bd 26 53 4b 3d 4a 80 4a bd ee 1a e5 3d
       -0.081534795 0.049639843 -0.049438752 0.11186777
000160 b0 97 84 3d a3 91 b7 bc ae 75 cf 3d da c8 22 3d
       0.064742446 -0.022408312 0.101298675 0.03974233
000170 84 f7 79 bd 34 8f 7f bd 2c d4 10 be cb 8e 1b 3e
       -0.061027065 -0.06239243 -0.14143437 0.1519119
000180 5d 04 85 bd b2 7b 07 3e 6d 52 ac bd cc bd 03 39
       -0.06494973 0.1323078 -0.08414159 0.00012563838
000190 19 99 71 3d 40 f9 1b 3d a2 ca 43 be 46 68 42 3e
       0.058983896 0.0380795 -0.19120267 0.1898509
0001a0 27 32 e2 bd a0 f2 04 3d 01 75 29 3e 88 75 22 be
       -0.11044722 0.032457948 0.1654854 -0.15865147
0001b0 51 8f 5b be 99 50 14 bd f6 db 2f be 80 38 da 3d
       -0.2144139 -0.036209676 -0.17173752 0.10655308
0001c0 2e 1d 27 3e 27 9d e2 3d 94 0a a9 bb af 20 41 3d
       0.16319725 0.11065131 -0.0051587317 0.04715031
0001d0 51 c9 20 be 3a 70 01 bd 87 3b 59 3c 3e c8 6e bc
       -0.15701796 -0.03160117 0.013258821 -0.014574109
0001e0 95 63 46 bd 39 e7 26 3e 1a e5 f3 3d ac a8 65 be
       -0.048434813 0.16299142 0.11908932 -0.22427624
0001f0 6b 59 0b 3e 58 24 f8 bd 08 d7 8c bb f1 fa 3b 3e
       0.13608329 -0.12116307 -0.0042980947 0.18357445
000200 9b 5b a1 3d 14 17 1e be ff 94 fb bd 99 7a 1a be
       0.078788005 -0.15438491 -0.12284278 -0.1508583
000210 09 f3 a7 3d 47 6f 39 be 05 8e 7c bc 14 6a c0 bd
       0.08200652 -0.18108855 -0.0154147195 -0.09395233
000220 71 8c c0 bb f8 c6 d5 3b f6 7f 6c bd 2b 3d 36 be
       -0.005876117 0.006523963 -0.05773922 -0.17796771
000230 d0 3b 87 bd f4 bb 3a bc fd 77 8d bc 7c 50 90 3d
       -0.06603205 -0.011397351 -0.017269129 0.07046601
000240 dd 2a 2a be 1f 00 48 be 9f 1a fe 3c 65 78 24 3c
       -0.16617914 -0.19531296 0.031018553 0.01003847
000250 49 05 11 3e 9e 5b f5 bd b3 4e aa 3d 28 33 19 3e
       0.14162172 -0.11980365 0.08315792 0.14960921
000260 b7 91 64 be de 4f 36 be 43 ee 36 be f5 85 d3 bc
       -0.22321211 -0.17803904 -0.17864327 -0.025820712
000270 f4 ba c6 bd db 85 3f bb 28 06 1e be 0e e9 29 be
       -0.09703627 -0.0029224071 -0.15432036 -0.1659281
000280 9a fd c5 bd ba fe d1 bc 5f ac a0 3d fe c5 17 be
       -0.09667511 -0.025634158 0.07845377 -0.14821622
000290 ad 4e 08 3e 78 1c 9c bd 0b 9a 46 3d 6d 32 82 bd
       0.13311262 -0.076226175 0.04848675 -0.06357274
0002a0 d2 4f 15 3b bf 94 4b bc 30 4a 9f 3b 0d bb 21 3e
       0.0022783172 -0.012425601 0.0048611388 0.1579401
0002b0 7b 1f b2 bd cc bf 54 3e 04 0b b6 bd 99 5d 33 3d
       -0.08697411 0.2077629 -0.0888882 0.043790434
0002c0 86 52 82 3d 66 0d ba 3d a4 79 eb bc 1f 12 ba bd
       0.06363396 0.09084587 -0.028744526 -0.090854876
0002d0 25 c0 d2 bc 42 e4 44 be a1 c5 bb bd 68 40 90 bc
       -0.025726387 -0.19227698 -0.09168554 -0.017608836
0002e0 3b 5b 20 3d 8e c6 39 3e be a3 c4 bd d8 b0 99 3d
       0.039149504 0.18142149 -0.09601544 0.075044334
0002f0 ae 6f 0d be a3 fd 85 3d 99 ff 05 3e 1c 2b a2 3d
       -0.13812134 0.06542518 0.13085784 0.07918379
000300 40 4d 8c be a5 5a 2b bc ec 39 61 bd 67 7a 2f 3e
       -0.27402687 -0.010458623 -0.05498688 0.17136537
000310 95 69 ce bd 2c 4b 29 3e 10 a4 e4 bd 92 96 2b be
       -0.10078732 0.16532582 -0.11164105 -0.16756657
000320 fe 86 d4 bd 17 fa 8c bd d8 86 84 be 59 88 9e be
       -0.1037731 -0.06883638 -0.25884128 -0.309634
000330 88 84 41 bd 75 67 37 3e 19 66 59 3e ec b0 98 3d
       -0.047245532 0.1791056 0.21230353 0.0745562
000340 77 78 8e be 88 7a 6a 3d 81 b8 a8 3c 1e 80 15 bd
       -0.27826282 0.05724576 0.02059579 -0.036499135
000350 fb 88 b4 bd 55 4f a5 3d 6e ff d9 bd 0a 34 5a bd
       -0.088151895 0.08071772 -0.106444225 -0.053272285
000360 33 2b 79 be 9d 77 07 3e 7c 29 7f be b5 7d 0a be
       -0.24332885 0.13229223 -0.24918169 -0.13524516
000370 e8 cf 2e be 86 51 74 3e b7 66 4c 3d 3b d2 65 be
       -0.17071497 0.23859224 0.049902644 -0.22443478
000380 31 ca 79 3e af a7 46 be 83 02 6c 3d 77 ad c2 bd
       0.24393536 -0.19399904 0.057619583 -0.09505742
000390 57 92 74 3e 03 0e ba 3d 0f 62 86 be c1 b5 5a bd
       0.23883949 0.09084704 -0.26246688 -0.05339599
0003a0 51 66 df 3b bc b1 cf 3d cc e8 43 3e a3 b1 8c 3e
       0.006817617 0.10141322 0.19131774 0.27479276
0003b0 c4 1f 71 3d cb 2f 1a bd 15 c0 9c 3e e1 e0 8c 3d
       0.058868185 -0.037643235 0.30615297 0.0687883
0003c0 4c 8e 26 3c cb 4e be bd d6 6c 15 3e fa 73 ca 3c
       0.010165762 -0.09292372 0.14592299 0.024713505
0003d0 aa c6 1f 3e 41 c2 71 be e1 d6 8d 3e ef d4 fe 3d
       0.15603128 -0.23609258 0.27703002 0.124429576
0003e0 ca 62 10 be 8e 69 b2 3d 4b 74 58 3e c1 4a a9 bc
       -0.14100185 0.08711539 0.21138112 -0.020665528
0003f0 95 18 a6 3e 1a 22 89 3e 50 bb ae be e7 f3 35 3e
       0.3244063 0.2678383 -0.34127283 0.17768823

lstm.weight_hh_l0 f4 [400, 100]
000000 c8 62 11 be f1 61 fa 3d a4 ee 7e bc 34 24 28 3d
       -0.14197838 0.12225712 -0.015559826 0.04105015
000010 0c 86 78 bd f7 f1 c2 3c 48 0f bd bd 91 bc c5 3c
       -0.060674712 0.023797018 -0.0923143 0.024137767
000020 fb 40 e9 3c 4e 6c ca 3d f3 06 06 bc 32 4c 82 3d
       0.028473368 0.09883939 -0.008180368 0.06362189
000030 a0 32 b4 3c 44 28 d7 bd 94 02 1b 3d f7 e9 23 bb
       0.021996796 -0.10505727 0.037844256 -0.002501128
000040 9e 11 88 3d 4d 4e 9c bd 6e 84 77 3d 7b 65 b1 bd
       0.06643985 -0.07632122 0.06042903 -0.08661934
000050 b4 c1 40 3d 4a 97 33 be 78 62 64 3d e6 06 8d bd
       0.04705973 -0.17538181 0.05575797 -0.068860814
000060 f7 5f 0c 3d 18 7d 25 3d 11 97 7d bd ac 81 90 bd
       0.034271207 0.0404025 -0.061911646 -0.07055983
000070 f6 e8 88 bd c7 53 ec 3d 30 ab 6a bc ec c5 a4 3d
       -0.06685059 0.11539417 -0.014323041 0.08045563
000080 0c 30 53 bd 5c 94 36 3d 84 5d 9e bc dd fc 2d bd
       -0.051559493 0.04457508 -0.019331701 -0.042477477
000090 7c ba bf bc 13 f1 e1 3c dc 8b b6 3c 17 7f 7f bc
       -0.023404352 0.027580773 0.022283487 -0.015594265
0000a0 cb 7a 9f 3d a7 3d 4f bd 89 e4 48 3b c4 10 da bd
       0.07787093 -0.050595906 0.0030653796 -0.10647729
0000b0 c5 f2 b9 3d c0 9e b9 39 34 92 24 3c 90 70 56 3c
       0.09079508 0.00035404228 0.010044623 0.01308836
0000c0 b8 89 d1 3d 57 c6 a1 3d fa 17 4c bd 04 bd 8b 3d
       0.10231346 0.078991584 -0.049827553 0.06823161
0000d0 08 bd a5 3d 91 e1 e2 3d f0 25 bc bd b5 19 8f 3b
       0.080926955 0.1107818 -0.091869235 0.004367078
0000e0 b8 f5 67 bc e4 88 9f 3c 50 a4 b5 3d de fb a4 bd
       -0.014157705 0.019474454 0.08869231 -0.08055852
0000f0 7d c0 82 bb e4 a4 04 bd a3 da 54 bd 8e d8 e0 3d
       -0.0039902315 -0.032383814 -0.05196632 0.109788045
000100 c3 81 ae bd b0 4f d3 3d 01 11 22 bd c3 c6 68 3d
       -0.08520844 0.103179336 -0.039566997 0.05683018
000110 4c fb d6 bb 9e 83 b2 3d 7e 57 01 bc cd 64 e4 3d
       -0.0065607186 0.0871651 -0.007894395 0.11152039
000120 91 cb 5c bd 1d 0a e6 3d be 09 ed 3d f8 32 85 bd
       -0.053905074 0.11232398 0.11574124 -0.06503862
000130 3d ad a2 3d 62 6e d2 bd 2f 27 e5 3b ac 16 35 3d
       0.07943199 -0.1027496 0.0069931964 0.044211075
000140 c5 3d e1 bc cc e4 11 3d c2 87 b0 3d 32 1d 75 3d
       -0.027495274 0.03561859 0.08619644 0.059842296
000150 fa cc 38 3d a0 11 02 3e b7 e3 a1 bd cd 67 8c 3d
       0.045117356 0.12702036 -0.07904761 0.06855736
000160 c4 64 a5 bd fd 89 89 bd 1b ba 12 3e 05 3b 7d bc
       -0.0807586 -0.06715772 0.14328806 -0.015455966
000170 8a 2c 81 3d 13 e1 e5 bc d8 90 9b bc bd cb ed bd
       0.06307323 -0.028061425 -0.018989965 -0.116111256
000180 7b 12 1d 3d c5 c1 0e 3e 69 fb f5 3c 6f 92 7e bd
       0.038347702 0.13941105 0.030027108 -0.06215137
000190 8e c9 0d bd 52 06 3e bd 42 11 ac 3d c4 12 54 3c
       -0.034616046 -0.046392746 0.08401729 0.012943927
0001a0 d9 fe f1 bd d9 68 87 3d 4f 7e b9 bc 0b 23 eb 3b
       -0.118161865 0.06611795 -0.022643236 0.0071758083
0001b0 8c 2c 05 bd 4b 99 93 3d 28 1a c8 bc c6 86 0b 3d
       -0.032513186 0.07206973 -0.024426535 0.034064077
0001c0 dc 21 23 3e 04 1e 34 3c 26 93 16 be ad 2f 10 bd
       0.15930885 0.010993484 -0.1470457 -0.035201717
0001d0 50 19 6e bd f6 53 6c 3c 10 11 36 bd 1c e2 ca 3d
       -0.05812961 0.014424315 -0.044449866 0.09906408
0001e0 33 ea 70 bb 94 d3 d8 bd 00 95 0d bd 11 1b 41 bd
       -0.0036760687 -0.1058723 -0.034565926 -0.047144953
0001f0 99 ff fc bc 31 72 70 3b 83 a8 9d bd c1 df d6 3c
       -0.030883597 0.0036689157 -0.07698157 0.026229741
000200 7c 99 9c bd 18 9b 94 3d f6 14 9f 3d 1f f4 51 bd
       -0.07646462 0.07256144 0.0776767 -0.051258203
000210 be 98 bb 3d 8f d7 07 bc b0 6a f9 3d b7 8b d5 bd
       0.09159993 -0.008291139 0.12178552 -0.10427039
000220 07 3b db bd 4c e3 9e bd 9e 4d fc 3c 67 3b 04 bd
       -0.10704618 -0.07758197 0.03079873 -0.032283213
000230 d3 d2 b2 3d 37 ef a9 bd 8b 09 7c 3d f7 71 10 bd
       0.08731618 -0.0829758 0.06153254 -0.035264935
000240 29 bb 76 3d aa c6 05 bc 6f b7 9a bc 62 2c 51 3d
       0.060237084 -0.008165041 -0.018886296 0.051067717
000250 b2 b7 9f 3c 28 6b 0a be 80 63 15 3d eb e7 df bc
       0.019496772 -0.1351744 0.036471844 -0.027332267
000260 f5 e6 95 3d d7 a8 ef 3b 4b b5 42 3c d3 dc 54 bd
       0.07319442 0.0073138284 0.011884044 -0.051968407
000270 d5 43 1c bd 85 70 d5 3d 3f 05 60 3d f3 70 30 bb
       -0.038150627 0.10421852 0.054692503 -0.0026922792
000280 9b 3e 7f bd e7 07 08 bd e4 67 1d be 0d 3a 03 bc
       -0.062315565 -0.03321066 -0.15371662 -0.008009446
000290 d0 55 2b 3d 3f 39 d2 3b 7e 83 e2 3d 90 87 ec 3d
       0.041829884 0.0064155157 0.110602364 0.11549294
0002a0 b1 32 30 bc 61 13 00 be 6a 0e c1 bd 30 7d d6 bc
       -0.010754273 -0.12507392 -0.094265774 -0.02618274
0002b0 05 e3 80 3d 86 96 b9 bb 71 be e4 3d f2 ff 03 bb
       0.062933005 -0.0056636957 0.11169136 -0.002014157
0002c0 44 da d7 bb 00 85 9e bd cb 2b 3c bc e4 92 47 bd
       -0.0065872986 -0.077402115 -0.01148505 -0.04872407
0002d0 75 8a 93 3c db cf 12 3d 91 06 46 bd 87 43 dc bd
       0.018010357 0.035842758 -0.048346106 -0.10755067
0002e0 f2 d3 30 3c 53 0c 07 3e 4c 3e 54 bd 92 11 1c be
       0.010792719 0.13188295 -0.051817223 -0.15241078
0002f0 d6 8e 13 bd eb 74 82 3d b3 a2 ab bc c1 ad f8 bd
       -0.03602489 0.063699566 -0.020951604 -0.12142516
000300 25 fa 89 3d 74 d6 71 bd 1c 8b fe 3b bf c1 51 3d
       0.067371644 -0.05904241 0.007768048 0.05121016
000310 c9 6a 64 bb 25 7b 9c 3d ef 87 be bc 47 39 35 bc
       -0.0034853688 0.076406755 -0.023258178 -0.011061019
000320 07 3c 56 bc a6 06 5b 3d 30 3f 0d 3e 4c 8c 25 bd
       -0.013075835 0.053473137 0.13793635 -0.040417
000330 54 7d 98 bd c3 1f 79 3c 01 d1 45 bd 71 75 79 3d
       -0.074457794 0.0152053265 -0.048295025 0.060903016
000340 ef ae 07 bd 79 92 93 bc 59 3f ca 3d ea c4 e2 3d
       -0.033125814 -0.01801418 0.09875364 0.110727146
000350 39 05 b3 3b b5 f2 d2 bc e2 44 4e 3a e4 fe 32 3d
       0.005463269 -0.025750497 0.00078685407 0.043700114
000360 64 92 e7 bc a3 3a ae bd 6d 54 07 3e e1 ba bc 3c
       -0.028268047 -0.08507278 0.132158 0.02303833
000370 84 61 b2 3d 17 1d e2 bd eb 3e f0 bd aa ef b9 3c
       0.08710006 -0.11040705 -0.11730751 0.022697289
000380 bd 85 ec bd ff fb 50 3d 00 db d2 3d ae b4 22 bc
       -0.11548946 0.051021572 0.10295677 -0.009930773
000390 e5 43 54 3d 39 65 8b bd 43 28 e0 3d de 5f a8 bd
       0.05182256 -0.06806416 0.10945179 -0.0822141
0003a0 d4 46 87 3d 95 9d 68 bd 4f 3c 70 bc 70 51 0d be
       0.06605306 -0.056790907 -0.014662816 -0.13800597
0003b0 8e 4f 14 3d f2 33 d9 3c 91 b4 fc bd 81 76 85 bd
       0.03620868 0.026514027 -0.12339128 -0.065167435
0003c0 c1 e2 cd bd 01 f8 9d bd 48 9b e6 bc ac 4f 0e bd
       -0.100530155 -0.077133186 -0.028150216 -0.03474395
0003d0 da 37 a1 bd 35 3e 8e 3d d2 9a 99 bd 7b 14 32 3d
       -0.07871981 0.06945459 -0.07500233 0.043476563
0003e0 63 1d 8a bd 6d 30 1f be b3 11 95 bc 83 b3 76 bd
       -0.06743886 -0.15545817 -0.018196916 -0.06022979
0003f0 12 d4 71 3d 81 62 6d 3d 2f 84 0d 3e 23 5c 95 3c
       0.059040137 0.05795527 0.13819955 0.01823241

lstm.bias_ih_l0 f4 [400]
000000 84 0b 54 be 62 bb 94 bd 0b 5a 96 3d 0a e5 05 3d
       -0.20707518 -0.07262303 0.07341393 0.03268913
000010 e2 ea db bd 6e bb 0b be a8 97 c4 bd 13 a1 8b 3d
       -0.1073816 -0.13645718 -0.09599239 0.06817832
000020 81 3e 2d bd ee 89 28 be a9 28 17 bb b6 80 82 be
       -0.042295936 -0.16458866 -0.0023065007 -0.25488824
000030 05 4f 53 be 7b e5 fe bb 8d de 86 3d b3 19 86 be
       -0.20635612 -0.007778821 0.06585417 -0.26191482
000040 d8 af 0e be a0 42 bb bd 1f e3 71 3d 38 5b f8 bd
       -0.13934267 -0.09143567 0.05905449 -0.121267736
000050 de 1a e6 bc 10 23 70 bd ea 3d a1 bd 6d 70 17 3d
       -0.028088983 -0.05862719 -0.07873137 0.036972452
000060 aa 98 24 bc ed 82 f1 3c a5 4e ec bd d0 fe 1d 3c
       -0.010046164 0.029481376 -0.11538438 0.009643272
000070 42 6e 15 bd 7d 27 3a bd ee d6 94 3d 49 57 21 bc
       -0.036482103 -0.045447815 0.07267557 -0.009847471
000080 83 c6 06 be 5e 6f c2 3c 33 a4 87 bd 1e 82 e9 3d
       -0.13161664 0.023734745 -0.066231154 0.11401771
000090 e3 45 a1 bd 76 8d 97 bd ed d1 ce bd 36 cb c2 bc
       -0.07874658 -0.074000284 -0.10098634 -0.02377854
0000a0 56 29 70 bd ef 70 de bd 13 7c 16 be fd c7 1b bd
       -0.05863317 -0.10861384 -0.14695768 -0.03803252
0000b0 50 35 bb bd ca 1f 68 bd 96 0f ec bd 75 10 e3 3c
       -0.09141028 -0.05667094 -0.1152641 0.027717808
0000c0 cf 08 9e bd f4 3b e3 bd 3c f0 83 bd ce 41 55 be
       -0.07716524 -0.110954195 -0.064423054 -0.20825884
0000d0 23 b5 a0 3d fb a0 bc bd e8 c5 d3 bd 9a 61 c1 bd
       0.07847049 -0.09210392 -0.10340482 -0.09442444
0000e0 99 78 08 3e 01 c6 88 3d 6b e5 21 bc 18 eb 80 bd
       0.13327254 0.06678391 -0.009881358 -0.062948406
0000f0 4a 41 99 bd 76 a9 6d 3d 1f 8e 40 be 31 65 ce 3b
       -0.07483156 0.05802294 -0.18804215 0.006298684
000100 b2 1f 74 bd 6e 82 4f bd d1 c8 0e be b3 c1 8b bd
       -0.05960054 -0.050661497 -0.13943793 -0.068240546
000110 41 8f e6 bd 81 89 99 3b 6b 0d f2 bd fd 88 1d 3b
       -0.11257792 0.004685581 -0.118189655 0.002403795
000120 a4 d6 f3 bd 9b b8 42 3d 47 b2 9d bd 52 31 a7 bd
       -0.11906174 0.047539335 -0.07700019 -0.08163704
000130 24 17 31 bd 0c 1e a1 bd c3 75 93 3d 66 94 14 bd
       -0.04323496 -0.07867059 0.07200196 -0.036274336
000140 25 9d 94 bd d4 05 4d bd 45 11 3a bd a8 52 01 be
       -0.072565354 -0.050054386 -0.045426626 -0.12629187
000150 02 fb 08 3d 5f 04 ad bc f7 d7 ef bc 75 b3 cb 3d
       0.033442505 -0.021120248 -0.029277785 0.09946338
000160 35 b0 2c be 5b 20 1f 3d 1d 41 be bd 03 af 7c be
       -0.16864093 0.038849216 -0.09289763 -0.24676137
000170 e5 9b d2 bd 41 80 16 be a5 2f 06 be 02 a2 f7 3c
       -0.10283641 -0.14697362 -0.13104112 0.030228619
000180 a6 ad ef bd 8f 8e 21 3d d7 aa c9 bd ff 24 98 bc
       -0.11703043 0.039442595 -0.09847038 -0.018572329
000190 00 e7 07 3b dd bf 2e 3e 73 2c 9d 3d 41 91 a1 bd
       0.0020737052 0.17065378 0.07674494 -0.07889033
0001a0 de 23 51 3d 2b f2 f1 bd 0c 2e b0 bd 81 10 44 3e
       0.051059596 -0.11813768 -0.08602533 0.1914692
0001b0 af c8 0d 3c 62 d5 cc bd ed a1 1a bc 5a 3c 87 bc
       0.008653804 -0.10001637 -0.00943802 -0.01650827
0001c0 5f f0 6a bd ff 7e 39 3d 83 1e c7 3d 56 30 24 be
       -0.057358142 0.04528713 0.097226165 -0.16034064
0001d0 7b 63 0e be 69 ea 64 3d d8 d9 1a 3d ef b2 2b be
       -0.13905136 0.055887613 0.03780541 -0.16767476
0001e0 9b f4 38 bd 9d 48 4a 3d 10 e9 32 3d 1b a6 93 bc
       -0.04515515 0.049385656 0.043679297 -0.018023541
0001f0 64 9c e5 3d 9f c1 da 3d b7 66 ba 3c 38 47 b7 bb
       0.1121147 0.106814615 0.022754056 -0.0055932067
000200 35 92 d5 bd dd 23 ca 3c 27 ac 7b bd 8e 71 81 3d
       -0.104282774 0.024675304 -0.061443474 0.06320487
000210 5f c9 90 bd 38 8c d2 3d e5 2b 15 3e d9 96 2f 3e
       -0.070696585 0.10280651 0.14567526 0.17147388
000220 06 4c 79 bd 92 46 b3 bd a5 ff c3 bc 8d 4d ec 3d
       -0.060863517 -0.087536946 -0.023925612 0.11538229
000230 39 8e 85 bd 81 9d f8 bc 97 38 28 be 41 c7 31 3e
       -0.065212674 -0.030348541 -0.16427837 0.17361166
000240 d9 5c b4 bd d3 ec e7 bd d1 22 e2 3d c3 2c ce 3d
       -0.08806772 -0.113244675 0.11041797 0.10067131
000250 d3 7f 57 3c ee f5 0d be bb a4 d2 bb 67 69 cb bd
       0.013153034 -0.13863346 -0.006428329 -0.09932213
000260 a1 d0 2b 3c b4 39 58 3c 4f 07 24 bc 0e c8 32 bd
       0.010486753 0.013197351 -0.010011508 -0.04364782
000270 bc 1c 5f 3d 0e 77 db bd ec 97 34 3d 46 06 40 3c
       0.054470763 -0.10716067 0.044090196 0.011720246
000280 2d 92 be bd ec 60 05 3e 41 d1 47 be f4 1d 95 3d
       -0.093052246 0.13025254 -0.19513418 0.07281104
000290 90 b6 9a 3d 4e ed 9e 3d 53 fa fa 3d 3a d9 d8 3d
       0.07554352 0.07760106 0.12254777 0.10588308
0002a0 0e 37 fc bd 03 93 8c 3d 16 8a 25 bd ad 4b b1 3d
       -0.12315188 0.06863978 -0.040414892 0.08657012
0002b0 61 11 a0 bd 57 9b 5c bd c1 6b 90 bd c1 9b 52 be
       -0.07815815 -0.05385908 -0.070518024 -0.20567228
0002c0 35 a9 58 3d 31 3f 30 3b e0 25 16 3e b3 ea 85 bd
       0.052895743 0.0026893134 0.14662886 -0.06538906
0002d0 41 93 6d 3c cc 90 80 bd 7b 3b 16 3d f8 e6 dd bd
       0.01450044 -0.06277618 0.03667782 -0.108350694
0002e0 b9 e8 c7 bd b7 eb 66 bd a2 a7 d5 bd c1 4f 6d 3d
       -0.09761185 -0.05637714 -0.10432364 0.057937387
0002f0 b6 8a 18 be 21 53 a8 3c 19 71 c0 bd 79 d6 b1 bd
       -0.14896664 0.020547451 -0.09396572 -0.086834855
000300 89 af e9 bd 79 62 52 bd a3 2e e1 bd d8 d2 0e 3d
       -0.11410434 -0.051363442 -0.109952234 0.034869045
000310 07 61 5b 3e 02 77 81 bd a9 0e aa bd 2e 5b 1f 3d
       0.21423732 -0.06321527 -0.083035775 0.038905315
000320 4e b1 93 3d c6 f2 19 bd a9 13 97 3d 73 d1 d3 bc
       0.072115526 -0.037585042 0.07376797 -0.02585671
000330 9a 7b 3f bd 53 b8 08 bc 78 d9 98 3d fb 6c c7 bc
       -0.046748735 -0.008344728 0.07463354 -0.024343958
000340 e5 45 48 3d ae bf 0b bd 59 54 e5 3c 24 ac a9 bc
       0.04889478 -0.034118347 0.027994322 -0.020711966
000350 66 1b 76 bd cd 7b 04 3e 31 c7 3d bd 55 06 0b bd
       -0.060084723 0.12937851 -0.04633254 -0.033941586
000360 9d f4 e0 3c 8b 5b e7 38 e1 8c bd bd 31 7e 21 bc
       0.02746039 0.000110319896 -0.09255386 -0.0098567465
000370 64 c5 05 3d cb 62 45 3d f8 68 54 3d d2 56 05 bd
       0.03265895 0.04818992 0.05185792 -0.0325535
000380 e6 67 a7 bc eb 7a 52 bd c6 b5 ee 3c 00 11 43 bc
       -0.020435285 -0.051386755 0.02913941 -0.011905909
000390 99 86 0d bc e2 3e b4 bd 2d d8 05 bd f4 4d 88 3d
       -0.008638048 -0.088010564 -0.032676864 0.066554934
0003a0 4b 0a 47 3d bf 4c 89 bd ed 13 71 3c b0 ba 92 bd
       0.0485938 -0.06704091 0.014714223 -0.07164514
0003b0 54 28 39 3c 55 e3 c6 3d 9d f8 89 bd d2 a3 d3 3c
       0.011301119 0.09711329 -0.06736872 0.025834952
0003c0 36 7b 23 bc 9c b4 85 3a 89 38 8b bc d9 1c 46 3c
       -0.009978106 0.001020092 -0.016994732 0.012091839
0003d0 57 44 5b 3c 54 72 64 3c 50 0c 49 3d 4a 9d 25 bc
       0.013382993 0.013943274 0.049084008 -0.010108301
0003e0 95 ce 0d 3d 66 d2 95 bd 63 04 27 3d 85 a0 88 bd
       0.03462084 -0.07315521 0.040775668 -0.06671242
0003f0 9e cb 9c bd 00 c0 7b 3c b6 d3 d0 bc 07 ef 87 3d
       -0.076560244 0.015365601 -0.025491577 0.06637388

lstm.bias_hh_l0 f4 [400]
000000 9b c2 93 bd 4b 20 c9 bc 6a ec 06 3c 6a 08 9e 3c
       -0.072148524 -0.024551531 0.008235076 0.019291122
000010 20 2a 65 bd d8 67 6b be 67 e1 54 bd cc bc c1 3c
       -0.055948377 -0.22988832 -0.051972773 0.023649596
000020 da 2b 00 3d ed 9f b8 bd 59 67 3b be 5b 4b 33 be
       0.03129182 -0.090148784 -0.18301143 -0.17509215
000030 9a 21 2e be 63 df 0e be 3f a6 1f 3d dd b4 21 be
       -0.17005005 -0.13952403 0.038976904 -0.1579165
000040 cf f6 11 be a0 05 96 bc 0c 43 29 bd 1c ad 7f bd
       -0.14254306 -0.01831323 -0.041323707 -0.06242095
000050 48 f8 e7 bc a9 02 3f bd 3e b6 ac 3d 4f 02 be bd
       -0.028316632 -0.046633396 0.084331974 -0.09277784
000060 bf eb b3 bd 74 75 9b bc 1a 8e 33 be ad cb 70 bc
       -0.087851994 -0.018976904 -0.17534676 -0.014696998
000070 d7 a3 28 be d1 86 25 be fe b6 10 3d b8 ee 7c bd
       -0.1646875 -0.1616471 0.035330765 -0.061751097
000080 b3 d0 b5 bd ea cf c3 3d 36 44 49 3d 34 de ec bb
       -0.08877697 0.09561141 0.049137317 -0.007228637
000090 33 a7 01 be b8 14 5e bd 65 b5 b2 3b 6b 9e 91 bb
       -0.12661438 -0.054218978 0.005453753 -0.0044439337
0000a0 20 dc 22 be 25 a1 c0 bd c6 e7 1e be 2b a3 05 3e
       -0.15904284 -0.09405736 -0.15518102 0.13050525
0000b0 c6 d2 49 be a5 47 94 bd 67 b2 7b bd 5f 70 8e 3c
       -0.1970931 -0.072402276 -0.061449435 0.017387567
0000c0 7b 7b 85 bd c8 22 47 be 9b 25 4a 3d b3 9f 36 be
       -0.06517693 -0.19446862 0.04935227 -0.17834358
0000d0 9b c7 93 3d a0 a3 36 3d af d6 12 be 4f ac b6 bc
       0.07215806 0.04458964 -0.14339708 -0.02229896
0000e0 2f e0 8a 3d 07 0c 36 3c 8b 0f 18 be 60 5a 47 3d
       0.06781041 0.011111266 -0.14849679 0.048670173
0000f0 bd 42 2a be b3 47 46 3e 3a ec 54 be 4e a4 80 bd
       -0.16627021 0.19363289 -0.20793238 -0.06281339
000100 7c 26 03 be d2 41 87 b9 ff 06 03 be 71 da 2d bc
       -0.1280765 -0.00025798246 -0.12795638 -0.0106111625
000110 92 e4 f9 bd 39 f2 2f be 4c 6f 53 bb 01 22 a0 bd
       -0.122017995 -0.17182244 -0.0032262383 -0.07818986
000120 41 ca 26 3d 50 21 61 bd 82 e3 33 bc 79 cf c1 bc
       0.040720228 -0.05496341 -0.010979535 -0.023658501
000130 05 22 27 39 87 4e 49 be 93 0e dc 3d 7d 79 6f 3c
       0.00015939034 -0.19658862 0.10744967 0.014616367
000140 7e 67 81 3d dd f4 9f 3b 7e a6 96 bd 8d 78 de bd
       0.06318568 0.004881485 -0.073559746 -0.10862837
000150 93 f3 96 bd e8 68 37 3c e0 66 19 be 9b 02 0a 3e
       -0.07370677 0.011194445 -0.1498065 0.13477556
000160 50 bc a4 bc 99 0b 0b 3d b6 1a f3 bd 4f 63 02 be
       -0.020109326 0.033946607 -0.11870329 -0.12733196
000170 d0 ca 29 bd 57 bb 1a be 03 0d 89 bd 3a 67 ff bc
       -0.041453183 -0.15110527 -0.06691935 -0.031177152
000180 1f ec 7c 3d ac dd 0d 3d 7d a4 e5 bc dd a7 5b 3c
       0.06174862 0.03463523 -0.028032536 0.013406721
000190 fa ad 1a 3d b3 00 e1 3d 77 85 a5 3c 95 d3 30 bd
       0.037763573 0.109864615 0.020205243 -0.04317053
0001a0 c8 1f 95 bd 84 be 9e bd 8c d7 cd 3c c8 2d 3b 3e
       -0.072814524 -0.07751182 0.025127195 0.18279183
0001b0 07 52 48 3d 3f b4 83 bd 1e 4a 23 be 50 e9 fc bc
       0.048906352 -0.064308636 -0.15946242 -0.03087297
0001c0 19 0a ae bd 54 71 48 3d 3a 9f 00 bb 1b e2 1b be
       -0.0849802 0.048936203 -0.0019626156 -0.15222971
0001d0 91 83 d1 bd ec 89 98 bc 90 96 45 3d d8 83 24 be
       -0.102301724 -0.018620454 0.04823929 -0.1606592
0001e0 3b 48 1e be 3d 83 9e bd 6a 7d 45 3e 09 3c 76 3d
       -0.15457241 -0.077398755 0.19286123 0.060115848
0001f0 c0 be 51 bd 44 43 ac 3c d1 05 21 bc 05 b8 5a 3b
       -0.051207304 0.021028168 -0.009828047 0.0033373844
000200 d7 98 0e be f7 bc 17 bd 1d f7 95 3c b7 50 b6 3d
       -0.13925491 -0.037045445 0.01830631 0.08902114
000210 6f 29 59 bd f3 f3 07 3e f5 74 c9 3d 8c d2 ef 3d
       -0.05301803 0.13276653 0.09836761 0.117100805
000220 56 de 80 bd f4 fe cd bd 34 e8 cc bd 67 a1 82 3d
       -0.06292407 -0.10058394 -0.10005227 0.06378441
000230 8f d1 97 bd d3 fb 2b bd c1 ad aa bd e1 4e 3d 3e
       -0.07413017 -0.041988205 -0.08333922 0.18487121
000240 7e f8 3e 3a 49 58 74 3c 99 8f 98 3d 87 1e c5 3d
       0.0007284953 0.014913627 0.07449264 0.09624963
000250 04 df 24 bd 5d 19 0f be 87 b7 f6 3c 7f 44 2e bd
       -0.040251747 -0.13974519 0.03011681 -0.04254579
000260 e7 93 58 3c 19 a0 94 3d b4 45 19 3c c1 57 c4 bd
       0.013218856 0.07257099 0.009354997 -0.0958705
000270 97 1c f9 3d f6 44 15 bd 91 05 8a 3d c3 d6 3d 3e
       0.12163656 -0.03644272 0.06739343 0.18538956
000280 dd 17 93 3c a7 b1 23 3e 89 8e cf ba 98 90 35 3d
       0.017955715 0.15985738 -0.0015835325 0.04432735
000290 3e c4 0b 3d 84 7c 4e 3e 04 38 cd 3d 5d db a8 3c
       0.034122698 0.20164686 0.1002045 0.020612413
0002a0 ba 26 90 bd 6f 1f 05 3d 34 8a 52 bd fe 7d 7c bd
       -0.070386365 0.03250068 -0.051401332 -0.061643593
0002b0 2c d6 33 3d 96 c9 8e 3d bd 35 c4 3c 1f b9 d6 bd
       0.043905422 0.06972043 0.023951406 -0.10484528
0002c0 3a 89 29 3d 6b 5e f3 bb 75 25 11 3e d1 05 63 3d
       0.041390635 -0.007427027 0.14174445 0.05542547
0002d0 82 7c a4 bc 79 86 6e bd db 42 c0 bc 4b b2 8d bc
       -0.020078901 -0.058233712 -0.02346938 -0.01729693
0002e0 bc ca 13 be d2 03 79 bd 09 25 14 be 03 b5 c9 3c
       -0.14432806 -0.06079466 -0.14467253 0.024622446
0002f0 1d db c6 3b ff 79 45 bd e7 fa 3e 3d 2c 86 33 bd
       0.006068601 -0.048212048 0.046625998 -0.04382913
000300 97 6d 72 bc 6b c4 b2 3d 60 41 55 3d ad 54 8d bd
       -0.014796636 0.0872887 0.0520643 -0.06900916
000310 6f a0 18 3e ea 96 e2 bd 07 99 8f 3c d6 b9 03 3e
       0.1490495 -0.11063941 0.017529024 0.1286386
000320 e6 64 d5 bc a0 c0 66 3d e3 93 8b bd 41 20 b6 bc
       -0.026049089 0.056336045 -0.068153165 -0.022232177
000330 4f 23 0a bb 72 29 14 3d 94 30 2b 3c 4f 31 ec 3c
       -0.0021078174 0.036172338 0.010448594 0.028832106
000340 65 52 73 3c 37 b8 f3 bc 70 53 ce bc e4 2e 45 3d
       0.014851187 -0.029750926 -0.02518627 0.04814042
000350 19 46 a3 3d b6 88 43 bd 3c 0c 23 bd f0 e2 9e 3c
       0.079723544 -0.0477378 -0.03980659 0.019395322
000360 f2 e7 4c bc a3 21 43 3b b5 02 b7 3d a8 fb d0 3b
       -0.012506472 0.0029774688 0.08936063 0.006377656
000370 6e c5 3a 3d 10 41 9c 3d 4a aa f5 bc 85 f6 6f 3c
       0.04559844 0.07629597 -0.029988427 0.014646177
000380 60 e3 ab 3d d9 bd a1 3d 9b 62 d0 bd ac bc 63 bd
       0.08392978 0.07897539 -0.101750575 -0.055599853
000390 5b c7 71 3d 8f 17 b4 3c 78 88 17 3d 3f 2c 8a 3d
       0.05902801 0.02198389 0.03699538 0.067467205
0003a0 81 d8 c5 bc b2 bf 5d 3d de 7d 40 3d ab 59 c3 3d
       -0.024151089 0.054137893 0.046995036 0.09538587
0003b0 a8 de 65 bb c4 a5 cb bd a8 68 a4 3d b4 f1 c7 ba
       -0.003507534 -0.09943727 0.08027774 -0.0015254528
0003c0 d7 fe ea bc 2a d4 15 3d 85 79 ac 3c 3a 77 25 3d
       -0.02868597 0.03657929 0.021054039 0.040396906
0003d0 28 e8 7a 3c cd 32 2f 3c 9a 2d 19 3a ff 49 7d 3d
       0.015314139 0.010693264 0.0005843282 0.061838146
0003e0 cd 24 e0 bd 3c a4 a9 3d f0 41 6f 3d 6c 7a 3b bd
       -0.10944519 0.08283278 0.058412492 -0.045771047
0003f0 96 ec 30 3d 08 e4 3f 3d f2 11 c5 3c f4 a4 90 bd
       0.043194376 0.046848327 0.024056409 -0.07062712

linear.weight f4 [1, 100]
000000 43 1e d1 bb 7b ef e6 3c 91 1d d4 bd f2 e5 a3 bd
       -0.0063817813 0.028190365 -0.10357202 -0.08002843
000010 96 d4 de bb 9e 9f 83 3c f7 8d 66 3c 69 cb 30 bd
       -0.0068002446 0.016067322 0.014071933 -0.043162737
000020 ef e1 82 bd 8b f5 27 3b 39 9f 0b 3d f8 33 70 3c
       -0.0639075 0.0025628533 0.034087393 0.014660828
000030 c7 cd 5e bc f5 69 68 bc 39 47 74 3c d7 b8 2a 3d
       -0.013598866 -0.014185418 0.014909559 0.041680183
000040 d9 b9 1c bc fe 7f 32 bd 03 f9 99 bd 7c a4 42 bd
       -0.009565794 -0.043579094 -0.07518198 -0.047520146
000050 61 68 a6 bb 13 5c 1d 3c 60 5d 60 3c 36 40 11 bc
       -0.005078361 0.009604472 0.013694137 -0.008865407
000060 17 0c 30 3d 22 b6 bb 3b 82 86 88 3d 37 c6 5d bb
       0.04298028 0.005728499 0.0666628 -0.003384007
000070 73 8e 71 3c 14 3f 90 3d 21 7c 81 bd eb e2 c0 3c
       0.014743435 0.07043281 -0.06322504 0.023545703
000080 5f bf a6 bc 3f 95 d0 ba 7c df 82 bc d1 e9 a5 3d
       -0.020354925 -0.001591362 -0.015975706 0.081012376
000090 89 91 59 3c 95 78 f5 3c 31 4f 22 3d 04 b8 82 bd
       0.013279327 0.029964725 0.039626304 -0.063827544
0000a0 4b 09 08 3d fe bd 67 3b 48 0e 34 3d 69 80 e6 3a
       0.033211987 0.0035361047 0.043958932 0.0017585877
0000b0 19 e8 13 bb 36 27 3a bd 38 4d 15 3d 73 bb 60 3b
       -0.002256876 -0.04544755 0.036450595 0.0034291416
0000c0 1a 10 60 3c d8 cf 85 3d 26 bb 96 3c 61 f7 ba bc
       0.013675714 0.06533784 0.018399786 -0.022823038
0000d0 e7 00 a9 3d 31 84 e5 3c 9c 56 9d bd 44 b4 53 3d
       0.08252125 0.028017135 -0.07682535 0.051685587
0000e0 9f 95 c5 3c 89 e0 b0 bc 7f 5c af 3c 87 2b c8 bc
       0.024119196 -0.021591442 0.02140641 -0.024434818
0000f0 4d 5b fc 3c 92 f9 48 3d 78 c6 12 3d 92 c5 53 bd
       0.030805254 0.049066134 0.035833806 -0.05170209
000100 80 e2 36 bd 32 28 c0 bc 2d 6a 49 3b 21 8a 02 3d
       -0.0446496 -0.023456667 0.0030733452 0.03187001
000110 14 14 cf 3c be 2e ca 3c ba b2 05 bd 36 9a b7 bd
       0.025278129 0.024680492 -0.03264115 -0.0896496
000120 eb 5c 7c 3d 79 09 83 bd 7c 86 22 bd bd 1e a5 bc
       0.06161205 -0.06398291 -0.039679036 -0.020156259
000130 e7 60 71 bd eb 50 7b 3b 48 98 02 3d bd b5 92 bd
       -0.058930304 0.0038347791 0.031883508 -0.0716357
000140 d8 29 66 bc cc 43 29 3d de 0a 5a bc 74 32 39 bc
       -0.014048062 0.04132442 -0.013308255 -0.011303533
000150 02 29 55 3c dc 02 54 bd 75 77 d5 3b 8e a9 c4 3b
       0.013010265 -0.05176054 0.0065144845 0.006001658
000160 db df 45 bd 12 66 e0 3c 3f 71 01 3c 79 f7 44 3b
       -0.04830919 0.02739242 0.007900535 0.0030054732
000170 a9 19 20 3d 02 d0 a4 bb b1 a6 52 bd 4e b6 b4 bc
       0.03908697 -0.0050296793 -0.0514285 -0.022059586
000180 02 cd 62 3c 0f 5e d1 bc 33 94 f4 3c 75 bb 65 bc
       0.013842823 -0.025557546 0.029855823 -0.014021744
