results/attention_bs8_sl90_ep5/model.pt (torch_old, 166987 bytes, 6 tensors)

lstm.lstm.weight_ih_l0 f4 [400, 1]
0	0x3ced9c5f	0.029005228
1	0xbe9749d2	-0.29548508
2	0x3c23e741	0.010003866
3	0xbbe83914	-0.0070868824
4	0x3d64d4d6	0.05586704
5	0x3dd9e0a7	0.10638552
6	0x3c9f84f9	0.019472586
7	0xbde48004	-0.111572295
8	0x3dad9f13	0.084776066
9	0x3df7bca9	0.12096531
10	0x3da2e294	0.079533726
11	0x3ba6f8c5	0.0050955736
12	0x3e019328	0.12653792
13	0xbc25a282	-0.010109546
14	0xbd1b9ed2	-0.03799326
15	0x3e2876ee	0.16451618
16	0x3c94e3c6	0.018175017
17	0xbe36c871	-0.178499
18	0xbc068940	-0.008211434
19	0x3e7f3d59	0.24925746
20	0xbde8a750	-0.11360037
21	0x3c32f418	0.010922454
22	0x3e0e4ffe	0.13897702
23	0xbe004881	-0.12527658
24	0x3dd2bc95	0.102898754
25	0x3d8038a7	0.062608056
26	0xbde17f6e	-0.110106334
27	0x3d178449	0.03699139
28	0x3e063c48	0.13108933
29	0xbd334017	-0.043762293
30	0xbace189a	-0.0015723885
31	0xbd1e8909	-0.038704906
32	0xbe4b7da6	-0.1987215
33	0xbe0fd1fb	-0.14044945
34	0xbe1b0921	-0.15140201
35	0xbcd581ca	-0.026062865
36	0x3e17c30e	0.14820501
37	0xbd854000	-0.06506348
38	0x3d1bfb24	0.038081303
39	0xbe2c953a	-0.168538
40	0xbc6d3138	-0.014477067
41	0xbd92673f	-0.07148599
42	0xbd87082d	-0.06593356
43	0x3e14e540	0.14540577
44	0xbd65c1de	-0.05609309
45	0x3d278bd9	0.040904853
46	0x3e59b652	0.21260956
47	0xbbe6c161	-0.0070420955
48	0xbe4c243b	-0.19935696
49	0xbda6ea5a	-0.08150168
50	0xbdcbe25d	-0.09955285
51	0x3e026787	0.12734805
52	0x3e47b491	0.19502474
53	0x3e4dda4a	0.20102802
54	0xbd27b055	-0.040939648
55	0xbc9aabbe	-0.018880721
56	0xbd7fb2c1	-0.062426332
57	0xbd65114f	-0.05592471
58	0xbb9b92f7	-0.004747744
59	0xbded34b6	-0.115823194
60	0xbcf409bd	-0.0297898
61	0xbc25a00e	-0.010108961
62	0xbcddd5c1	-0.027079465
63	0x3c961c05	0.018323908
64	0xbdc24675	-0.09486095
65	0x3d1832bf	0.03715777
66	0xbe1560bc	-0.14587682
67	0x3cc089ae	0.02350315
68	0xbd8916b8	-0.066937864
69	0x3c9b1275	0.0189297
70	0xbdbb1fa3	-0.091368936
71	0xbdd44644	-0.103649646
72	0xbbcb2e47	-0.006200585
73	0xbe21d1cc	-0.15802687
74	0xbdd02276	-0.10162823
75	0xbe4b03a0	-0.19825602
76	0xbc2e23eb	-0.010628681
77	0x3d5b7a15	0.053583223
78	0x3d404203	0.046937954
79	0xbdf1edd9	-0.11812944
80	0x3e2c2ef1	0.16814782
81	0xbd5c2712	-0.053748198
82	0xbda45e8a	-0.080258444
83	0x3cc31f89	0.023818748
84	0x3e007fd0	0.12548757
85	0x3df6ff75	0.12060443
86	0xbde0e658	-0.109814346
87	0x3d8b28fd	0.06794927
88	0xbdb82db2	-0.08993091
89	0x3dac9c94	0.084283024
90	0x3c037de0	0.008025616
91	0xbe11990e	-0.14218542
92	0xbd4c95c4	-0.049947515
93	0xbd182bdd	-0.037151206
94	0x3dccd62f	0.1000179
95	0xbb079feb	-0.0020694684
96	0xbd690cfd	-0.056897152
97	0xbda57317	-0.08078592
98	0xbd516bc7	-0.051128175
99	0x3cd638ed	0.026150191
100	0x3e148a7d	0.14505954
101	0xbe824302	-0.25441748
102	0x3d0f7320	0.0350219
103	0x3d966e0a	0.07345207
104	0xbd511e4d	-0.051054288
105	0x3c163774	0.0091684945
106	0xbc5e30ec	-0.013561469
107	0xbdb56d67	-0.088587575
108	0x3d176ecd	0.036970902
109	0xbd513f16	-0.051085554
110	0xbd3b49d1	-0.045724694
111	0xbdffb489	-0.12485606
112	0x3dad7d4b	0.08471163
113	0x3db8b043	0.09017994
114	0xbd92fab5	-0.07176725
115	0x3e49f681	0.1972294
116	0xbba0f0b7	-0.004911508
117	0x3de679e3	0.11253717
118	0xbe57f739	-0.21090402
119	0x3dcaa9bf	0.09895658
120	0x3e7c345b	0.24629347
121	0x3c8da39b	0.017289927
122	0x3e80b701	0.2513962
123	0xbe2cf6f6	-0.16891083
124	0x3d6e1bf8	0.05813214
125	0x3e0341de	0.12818095
126	0x3e02c471	0.12770249
127	0xbe2b2e4b	-0.16716878
128	0x3dc1395d	0.09434769
129	0xbd835fd9	-0.06414766
130	0x3e3546cf	0.17702793
131	0xbe01f3f6	-0.1269072
132	0xbe12a377	-0.1432017
133	0x3ceecd26	0.029150557
134	0xbcc1d044	-0.02365888
135	0xbd13def2	-0.03610129
136	0x3df3d3be	0.11905621
137	0xbc3856d4	-0.01125117
138	0x3cdeeb9e	0.02721196
139	0xbd646bfd	-0.05576705
140	0x3dad9d40	0.08477259
141	0xbd8aab79	-0.06770987
142	0xbe168d73	-0.14702396
143	0x3e61fc3c	0.22068876
144	0x3d2d6b7d	0.042338837
145	0xbc5654bf	-0.0130817285
146	0x3e0eb8e8	0.13937724
147	0xbc564823	-0.013078722
148	0x3c977fa1	0.018493475
149	0x3e13bdfb	0.1442794
150	0xbe184faa	-0.1487414
151	0x3cd64e96	0.02616052
152	0x3de0fc81	0.10985661
153	0x3eafd78f	0.34344146
154	0xbddb68e3	-0.10713365
155	0xbd22d9c6	-0.039758466
156	0xbdc5744d	-0.09641323
157	0xbd55415a	-0.052064277
158	0x3dc3b3d3	0.09555783
159	0x3a2a1009	0.0006487375
160	0x3cfc7dd8	0.030821726
161	0x3d5757b7	0.052573886
162	0x3ba71694	0.005099127
163	0x3e10c3b1	0.1413715
164	0x3ce1d31a	0.027566481
165	0xbcfe5c5e	-0.031049903
166	0xbe317347	-0.17329131
167	0xbc6b7597	-0.014371297
168	0xbd41ef49	-0.04734734
169	0xbce37b12	-0.027768645
170	0xbcedf0fc	-0.029045574
171	0x3d095adb	0.033533912
172	0x3d5a0510	0.053227484
173	0x3d0e7e91	0.034788672
174	0x3e049be4	0.12950093
175	0xbddf71e5	-0.109103955
176	0xbdb52f91	-0.08846963
177	0x3c91ea81	0.017812015
178	0x3caa7a08	0.020810142
179	0x3ca1b2e0	0.019738615
180	0x3eaa64e6	0.33280104
181	0xbdf70580	-0.12061596
182	0xbd45be27	-0.048277047
183	0xbda73eba	-0.08166261
184	0x3d79c4f1	0.060978834
185	0x3d99225a	0.07477255
186	0x3c539566	0.012914037
187	0x3cc46dcf	0.023978142
188	0xbdc7dd11	-0.09758962
189	0x3e1cbffd	0.15307613
190	0xbd46b04c	-0.048507974
191	0xbd615aa1	-0.05501807
192	0x3e3b76bf	0.18307017
193	0xbd5b9380	-0.053607464
194	0x3bb44e25	0.0055024796
195	0x3d561019	0.052261446
196	0xbc9a920b	-0.018868467
197	0x3cb402d8	0.021974012
198	0xbe224f4d	-0.15850563
199	0xbda4f5ee	-0.0805472
200	0x3e0bd746	0.13656339
201	0xbe8e9327	-0.27846643
202	0xbe24f0af	-0.16107439
203	0xbe828f0e	-0.25499767
204	0x3e781e5e	0.24230334
205	0xbe65e74c	-0.22451514
206	0xbea0bd76	-0.31394547
207	0x3e714760	0.23562384
208	0x3e94dcdd	0.29074755
209	0x3dbc23d5	0.09186522
210	0xbd31e0f6	-0.04342743
211	0xbe39a0bf	-0.18127726
212	0xbe746c27	-0.23869382
213	0x3e6d83d2	0.23194817
214	0xbd864b14	-0.06557289
215	0xbe42ed86	-0.1903592
216	0x3d995453	0.07486787
217	0xbea78fd2	-0.32726914
218	0xbdf42ec2	-0.11922981
219	0xbe8fbff5	-0.2807614
220	0xbeb37b68	-0.3505509
221	0xbe95a165	-0.29224697
222	0x3ea0dfee	0.31420845
223	0xbc82a439	-0.015947448
224	0xbd36b0d6	-0.044602238
225	0xbda58a25	-0.080829896
226	0x3e9e4d24	0.3091823
227	0xbe6477e8	-0.22311366
228	0x3d4eb5b9	0.050466273
229	0xbeade456	-0.3396327
230	0xbea13b08	-0.3149035
231	0x3e75f868	0.2402054
232	0xbe80fa6f	-0.25191066
233	0xbe96874e	-0.29400104
234	0xbeb1d25a	-0.34730798
235	0x3e5af446	0.21382245
236	0x3e9563d9	0.2917774
237	0xbea66d40	-0.32505226
238	0xbdfe6f3c	-0.1242356
239	0x3e8a6346	0.27028865
240	0x3e3a5954	0.18198138
241	0xbd931bfa	-0.071830705
242	0x3b155548	0.0022786427
243	0xbeb0f69b	-0.34563145
244	0xbe9818d7	-0.2970645
245	0x3ea456fe	0.3209762
246	0xbe84c1d6	-0.25929135
247	0xbea5a9ec	-0.32356203
248	0xbeb463d6	-0.3523242
249	0x3ec1cfcf	0.37853858
250	0x3e6fc549	0.23415102
251	0xbea56e90	-0.32310915
252	0xbd50060b	-0.050787013
253	0x3e930173	0.28712043
254	0x3e98622c	0.297624
255	0xbce03ae1	-0.027371826

lstm.lstm.weight_hh_l0 f4 [400, 100]
0	0x3d84600a	0.064636305
1	0xbcc2fafa	-0.023801316
2	0x3df2225d	0.118229605
3	0xbdd979f7	-0.10618966
4	0xbd8012b2	-0.06253566
5	0xbca249aa	-0.019810516
6	0xbd069588	-0.032857448
7	0xbd5fbbc1	-0.054622415
8	0x3c7fa564	0.015603397
9	0x3d969f73	0.07354631
10	0x3cbe2e66	0.023215484
11	0x3dce0a32	0.10060538
12	0x3de36266	0.111027524
13	0xbe1be87d	-0.15225406
14	0xbd5c42d7	-0.05377468
15	0xbaa26d4c	-0.0012392192
16	0x3d2401cc	0.040040776
17	0x3ce5c4fe	0.028048035
18	0x3c99b1b5	0.018761495
19	0xbd7c4a10	-0.06159407
20	0xbdbc0f67	-0.09182625
21	0x3c157e34	0.009124327
22	0x3ba8dfb8	0.0051536225
23	0x3e2aabc2	0.16667083
24	0xbddbe035	-0.107361235
25	0x3d9dd55d	0.077067114
26	0x3e05c228	0.13062346
27	0xbdb40560	-0.08790088
28	0xbb4fa624	-0.003168472
29	0x3d8964c3	0.06708672
30	0xbdd8b0e4	-0.10580614
31	0xbd083953	-0.033257794
32	0xbe4aa3d8	-0.19789064
33	0x3d0b1b24	0.03396143
34	0xbdd408b6	-0.10353224
35	0x3e3f29e0	0.18668318
36	0x3e0972d6	0.13422713
37	0x3e3389ac	0.17532986
38	0x3e07dac4	0.13267046
39	0xbc80926d	-0.015694821
40	0x3e99d9f1	0.3004909
41	0xbe5017bd	-0.20321555
42	0xbd7e859e	-0.062139146
43	0xbe7dba79	-0.24778165
44	0xbdc815eb	-0.097698055
45	0x3e080331	0.13282467
46	0x3d76029b	0.06006108
47	0xbd862488	-0.065499365
48	0xbdf1e2d0	-0.11810839
49	0xbddb3cd1	-0.10704959
50	0xbd3c392e	-0.04595297
51	0x3bfc2643	0.007694991
52	0xbe1be346	-0.15223417
53	0x3e2c59a2	0.16831067
54	0x3d764758	0.060126632
55	0x3cfa7f21	0.030578198
56	0x3e408e50	0.18804288
57	0x3d823a5b	0.06358787
58	0xbdf9110e	-0.12161456
59	0x3e0233ca	0.12715068
60	0xbcae46f9	-0.021274077
61	0xbd844b57	-0.064596824
62	0x3cd5dfdd	0.026107723
63	0xbd4d9770	-0.05019325
64	0xbd910d4d	-0.07082615
65	0x3dc45ca1	0.0958798
66	0x3e10a16c	0.14124078
67	0x3c9bcd9d	0.019018942
68	0x3de35b8d	0.11101446
69	0xbd96efba	-0.07369943
70	0xbe4d4abb	-0.20048039
71	0x3d9c309c	0.07626459
72	0xbdb2fd0f	-0.08739673
73	0x3cb9a139	0.022659885
74	0x3d9d0ffa	0.07669063
75	0xbc9191dd	-0.017769748
76	0x3df30dbd	0.11867855
77	0x3da77f07	0.081785254
78	0x3ddc9adc	0.107717246
79	0xbdc8396e	-0.09776579
80	0xbd915294	-0.07095829
81	0xbdb3a563	-0.087717794
82	0xbe220d28	-0.15825331
83	0xbb0a80bf	-0.0021133868
84	0x3d797514	0.06090267
85	0xbe2a4067	-0.1662613
86	0xbcf3351a	-0.029688407
87	0xbdcac0f4	-0.09900084
88	0xbd85115d	-0.064974524
89	0x3c4cfafe	0.012511013
90	0x3d6bd2a3	0.057573926
91	0xbdccb494	-0.0999538
92	0x3d8a0907	0.06740003
93	0x3e01aeb8	0.12664306
94	0xbdefedd4	-0.11715284
95	0x3cf28241	0.029603126
96	0x3cb80860	0.022464931
97	0xbd63d7b0	-0.055625618
98	0x3dddff36	0.10839693
99	0x3df47560	0.1193645
100	0xbd0cc1c1	-0.034364466
101	0x3e1607d0	0.14651418
102	0x3dcf258f	0.101145856
103	0x3da1c141	0.078981884
104	0xbe072448	-0.13197434
105	0x3e5342ac	0.20630902
106	0x3df62ead	0.120206214
107	0x3dda87ff	0.106704704
108	0xbd920bf5	-0.07131187
109	0xbe033744	-0.12814051
110	0xbd38ae71	-0.045088235
111	0xbdee34d1	-0.11631168
112	0x3df54353	0.11975732
113	0x3c3ea759	0.0116365785
114	0xbcb033a3	-0.021508997
115	0x3e15296a	0.1456658
116	0x3e394164	0.18091351
117	0x3e23da55	0.16001256
118	0xbd780894	-0.060555056
119	0xbe0b9152	-0.13629654
120	0x3e9302d3	0.28713092
121	0x3dc8e516	0.0980932
122	0xbe4bd8d4	-0.19906932
123	0xbe32474b	-0.17410009
124	0x3d184068	0.037170798
125	0x3ce4a53f	0.027910827
126	0xbea90924	-0.33014786
127	0x3db21104	0.08694652
128	0x3e07447d	0.1320972
129	0x3cdd4429	0.02701004
130	0x3eac2e10	0.33628893
131	0x3d060b50	0.032725632
132	0x3dbfc8f0	0.09364498
133	0x3e83f79e	0.25774854
134	0x3cd8dee4	0.02647347
135	0x3d345ce7	0.04403391
136	0xbe78b62b	-0.24288242
137	0x3d975ec1	0.0739112
138	0x3cb8e36a	0.022569377
139	0x3db98a31	0.09059561
140	0x3e333db2	0.17504004
141	0x3e4b9f24	0.19884926
142	0x3d7b6dc9	0.061383996
143	0x3c83418e	0.01602247
144	0xbcb9bdae	-0.022673454
145	0x3c373e9e	0.011184363
146	0x3df4b141	0.11947871
147	0x3d22b065	0.039719004
148	0x3b93e59b	0.004513455
149	0xbd9bbec2	-0.076047435
150	0xbca4773e	-0.02007639
151	0x3ba496fe	0.0050228825
152	0xbc8cbf52	-0.017181072
153	0xbdc2f233	-0.09518852
154	0x3ca33e2d	0.019927109
155	0xbdda6d20	-0.10665345
156	0xbda26fe4	-0.07931498
157	0xbdad43bf	-0.08460187
158	0xbc980cd6	-0.018560808
159	0x3cea0cf5	0.028570632
160	0x3d2cc0be	0.042176
161	0xbee65043	-0.4498311
162	0x3da1c4d2	0.078988686
163	0x3c76c07f	0.015060543
164	0xbe11f3c8	-0.14253151
165	0xbe0d3a3e	-0.13791749
166	0xbd815039	-0.063141294
167	0xbda03bf4	-0.07823935
168	0xbdfea4a0	-0.124337435
169	0xbcfeb198	-0.031090543
170	0x3e2d8d90	0.16948533
171	0x3e3b4db4	0.1829136
172	0x3db97354	0.090552
173	0xbbc55a9e	-0.0060227653
174	0x3d911eb0	0.07085931
175	0xbc49d297	-0.012318275
176	0xbc3030b3	-0.010753798
177	0x3d72e40d	0.059299517
178	0xbde9a172	-0.114077464
179	0x3d486307	0.048922565
180	0x3e2e63bf	0.17030238
181	0x3d68f7ab	0.05687682
182	0x3c462874	0.012094606
183	0x3cc8e1c7	0.024521722
184	0xbdb8d9a3	-0.09025886
185	0x3dec64a7	0.115426354
186	0x3e481c30	0.19542003
187	0xbdbec0bc	-0.09314105
188	0x3e21782f	0.15768503
189	0xbe17f9a1	-0.1484132
190	0x3db1f1ad	0.08688674
191	0x3dbcc920	0.09218049
192	0xbe832be8	-0.25619435
193	0xbc97d0a7	-0.01853211
194	0x3dcc587e	0.09977816
195	0x3df1af21	0.11800981
196	0xbbd9715f	-0.0066358293
197	0xbe5aebaf	-0.21378969
198	0xbd304a47	-0.043039586
199	0xbcbde501	-0.023180487
200	0x3e4a6073	0.19763355
201	0xbe022031	-0.12707593
202	0xbd723753	-0.059134793
203	0xbe329e97	-0.1744331
204	0x3d970158	0.07373303
205	0xbe0fb1ef	-0.1403272
206	0xbe08a090	-0.133425
207	0x3e3a3072	0.18182543
208	0x3d1385eb	0.036016386
209	0x3d9e0f80	0.077178
210	0xbdb8b19a	-0.0901825
211	0xbe221a2e	-0.158303
212	0xbe8f458d	-0.2798275
213	0x3ca0ba8b	0.0196202
214	0x3c39e556	0.011346182
215	0xbdd7ed9f	-0.105433695
216	0x3e462915	0.19351609
217	0xbe836a05	-0.25666824
218	0xbd834651	-0.06409896
219	0xbdf80968	-0.12111169
220	0xbdcd973e	-0.10038613
221	0xbd8c4ab9	-0.0685019
222	0x3e39ad14	0.1813243
223	0xbdc36622	-0.09540965
224	0xbc1f1cea	-0.0097114835
225	0x3cf53dad	0.029936636
226	0x3e2f5597	0.17122494
227	0xbe526f4b	-0.20550267
228	0xbd836d77	-0.06417363
229	0xbd83e6cf	-0.064405076
230	0xbe65f883	-0.22458081
231	0xbbd5b4f1	-0.006521814
232	0xbe05d214	-0.1306842
233	0xbe3d6547	-0.18495665
234	0xbe9395ed	-0.28825322
235	0x3e455dba	0.19274035
236	0x3e66a26d	0.22522898
237	0xbe0f3f68	-0.13989031
238	0xbe21ab20	-0.15787935
239	0x3d9f5837	0.077804975
240	0x3e0719b5	0.131934
241	0x3d683669	0.056692515
242	0x3e04edcd	0.12981339
243	0xbe67542c	-0.22590703
244	0xbe0c50c6	-0.13702688
245	0x3e5c45e4	0.21511036
246	0xbd9f2310	-0.077703595
247	0xbdef2c30	-0.1167835
248	0x3b43bce6	0.002986723
249	0x3e2ce44f	0.16883968
250	0x3dd40de1	0.1035421
251	0xbe24d7a8	-0.16097891
252	0x3c6d0d93	0.014468568
253	0x3e8d6bdd	0.27621356
254	0x3d2c5203	0.0420704
255	0x3d2d7e2d	0.04235666

lstm.lstm.bias_ih_l0 f4 [400]
0	0xbe059b0a	-0.13047424
1	0x3cd40453	0.025880968
2	0xbe114c96	-0.14189371
3	0x3d6be630	0.05759257
4	0xbde17f59	-0.11010618
5	0xbd5e6203	-0.05429269
6	0x3d6df1b1	0.058091823
7	0xbd2decc4	-0.042462125
8	0x3cfb3fe6	0.030670118
9	0xbe800d1d	-0.25010005
10	0xbe71b1d8	-0.23602998
11	0x3da37a18	0.07982272
12	0xbda0d860	-0.0785377
13	0xbbb9be45	-0.005668434
14	0x3d84612e	0.06463848
15	0x3a567972	0.0008181549
16	0xbe8389fd	-0.25691214
17	0x3e096df8	0.13420856
18	0xbd45a061	-0.048248652
19	0xbb6929fe	-0.0035578008
20	0x3da9e686	0.08295922
21	0xbd7a98d0	-0.06118089
22	0x3ddff4aa	0.10935338
23	0x3b384c28	0.0028121565
24	0x3d73db49	0.0595353
25	0xbe9cf505	-0.30655685
26	0x3e04c609	0.1296617
27	0x3c67248c	0.014107835
28	0x3da15be3	0.07878854
29	0x3c8b8243	0.017029887
30	0x3ddb36a9	0.10703785
31	0xbd5ba841	-0.053627256
32	0xbdb9c0bb	-0.090699635
33	0x3ab64d7a	0.0013908588
34	0x3dbffc10	0.09374249
35	0x3bd59061	0.0065174554
36	0x3de0d8ba	0.10978837
37	0x3e07cba7	0.13261281
38	0xbe18c043	-0.14917092
39	0xbcf83359	-0.030297922
40	0xbd2d26bf	-0.04227328
41	0xbdd193de	-0.102332816
42	0xbdce9fa8	-0.10089046
43	0x3e471132	0.19440153
44	0x3e0ab1c3	0.13544373
45	0x3d5d18ac	0.053978607
46	0xbdb37490	-0.08762467
47	0x3e0ef4b7	0.13960539
48	0x3dde4319	0.108526416
49	0x3e18ff47	0.1494113
50	0x3dbc415c	0.09192154
51	0x3da8a318	0.08234233
52	0xbe3902c4	-0.18067461
53	0xbc1f52ce	-0.009724332
54	0x3e093fe6	0.13403282
55	0xbd304b33	-0.043040466
56	0xbe032f83	-0.12811093
57	0xbd7bd293	-0.061480116
58	0xbe082adb	-0.13297598
59	0x3dfa422a	0.12219651
60	0x3d32435b	0.043521266
61	0xbdb543ca	-0.0885082
62	0xbd91962f	-0.07108723
63	0x3d96f9fc	0.073718995
64	0xbdb90374	-0.09033862
65	0xbdb28e11	-0.08718503
66	0x3c8fb0c4	0.017540343
67	0xbb69b368	-0.0035659913
68	0xbe3f3271	-0.18671586
69	0xbd02ea51	-0.031961743
70	0x3d74f5f8	0.059804887
71	0x3d1e820a	0.038698234
72	0xbc7ab18f	-0.015301122
73	0x3e0b1563	0.13582377
74	0x3e1f3b6d	0.15550013
75	0xbd982182	-0.07428266
76	0xbdc3e043	-0.09564259
77	0xbdc1b7ff	-0.094589226
78	0xbdb26fc4	-0.08712724
79	0x3e3ea845	0.18618877
80	0x3ca3bac2	0.019986514
81	0xbd37e62f	-0.044897255
82	0x3d3d3af5	0.046198804
83	0x3e1a490a	0.15066925
84	0x3dc0663c	0.093945
85	0xbeaba408	-0.33523583
86	0xbd129ecb	-0.035795968
87	0x3d348b1c	0.044077978
88	0xbc4f6671	-0.012658701
89	0x3d372e26	0.044721745
90	0x3de9ece4	0.114221364
91	0xbd082a1a	-0.033243276
92	0xbe754037	-0.23950277
93	0x3c489612	0.012242811
94	0xbd13835a	-0.03601394
95	0xbde859e0	-0.11345267
96	0x3d8d9d90	0.06914818
97	0xbd73e25b	-0.05954204
98	0xbe1b19bf	-0.1514654
99	0x3d0b76b6	0.03404876
100	0x3cf9940d	0.030466104
101	0x3c2667c0	0.010156572
102	0x3c662064	0.014045808
103	0x3cb410eb	0.021980723
104	0xbdaf818a	-0.085696295
105	0x3c9751a8	0.018471554
106	0x3dba7fc8	0.091064036
107	0xbe017340	-0.1264162
108	0x3c31953d	0.010838804
109	0xbe60b8a2	-0.21945432
110	0x3c01cecd	0.00792284
111	0x3dbfe448	0.09369713
112	0xbc3d1d78	-0.01154267
113	0x3d7e17a7	0.062034275
114	0x3e0d17ea	0.13778654
115	0xbd2d3e5e	-0.042295806
116	0xbdfcb570	-0.12339294
117	0xbb936dee	-0.0044991886
118	0x3d7eb474	0.062183812
119	0xbc7bb4aa	-0.015362898
120	0xbd15e69b	-0.036596876
121	0x3da1cf85	0.07900909
122	0xbdbc4c8b	-0.09194287
123	0x3dc6e953	0.09712472
124	0x3d63c77f	0.055610176
125	0xbe3e503c	-0.18585294
126	0xbe0b61cb	-0.13611524
127	0x3b57feb3	0.003295821
128	0x3c906c82	0.017629866
129	0x3db9a4fb	0.09064671
130	0x3c75127e	0.014958022
131	0xbd093b85	-0.033504028
132	0xbdf982e8	-0.121831715
133	0x3d40065b	0.04688106
134	0xbba96a5a	-0.005170149
135	0xbdd09e1a	-0.101864055
136	0xbdf8ae5f	-0.12142634
137	0x3dbf4bfa	0.09340663
138	0xbde9cb2b	-0.11415704
139	0xbc2bfb81	-0.010496975
140	0xbda5738c	-0.080786794
141	0xbc331221	-0.010929615
142	0xbce4f24e	-0.027947571
143	0xbd3e66cc	-0.046484753
144	0x3dc10179	0.09424109
145	0xbd0cbe84	-0.034361377
146	0xbdb4c5cb	-0.088267885
147	0xbd4a0126	-0.0493175
148	0xbcd54542	-0.026034001
149	0xba44ee3e	-0.00075123075
150	0x3e025dac	0.12731045
151	0x3d2b40e3	0.041809928
152	0xbdeb522f	-0.11490285
153	0xbd7031fd	-0.058641423
154	0x3da6ac61	0.081383474
155	0xbd180104	-0.037110344
156	0x3ba52b48	0.00504056
157	0x3dc955fa	0.09830852
158	0x3d740ffc	0.059585556
159	0xbc8b4712	-0.017001662
160	0x3d608be6	0.054820918
161	0xbdfee17a	-0.1244535
162	0x3bf1b44d	0.00737623
163	0xbdf52286	-0.119694754
164	0xbd6b3a58	-0.057428688
165	0xbdd76033	-0.105163954
166	0x3db441e9	0.08801634
167	0xbe1b79ff	-0.15183257
168	0xbd80b494	-0.062844425
169	0xbe09cb44	-0.13456446
170	0xbd7212ac	-0.05909984
171	0x3cb62f4e	0.022239354
172	0xbde2ef98	-0.11080855
173	0xbd940e32	-0.0722927
174	0x3dd04200	0.101688385
175	0xbe1a4608	-0.15065777
176	0x3d81785c	0.06321785
177	0xbd975bcb	-0.07390555
178	0xbe41d85a	-0.18930188
179	0x3c9bd796	0.019023698
180	0x3dc2b8ce	0.09507905
181	0xbd3af28f	-0.04564148
182	0x3d8bbd0e	0.06823169
183	0xbcb71548	-0.022349015
184	0x3e17a5c1	0.14809324
185	0xbe82c004	-0.2553712
186	0xbc882de0	-0.016623437
187	0x3cbf865e	0.023379501
188	0xbd72c7e1	-0.05927265
189	0xbc421ff5	-0.011848439
190	0xbd2ea6a1	-0.04263938
191	0xbd5afc4c	-0.053463265
192	0xbe8847cf	-0.26617286
193	0x3ad500f9	0.00162509
194	0xbc635fe1	-0.01387784
195	0xbd096ea7	-0.033552792
196	0x3d823663	0.0635803
197	0xbd4a45ad	-0.049382854
198	0xbe1cb195	-0.15302117
199	0x3d99335e	0.07480501
200	0xbb3e8521	-0.002907105
201	0x3bd9ca05	0.006646397
202	0xbc626063	-0.013816926
203	0xbc0d124f	-0.008610322
204	0x3da0dd52	0.078547135
205	0xbdc77225	-0.09738568
206	0x3d8e6121	0.069521196
207	0xbd0fe86f	-0.035133775
208	0xbd842601	-0.06452561
209	0x3d3d5451	0.04622299
210	0x3d309eb9	0.04312012
211	0x3d8aa838	0.067703664
212	0xbd77aa7c	-0.06046532
213	0x3d8b01af	0.067874305
214	0xbe0c4868	-0.13699496
215	0xbd5e4c5b	-0.054272037
216	0xbaf25e75	-0.0018491285
217	0xbd649dcb	-0.055814546
218	0x3d73e025	0.059539933
219	0x3c2179c9	0.009855696
220	0xbd0408c7	-0.032234933
221	0xbda1e441	-0.07904864
222	0x3d877a4f	0.066151254
223	0x3cd69b29	0.026197033
224	0xbc7027d7	-0.014657936
225	0xbca9171c	-0.020640902
226	0x3dcd5fad	0.10028014
227	0xbd13048c	-0.035893008
228	0x3dba6e80	0.091031075
229	0x3c903efe	0.017608162
230	0xbbfa84de	-0.0076452335
231	0x3d64ab08	0.05582717
232	0xbb0cd190	-0.0021487214
233	0xbcecedc7	-0.028921975
234	0xbcbf328a	-0.023339529
235	0x3d7d1d35	0.061795432
236	0xbbc5c637	-0.006035592
237	0x3cd79752	0.026317272
238	0x3d7156a5	0.05892052
239	0x3df588f0	0.119890094
240	0x3d491b26	0.049098156
241	0xbc47a9b3	-0.012186456
242	0x3d1711a7	0.03688207
243	0xbd2e6388	-0.04257539
244	0xbdd15c71	-0.1022271
245	0xbc2e9f0b	-0.010658036
246	0xbd3aac3a	-0.045574404
247	0x3b6217b2	0.0034498987
248	0x3ac90ff7	0.0015339841
249	0xbc228a3d	-0.009920654
250	0xbd8fde00	-0.07024765
251	0xbdda5b2c	-0.10661921
252	0x3ce36a9b	0.027760794
253	0x3d65c67f	0.056097504
254	0x3db801b0	0.08984697
255	0xbda520b4	-0.08062878

lstm.lstm.bias_hh_l0 f4 [400]
0	0xbdac1d6a	-0.08404048
1	0xbd0a7b38	-0.033808917
2	0xbd98ee65	-0.07467345
3	0xbb900700	-0.0043953657
4	0xbb75e976	-0.0037523187
5	0xbd39d113	-0.045365404
6	0x3c8a73b3	0.016900873
7	0x3da2b4af	0.07944619
8	0xbd0db183	-0.034593116
9	0xbeb179e6	-0.34663314
10	0xbe0f9c6b	-0.14024512
11	0x3d4b3d80	0.049619198
12	0x3d40baac	0.047053024
13	0x3d362242	0.044466265
14	0x3da94fba	0.0826716
15	0xbda68f5e	-0.08132814
16	0xbe819e3d	-0.2531604
17	0x3d8544a0	0.0650723
18	0xbd2d85dc	-0.042363986
19	0x3c57658e	0.013146771
20	0x3df4111a	0.11917324
21	0x3c2f608d	0.010704172
22	0x3da16423	0.07880428
23	0xbe0303da	-0.12794438
24	0xbda14b22	-0.078756586
25	0xbe7de1bc	-0.24793142
26	0xbc01b44b	-0.00791652
27	0xbc378c28	-0.011202849
28	0xbd865584	-0.065592796
29	0x3d451153	0.048112225
30	0xbca45630	-0.020060629
31	0xbd876ee7	-0.0661295
32	0xbdd69622	-0.10477854
33	0x3d43958f	0.047750052
34	0x3c6334dd	0.013867584
35	0x3cbb5a13	0.0228701
36	0xbcedf76f	-0.02904865
37	0x3dd131fc	0.10214612
38	0xbe3de970	-0.1854608
39	0x3d441731	0.04787368
40	0x3d3433a1	0.04399455
41	0xbe319a09	-0.17343916
42	0x3d716129	0.05893055
43	0x3dcf8b9e	0.10134052
44	0x3e052b80	0.13004875
45	0x3cc14b6e	0.023595538
46	0xbd95cfd7	-0.07315033
47	0x3e12f157	0.14349876
48	0x3dfc75e9	0.12327177
49	0x3d394141	0.045228247
50	0xbc863bbd	-0.016385907
51	0x3d32cd54	0.043652847
52	0xbe22dfe3	-0.15905719
53	0x3cadcf87	0.02121712
54	0xbd21155f	-0.03932702
55	0x3d34bd3c	0.04412578
56	0xbe2a1d1f	-0.16612671
57	0x3a4d7e33	0.00078389345
58	0xbddcf012	-0.10787977
59	0x3d475d2f	0.04867285
60	0xbd3001f7	-0.042970624
61	0xbc1905f1	-0.009339795
62	0xbd10cf3a	-0.035353877
63	0x3d987a11	0.07445157
64	0x3dbe137f	0.09281062
65	0x3b2bac23	0.002619513
66	0xbdd45047	-0.10366874
67	0xbe338a01	-0.17533113
68	0xbe22b60f	-0.15889762
69	0x3c339b2d	0.01096229
70	0x3e17b9f4	0.14817029
71	0x3da01d5e	0.07818101
72	0xbd1bc671	-0.038031045
73	0x3ce1b80d	0.027553583
74	0x3d9851e8	0.074374974
75	0xbd72e8f3	-0.05930419
76	0x3d8c401d	0.06848166
77	0x3d398609	0.04529384
78	0xbd65fe73	-0.056150865
79	0x3e058e2a	0.13042513
80	0x3d891c3c	0.066948384
81	0x3dda51e3	0.1066015
82	0x3da9f1e3	0.08298089
83	0xbcf973bd	-0.030450696
84	0xbcb71e51	-0.022353323
85	0xbe997fb8	-0.29980254
86	0x3d948ea9	0.07253773
87	0x3d88b88a	0.06675823
88	0x3b0187f8	0.0019764882
89	0x3daff5ca	0.085918024
90	0x3e11c5cf	0.14235614
91	0xbda25586	-0.079264686
92	0xbec272c7	-0.37978193
93	0xbd809e7a	-0.06280227
94	0xbdcc0a9e	-0.099629626
95	0xbd047040	-0.032333612
96	0xbd1863e1	-0.037204627
97	0x3d61fc3b	0.055172186
98	0xbda0d3fd	-0.078529336
99	0xbe162e28	-0.14666045
100	0x3bfdaebd	0.0077417777
101	0xbd51e176	-0.051240407
102	0x3d7ec683	0.062201034
103	0xbd2a33cc	-0.041553304
104	0xbdf38ecc	-0.11892471
105	0xbdb9ca2c	-0.09071764
106	0x3d9025d6	0.07038467
107	0xbdb07ef6	-0.08617966
108	0xbdd20db7	-0.10256522
109	0xbe97d29e	-0.29652876
110	0xbd8bd436	-0.068275854
111	0x3cb9e683	0.022692924
112	0xbdc711ba	-0.09720178
113	0x3c6ebb27	0.014570988
114	0x3d687c4f	0.056759175
115	0x3cac8630	0.02106008
116	0xbe11b7e8	-0.14230311
117	0xbd75ed7a	-0.06004093
118	0xbd3dd8ef	-0.046349462
119	0x3d859bb0	0.06523836
120	0x3c9948dc	0.0187115
121	0xbd2f2582	-0.04276038
122	0xbd977c36	-0.07396738
123	0xbdb62e2f	-0.088955276
124	0x3c12b5bd	0.008954463
125	0xbe10358d	-0.14082928
126	0xbd48e3ee	-0.049045496
127	0x3a8c0fef	0.0010685901
128	0xbd972487	-0.07380014
129	0xbd6efba3	-0.05834545
130	0xbde3fd71	-0.111323245
131	0x3b10be67	0.0022086145
132	0xbbe392aa	-0.006944974
133	0xbb343ae8	-0.0027500931
134	0x3db47673	0.08811655
135	0xbdea6174	-0.11444369
136	0xbd41588f	-0.047203597
137	0x3c6817af	0.014165803
138	0x3ce15f06	0.027511131
139	0x3e291f43	0.16515832
140	0x3d3d5862	0.046226867
141	0xbce95820	-0.028484404
142	0x3d68bdac	0.05682151
143	0x3cf81cf0	0.030287236
144	0x3dc71bdb	0.0972211
145	0x3d9b57ad	0.07585082
146	0x3dafc296	0.08582036
147	0xbce1a674	-0.027545191
148	0xbd07937c	-0.033099636
149	0x3d7a9fa4	0.0611874
150	0x3da3b6a5	0.07993821
151	0xbd69f797	-0.057120886
152	0xbe1e7988	-0.15476048
153	0x3d70a660	0.058752418
154	0x3d70a69b	0.058752637
155	0xbc8cbf09	-0.017180936
156	0xbdd0b160	-0.101900816
157	0x3dcf41b3	0.10119953
158	0x3da57811	0.080795415
159	0x3d9d75a0	0.07688451
160	0x3daec4a6	0.085336015
161	0xbd7af0fb	-0.061264973
162	0xbdccede7	-0.10006314
163	0x3b997557	0.0046831775
164	0x3d718e4c	0.058973595
165	0xbcaebdad	-0.021330679
166	0x3c205d3e	0.009787856
167	0xbdffd084	-0.12490943
168	0xbd99e6b6	-0.07514708
169	0xbd8151fa	-0.06314464
170	0x3d700184	0.058595195
171	0xbcc48473	-0.023988938
172	0xbd8adaba	-0.0678
173	0xbcd00851	-0.02539459
174	0x3e2b1edc	0.1671099
175	0xbe0e2916	-0.1388286
176	0xb9b7ae05	-0.00035034135
177	0x3dce5612	0.1007501
178	0xbe3a87c5	-0.18215854
179	0x3dfbd8de	0.122972235
180	0xbcb27769	-0.021785455
181	0x3dd9b47a	0.10630126
182	0xbda9b099	-0.082856365
183	0x3dce1369	0.10062296
184	0x3e141791	0.14462115
185	0xbe3278e6	-0.17428932
186	0xbd919192	-0.071078435
187	0x3d9bdcde	0.076104864
188	0x3d5edf6e	0.054412298
189	0x3d9502eb	0.07275947
190	0x3ded95b9	0.11600823
191	0xbcaf8f67	-0.021430684
192	0xbe86dec0	-0.2634182
193	0xbd4e7f5c	-0.050414428
194	0xbdb45adb	-0.08806392
195	0xbd65f660	-0.056143165
196	0x3bc53dfe	0.006019353
197	0x3db7bd16	0.08971612
198	0xbe6b171e	-0.22958037
199	0x3d41b7e9	0.04729453
200	0x3d0bb572	0.034108587
201	0xbdb43d58	-0.08800763
202	0x3c8939d6	0.016751211
203	0xbd1fc3d1	-0.039005104
204	0xbd20c163	-0.039246928
205	0x3d5c109b	0.053726774
206	0xbdf36042	-0.11883594
207	0x3d4adcc3	0.04952694
208	0x3dbdadcd	0.092616655
209	0xbd020ebc	-0.031752333
210	0xbd749c34	-0.05971928
211	0xbc2c5fee	-0.010520918
212	0xbbe8a48f	-0.007099695
213	0xbd8e0332	-0.06934203
214	0xbd9bdb72	-0.07610215
215	0x3b493dde	0.0030707042
216	0x3ca11586	0.019663583
217	0xbca6e914	-0.020374812
218	0x3d94c1d0	0.07263529
219	0xbd034240	-0.032045603
220	0xbd410ddf	-0.04713237
221	0x3d0e09c9	0.0346773
222	0xbb7a89b7	-0.0038229057
223	0xbbc0b070	-0.005880408
224	0x3d6090b5	0.054825503
225	0x3baf28e9	0.005345453
226	0xbd4c9987	-0.049951103
227	0xbc1cd1dc	-0.009571519
228	0x3df42b0f	0.11922275
229	0xbdb2f98b	-0.08739003
230	0xbd1e003b	-0.03857444
231	0x3af09cf4	0.0018357323
232	0xbc8b455e	-0.01700085
233	0xbcb5a28b	-0.022172233
234	0xbd5c2afc	-0.05375193
235	0xbcce34bb	-0.025171628
236	0x3d79bf5e	0.060973518
237	0xbd05e7c8	-0.032691747
238	0xbd93f45b	-0.072243415
239	0x3e0f3b40	0.13987446
240	0x3d3fb7a5	0.046805996
241	0x3bb53c35	0.005530859
242	0xbe021420	-0.1270299
243	0xbd01469b	-0.031561475
244	0x3d20f633	0.039297294
245	0x3d8a61d6	0.06756942
246	0x3c15bee0	0.009139746
247	0xbd5570ff	-0.052109715
248	0xbdef5547	-0.11686187
249	0x3db8ae6e	0.09017645
250	0x3c15b5c7	0.009137577
251	0x3d44363b	0.04790328
252	0xbd18006e	-0.037109785
253	0xbc88d189	-0.016701477
254	0xbd2ffb5d	-0.042964328
255	0xbc5787c6	-0.0131549295

attn_weights.weight f4 [1, 100]
0	0x3a334a5c	0.00068393885
1	0xbdee8e70	-0.116482615
2	0x3ddb679b	0.107131205
3	0x3c231e58	0.009955965
4	0xbc01feb0	-0.007934257
5	0x3e042cd4	0.12907726
6	0x3ca27ede	0.019835886
7	0xbd98ceb3	-0.074613
8	0xbdd86896	-0.10566823
9	0xbd05c407	-0.03265765
10	0xbce25488	-0.027628198
11	0x3dc7c3dc	0.09754154
12	0x3e1dea8f	0.15421508
13	0xbe2fbed3	-0.17162637
14	0xbe574807	-0.2102357
15	0x3df8d4f5	0.12149993
16	0x3d0043c3	0.031314623
17	0xbd85126c	-0.06497654
18	0x3e36236d	0.17786951
19	0x3d9dcfba	0.07705636
20	0x3da18a72	0.078877345
21	0x3d76a730	0.060218036
22	0xbd22c581	-0.039739136
23	0x3aae24c2	0.0013286101
24	0xbc9c6e53	-0.019095575
25	0x3d302ad8	0.04300961
26	0xbdabbd54	-0.08385721
27	0xbcb8b404	-0.022546776
28	0x3de8a715	0.11359993
29	0xbda9ccdd	-0.08291028
30	0x3d91e6f5	0.0712413
31	0x3d3ade21	0.045621995
32	0xbdba0372	-0.090826884
33	0x3d68f7f0	0.056877077
34	0xbdd5fe55	-0.104489006
35	0xbcfc8aca	-0.030827899
36	0xbd98da24	-0.07463482
37	0x3dc4f542	0.09617092
38	0x3ddd8343	0.10816052
39	0x3e3332ed	0.17499895
40	0x3e479a27	0.19492398
41	0x3bf9c51b	0.0076223738
42	0xbe33f1c2	-0.17572692
43	0x3d34fa4c	0.044184014
44	0xbcc3c34e	-0.02389684
45	0xbd16dcdb	-0.036831718
46	0x3daa06e2	0.08302094
47	0x3d8b3406	0.06797032
48	0xbe0f7c4f	-0.14012264
49	0xbc0745a1	-0.008256347
50	0xbe08b9d7	-0.13352142
51	0x3df763a2	0.1207955
52	0xbd0e0ebe	-0.034682028
53	0xbd02df1f	-0.031951066
54	0xbd900656	-0.070324585
55	0xbe4e9539	-0.20174111
56	0x3cc5379a	0.024074364
57	0xbdf0a136	-0.117494985
58	0xbe16b4e7	-0.14717446
59	0x3df2b994	0.118518025
60	0xbe3aa08c	-0.18225306
61	0xbdb5bc0d	-0.088737585
62	0x3daf12de	0.085485205
63	0x3d55e6bf	0.05222201
64	0xbe28a4eb	-0.16469161
65	0x3b5184a7	0.0031969936
66	0x3e3ef0d7	0.1864656
67	0xbd5038b1	-0.050835315
68	0xbd8b1bec	-0.06792435
69	0xbd917bff	-0.071037285
70	0xbe08a050	-0.13342404
71	0xbd004c37	-0.031322684
72	0xbd09e56f	-0.03366607
73	0xbced67e5	-0.028980205
74	0x3da5f6e1	0.08103729
75	0xbd4a367a	-0.04936836
76	0xbda973a7	-0.08274012
77	0x3d3d61fe	0.04623603
78	0xbcff2ac0	-0.031148314
79	0xbdeb2369	-0.11481363
80	0x3de70c4a	0.11281641
81	0xbe4086a9	-0.18801369
82	0x3d3ad52e	0.04561346
83	0x3bc37a00	0.0059654713
84	0xbb4885ea	-0.0030597397
85	0xbcf005e0	-0.029299676
86	0x3d6587a7	0.05603757
87	0xbdfe6d19	-0.124231525
88	0x3dad29ed	0.08455262
89	0xbbfe16df	-0.0077541913
90	0x3e1f1a04	0.15537268
91	0xbdb8d442	-0.0902486
92	0xbb788452	-0.0037920666
93	0x3e064cc2	0.13115218
94	0xbe0dd8b6	-0.138522
95	0x3def872a	0.116957024
96	0x3d67d5ad	0.05660026
97	0xbdff682c	-0.12471041
98	0x3cc78d54	0.024359383
99	0x3e058c71	0.13041855

linear.weight f4 [1, 100]
0	0x3cb2399f	0.021755992
1	0xbc838cca	-0.016058344
2	0xbdf7fcbe	-0.121087536
3	0xbd979236	-0.074009344
4	0x3e211e10	0.15734124
5	0xbde960c6	-0.11395411
6	0xbe7592a7	-0.23981725
7	0x3e383025	0.17987116
8	0x3e1da553	0.15395097
9	0xbb0816c4	-0.0020765522
10	0xbde64fb9	-0.11245675
11	0xbe51f83c	-0.2050485
12	0xbdf06df7	-0.11739724
13	0x3e19e233	0.15027694
14	0xbe3423c8	-0.17591774
15	0xbdf5f924	-0.120104104
16	0x3d8f3618	0.069927394
17	0xbdd9185d	-0.1060035
18	0xbe2a4b22	-0.16630223
19	0xbe0fe823	-0.14053397
20	0xbe41d4e1	-0.18928863
21	0xbe558835	-0.2085274
22	0x3e22ab77	0.15885721
23	0xbe1ce71e	-0.15322539
24	0x3e1f9cbf	0.15587138
25	0xbd803127	-0.06259375
26	0x3e008026	0.12548885
27	0xbdbe6272	-0.09296121
28	0x3df62cc6	0.120202586
29	0xbe54c8cc	-0.20779723
30	0xbd832e97	-0.06405371
31	0x3e2b5187	0.16730319
32	0xbddb87d2	-0.10719265
33	0xbe06d294	-0.13166267
34	0xbe80d1cf	-0.2516007
35	0x3dd2a92a	0.10286172
36	0x3d2bfda8	0.041989952
37	0xbe6598cf	-0.22421573
38	0xbdf1e1dc	-0.118106574
39	0x3e57fe79	0.21093167
40	0x3d82ba0c	0.06383142
41	0x3e16dc0d	0.1473238
42	0x3e3f2a2e	0.18668434
43	0xbe2222d2	-0.15833595
44	0xbe297aae	-0.16550705
45	0x3e7d4f4b	0.24737279
46	0xbe038cc5	-0.12846668
47	0xbe814e60	-0.25255108
48	0xbe4b66e2	-0.19863465
49	0x3e666090	0.22497773
50	0x3e5e7e38	0.21727836
51	0xbe5c1063	-0.21490626
52	0x3de55227	0.1119731
53	0x3d3f86c7	0.046759393
54	0x3e36fb8b	0.17869394
55	0xbdb5138a	-0.088416174
56	0xbe2a9763	-0.16659312
57	0xbd876ec0	-0.06612921
58	0x3e1d1325	0.15339334
59	0x3e4ec66b	0.20192878
60	0x3de38fee	0.11111437
61	0x3c927914	0.01788
62	0xbdb3fb85	-0.08788208
63	0xbe1940b3	-0.14966087
64	0x3e2e94f0	0.17049003
65	0x3df3cb0a	0.11903961
66	0xbe28c3bd	-0.16480918
67	0xbdf08a4d	-0.11745129
68	0xbe202817	-0.15640293
69	0xbddc8dc8	-0.1076923
70	0xbdec2c0f	-0.11531841
71	0xbe42e20f	-0.19031547
72	0xbe2efcdf	-0.1708865
73	0xbe4da42e	-0.20082161
74	0xbe64069a	-0.22268143
75	0xbe2697cb	-0.16268842
76	0xbe3fe3d1	-0.18739249
77	0x3e03455c	0.12819427
78	0x3db1fe6d	0.08691106
79	0xbe8c365b	-0.2738522
80	0xbe491dcb	-0.19640271
81	0x3e47c5d7	0.19509064
82	0x3e45066f	0.19240735
83	0x3e59bffb	0.21264641
84	0x3e2d3b95	0.1691726
85	0xbcfb6f20	-0.030692637
86	0xbd774d74	-0.0603766
87	0x3e3fe649	0.1874019
88	0x3e130a2f	0.14359353
89	0xbddb4e09	-0.107082434
90	0x3d8e8a50	0.06959975
91	0x3e43d40c	0.19123858
92	0x3d3745a6	0.044744156
93	0xbe1395c4	-0.144126
94	0x3e113fcd	0.14184494
95	0x3e01cf50	0.1267674
96	0x3e4a429f	0.19751976
97	0xbe23632f	-0.15955804
98	0x3d32fad5	0.043696243
99	0xbe1467fb	-0.1449279
