results/attention_bs8_sl90_ep5/model.pt (torch_old, 166987 bytes, 6 tensors)

lstm.lstm.weight_ih_l0 f4 [400, 1]
00000000: 5c51 373e 9fa5 213d 4bbf 06bd 4d48 babd
00000010: 46fc 073e 1965 fa3c 9a6d 59bd 7f8c c8bd
00000020: 7008 083e 6350 8e3d b754 e03c a8c5 423e
00000030: 9635 473d 0428 9bbb 9732 613d 4533 c6bc
00000040: 0b11 5e3d 4c40 32bc bba8 393e 7664 1c3e
00000050: ac5f 053c 8f86 ddbc 7bd4 0ebe d29e f5bd
00000060: 4d5f 583d 3e04 7cbc 9eec cb3d fa17 f3bc
00000070: 82e9 633d a81a 5f3e c0ab 54bd 78d1 fb3d
00000080: c778 233d 1931 c73d e388 afbb e2e1 40bd
00000090: c04d 3cbc 57ef b9bd 5c80 a43d 1c99 a23d
000000a0: b5c4 1fbd 5118 a5bc c0ab 4bbd dfe5 373c
000000b0: cb50 583c 174c bebd 9177 653d 21b0 57bc
000000c0: feff 793d 9546 cbbd e8bc 87bc 80da 003e
000000d0: 3330 2abd 5286 973b 6b99 07be 1837 22bd
000000e0: b18b 0a3e d6a9 f9bd 1a1e bd3d 08b4 06bd
000000f0: 1b68 ef3d 2e7b b5bd 7046 4a3c ee3d 2abd
00000100: 722d e73d bddf 413d fbac 803d 3bea c2bd
00000110: fab0 dabd c7d6 90bd 293e 23bc 3307 6b3d
00000120: 01bc 043d 87cc 943d ae9b 4dbc 8bd9 a43d
00000130: 0c0d 0c3d 7722 623e 288a 0e3e 5ed2 69bc
00000140: 48e6 91bc 80de 23bc b2ae e23d 42bc ff3d
00000150: d902 943e 4473 be3e 5067 2bbe bf7f 673d
00000160: 8b70 c83d 1408 15be c661 b83d 24d6 46ba
00000170: 6151 6b3e e991 19bb 7b25 dd3d 3d34 4d3d
00000180: 38f8 313d e1ef cdbd c12d 263d 2469 a7bd
00000190: 1357 d83d 0525 8fbd 6116 133c f507 3dbd
000001a0: 8cfa b23d ed4a 94bd a70d b93d cd1a 5abc
000001b0: 5f69 f7bb 3cd4 6bbd d690 b03d 78e7 793c
000001c0: a17e 7fbd 6349 4f3e 0d1b 7abd 8911 24be
000001d0: 1820 9c3c d039 84bd 3a72 59bd 719a eabd
000001e0: 45d9 b93d 6979 943d 1210 8f3d 3332 12bc
000001f0: d022 acba 5b07 c2bd eaa4 a73d 4e2b f3bd
00000200: 1677 a4bd 083a 8d3d ead7 a8bd be85 593e
00000210: 4308 7139 471c 57bd dfc0 3dbb 7326 a93d
00000220: b10c 523e 69cc ad3d 2380 ac3d 004d f73b
00000230: c28f b43a f154 3a3e a1fe e33d 7be7 203b
00000240: 3561 2b3e eef6 553d cef9 dabd 32ee e03d
00000250: e5e0 2d3e a5c7 00be 52ae b2bd 224f a33c
00000260: 2f57 d6bd bc6a df3d 95b0 793d 5eb0 acbd
00000270: 696e 6a3d f8d0 d7bd 844a f23c 7325 5dbc
00000280: 6f41 153e 493b d73b a862 8c3d daff b83d
00000290: a5a3 0b3e 8532 fa3d 2907 093c af1d a73d
000002a0: e236 90bd 63da 113e 2d33 1d3d 33fb 6ebc
000002b0: 32eb 803d b971 e53d da43 43bc 679c 523d
000002c0: 1e08 f4bc 4325 5c3e 5eb0 223d 7498 193e
000002d0: 0050 ccbd a7fd 91bc 5cf6 923c 31e1 493e
000002e0: 6f0e 853d af15 cb3d 3bdd 19be 00cc e63d
000002f0: b3b0 ec3d 729f 8b3c 0fbc aa3d 5d23 8ebc
00000300: bc4f 0d3e 6dc4 313c 1b7a 053e 8324 ec3d
00000310: 5a33 5dbd 5505 cfbd 1a65 02be 30a0 debd
00000320: b0de 49be eae6 a7be 9292 5c3e 2c7c 033e
00000330: cd7b 063e 6c13 a5be ad8e 9d3e 76ef c8bc
00000340: 5ea1 99be 2fd1 b3bc 20a3 9ebe 5619 953e
00000350: 1b47 7dbd 989d c0be f0b9 e93d 1761 613e
00000360: b703 bbb9 1e49 18bd 55b8 8c3e 1e22 5bbe
00000370: 8efe 8f3e 75df 72be 44d8 df3c e144 633e
00000380: 0570 0abe 6993 0b3e bde9 10bd 58b6 763e
00000390: 72d6 273d 74b7 513e a18e ffbd c175 b0be
000003a0: c82a 693e 3507 9f3d 24e4 95bd 8110 86be
000003b0: d251 b53e 2255 963e 2089 a2be c182 543e
000003c0: 1951 6bbe 6821 e2bd 0212 d0bc 8dc0 2bbe
000003d0: 092b c43e 8a1a 5ebe 1ade 90be 4871 943e
000003e0: e475 b1be 4d11 5fbe 0bae b7bc 9a95 8bbe
000003f0: 59fd 8b3d 3ea6 b83d af48 273e bdbb 0ebe
0.1790213 0.03946459 -0.032897275 -0.090958215 0.13279828 0.030565785 -0.05308304 -0.097924225
0.13284469 0.06948926 0.027384145 0.19020712 0.048635088 -0.004734995 0.054979887 -0.02419437
0.054215472 -0.010879587 0.18130772 0.15272698 0.008140486 -0.027041702 -0.13948242 -0.11993183
0.05282526 -0.015381871 0.099572405 -0.029674519 0.055642612 0.21787512 -0.051921606 0.12295812
0.039910104 0.097261615 -0.0053568943 -0.04709042 -0.011493146 -0.090788536 0.08032295 0.079393595
-0.039005954 -0.020153197 -0.04972434 0.011224239 0.013202856 -0.09291857 0.05602223 -0.013164551
0.06103515 -0.09925572 -0.01656957 0.12583351 -0.041549873 0.0046241665 -0.13242118 -0.039603323
0.1352985 -0.12190597 0.09234257 -0.032886535 0.116897784 -0.08861385 0.012345895 -0.041562967
0.11287965 0.047332514 0.062829934 -0.09517332 -0.10678287 -0.070722155 -0.009963551 0.057379913
0.032405857 0.07265573 -0.012549324 0.080493055 0.03419213 0.2208346 0.1391989 -0.014271347
-0.017810002 -0.010001779 0.11068477 0.12487079 0.28908423 0.37197316 -0.1673863 0.056518313
0.09787091 -0.14553863 0.09003024 -0.000758501 0.22980262 -0.0023432916 0.107981645 0.050098646
0.04344961 -0.10055519 0.040570978 -0.08174351 0.10563483 -0.06989483 0.0089775035 -0.046150167
0.08739194 -0.072408535 0.09035807 -0.013312054 -0.007550403 -0.05757545 0.08621375 0.01525294
-0.062376622 0.20242839 -0.061060954 -0.16022314 0.019058272 -0.06456339 -0.05308745 -0.114552386
0.09074644 0.0724972 0.06985487 -0.008923101 -0.0013132934 -0.09474059 0.08185752 -0.11873494
-0.08030526 0.06895834 -0.08244307 0.21242425 0.00022986629 -0.0525172 -0.0028954071 0.08259287
0.20512654 0.08486254 0.08422878 0.007547021 0.0013775753 0.18196465 0.11132551 0.0024552036
0.167363 0.052237444 -0.10692178 0.10982932 0.16980322 -0.12576158 -0.08724655 0.019935194
-0.10465848 0.1090903 0.060959417 -0.08432077 0.0572342 -0.105379045 0.029576547 -0.013497698
0.14575742 0.0065683466 0.06854755 0.09033175 0.13636644 0.12216667 0.0083635235 0.081599586
-0.07041718 0.14243464 0.038378883 -0.014586258 0.0629486 0.112033315 -0.011918033 0.05141869
-0.029789027 0.21498589 0.039718978 0.14999563 -0.09976196 -0.017821146 0.017939739 0.1971481
0.064968936 0.09916245 -0.15025799 0.11269379 0.1155714 0.017043803 0.083366506 -0.017350847
0.13799948 0.010850054 0.13034861 0.115304016 -0.05400405 -0.10108439 -0.1273388 -0.10870397
-0.19713855 -0.3279336 0.21540287 0.12840337 0.13133164 -0.3224138 0.30772915 -0.024528246
-0.30005926 -0.021950332 -0.3098383 0.29120892 -0.06183539 -0.37620234 0.11412418 0.22009693
-0.00035670187 -0.037179105 0.27484384 -0.21399733 0.28123897 -0.23718055 0.027324803 0.22194244
-0.13519295 0.13630451 -0.03537916 0.24092996 0.040975995 0.20480138 -0.12478376 -0.3446484
0.22770226 0.077650465 -0.07318905 -0.26184466 0.35413986 0.29361826 -0.31745243 0.20753004
-0.22980155 -0.11041528 -0.025399212 -0.16772671 0.38314083 -0.21689811 -0.2829445 0.28992677
-0.34660256 -0.21783943 -0.022421857 -0.27262574 0.068354316 0.09016083 0.1633632 -0.13938804

lstm.lstm.weight_hh_l0 f4 [400, 100]
00000000: 0632 9dbd 3f6d 8fbd fb6b 103e d04f 93bd
00000010: 45a9 0bbe 9ca0 06be 8383 a23d 4dee 91bd
00000020: 6385 b6bd 25ef da3c b5a6 debd 2ebd 0c3e
00000030: 760a aa3d 7ff6 a6bd 0990 c9bd 8673 5bbd
00000040: db70 1abc 8615 1bbe 4e36 2b3e f93a e0bd
00000050: 423b 563e 1756 debd 7c3a ad3c 6a5f 853e
00000060: 910d 00bd 1ac8 523c 0606 d0bb ebad 643e
00000070: 1f03 75bc 2eff 3fb9 1465 a1bd 06a2 03be
00000080: 197d 813d 8d80 f83d 82a4 78bc 9e0d 8abe
00000090: ceaf c43d 2770 0a3e 54a1 6cbe 6dc9 36bd
000000a0: 15db 95bd b1d6 203d bb0b 643d 3a3c 39be
000000b0: 82b3 123e 45c9 0bbe e057 81be e01b 3c3e
000000c0: d443 23be fdd3 2bbe fa10 6ebd 5aec ebbd
000000d0: 1b29 89bd 24da ccbd 9709 653e 0aac 06be
000000e0: f57f 443d 5fda b83c 5808 83be bf5d b63c
000000f0: d09a 363d f32a ab3e 9a56 12be 0376 fa3d
00000100: 615f d3bc 91b8 01be aeee f2bc f98f 10be
00000110: af24 9f3e 18f1 25be bcba e83c 8829 883e
00000120: ffe9 19be 52e1 863e 4b71 66be f537 85be
00000130: e63d 903d a955 efbd 8543 083e 6cd2 c53d
00000140: d13c cfbd 4ae6 9dbd 7981 7e3c 7a1d e13c
00000150: 0302 65be 0e68 f6bd b751 143d 5541 04bc
00000160: 3c38 fb3d be49 aebd 8ea7 863e e4fd 96bd
00000170: 8d0a 4d3e 3318 163e a147 093e 26ce de3c
00000180: 2df2 2f3e 1c8a 8d3c 66b5 a13d 3405 213d
00000190: 1e1f 573c 67d6 003d 8b4b 93bc ec2a 793d
000001a0: c815 133e 0c9b 90bd 7d50 9e3d a55d 04bd
000001b0: 4933 b1bd f8d0 09be 4b7c b6bd 0f22 133c
000001c0: db53 c23d 755f 40be 6d5d 07bd 04f6 fcbd
000001d0: 5e66 d93d 7ef5 81bd 6d69 6a3d 1fab bfbd
000001e0: e383 1bbd 4570 9fbd 2ff5 df3c 67ec f83c
000001f0: e7e4 89bd 336e 323e 786b 8ebd dd91 d53c
00000200: ce89 f23c 519c 77bd caf3 d93c 40d3 72bd
00000210: 91c2 863d b36d 703e 232a f7bd 1e3e 60bc
00000220: dc51 593d 1b3a 313e d3a1 183d 6ba0 b03d
00000230: 39b6 a33c 89eb b4bd 99f4 dabd 9acd 6fbd
00000240: 673a 4d3e 3e46 02be 156f 00be 379b e53d
00000250: 6faf 47be a2ac 3dbe 10d7 f6bd 374b 30bc
00000260: a607 a4bd d3da e93d 07f1 8a3d c0a4 50bd
00000270: a1ef dabc 1991 a1bd f5c8 cbbd 0f68 0a3c
00000280: c332 213e 4efc d13b ac29 69bd 384c 953d
00000290: 7583 803c 4049 1abe 0dc1 633d f342 03be
000002a0: 38dd 533d 6729 0abd cded 73bd 6c1c 023c
000002b0: 047f edbd b51c d1ba 3917 0fbe 26c9 d3b9
000002c0: 9d50 9e3c 144a a43c 018e 0b3e 638f 483e
000002d0: ba60 42bd 5c83 063c 58e5 643d 52aa 50bd
000002e0: 208c e13d 2312 013e 4eee a3bd 44ef 03be
000002f0: 9222 3b3d e7ab 6abd 86a2 113e d76a b33d
00000300: c8d5 a83c 3fd8 603d 94d3 c73d add2 903d
00000310: f471 0e3e a0d9 9c3c 1d15 273d f8e5 f13d
00000320: a2f3 de3c e0f9 e2bc 4abe b23c 87f4 a53d
00000330: ed05 a2bd 1c96 e63d e185 ffbc 012a 2b3d
00000340: 700e 923a a84a 5cbb 40d6 d43c cf81 b13a
00000350: d5cb 823d 66af b23d b955 463d b524 4bbd
00000360: 169e 97bd 4cad 983d 5d89 78bd ffd3 0bbe
00000370: 5629 d9bc 5de6 cabd 69e4 0cbd d744 8abc
00000380: b166 c63b fa60 153d 8a88 ddbd 3199 93bd
00000390: 89e4 cb3c 68b5 cd3d e718 0c3e 0fec 073e
000003a0: 92c7 6c3d 0946 fb3d 4c7b 9fbd 3efb 07be
000003b0: bc4c ef3c c0a8 e2bd a3d1 c23d 0765 9d3c
000003c0: ba3c 87bc a751 96bd 197b 11be be82 493d
000003d0: 3b5e d8bd cd09 163e 0361 49bc bddb 19bd
000003e0: 0853 9abc 771c 49bd df32 273d d8f2 ce3c
000003f0: 6528 f93d 71ec 8e3d 10ee 903d 537a 06be
-0.07675557 -0.07003259 0.14103691 -0.071929574 -0.1363879 -0.13147205 0.0793524 -0.071255304
-0.0891216 0.026725361 -0.108716406 0.13744041 0.083027765 -0.08152484 -0.09841926 -0.05357697
-0.009426321 -0.1514493 0.16719934 -0.10948748 0.20921043 -0.10856264 0.021146052 0.26049358
-0.031262938 0.012865091 -0.0063483743 0.2233197 -0.014954357 -0.00018310241 -0.07880607 -0.12854776
0.063226886 0.12133894 -0.0151759405 -0.26963514 0.096038446 0.13519345 -0.23108417 -0.04462569
-0.07317177 0.039267246 0.05567525 -0.18089381 0.1432629 -0.13650997 -0.25262356 0.18370008
-0.15943843 -0.16780086 -0.05812166 -0.1151969 -0.06697293 -0.100025445 0.2236694 -0.13151565
0.04797359 0.022565065 -0.25592303 0.022261498 0.044581234 0.33431205 -0.14290848 0.1222954
-0.025802316 -0.12668063 -0.029654827 -0.14117421 0.31082675 -0.16205251 0.028409354 0.26594186
-0.15030669 0.2634378 -0.22504155 -0.26019254 0.07043056 -0.1168626 0.13307007 0.096592754
-0.10119022 -0.0770994 0.015533798 0.027479876 -0.22364049 -0.120315656 0.03621074 -0.008072217
0.12266585 -0.08510159 0.2629971 -0.073726445 0.20023556 0.14657669 0.1340623 0.027197909
0.17182226 0.01727777 0.07895927 0.039311603 0.0131299775 0.03145447 -0.017980358 0.06083195
0.14363778 -0.07060823 0.07730196 -0.03231587 -0.0865236 -0.13458622 -0.08910426 0.008980288
0.094886504 -0.18786414 -0.033048082 -0.12351611 0.10615228 -0.06345652 0.057229448 -0.09358811
-0.037967574 -0.077850856 0.027338592 0.030386163 -0.06733113 0.1742485 -0.06954092 0.02607053
0.029606726 -0.06045181 0.026605505 -0.059283495 0.06580079 0.23479347 -0.12068584 -0.013686685
0.053056583 0.17307322 0.037263703 0.08624347 0.019984351 -0.08833987 -0.106911846 -0.058545686
0.2004181 -0.12722108 -0.12542374 0.112112455 -0.19500516 -0.18522885 -0.12052739 -0.01076012
-0.08009271 0.114186905 0.067842536 -0.050938368 -0.026725592 -0.07889003 -0.09950439 0.008447661
0.1574202 0.006408251 -0.056924507 0.07289928 0.015687684 -0.15067005 0.05560403 -0.12818508
0.051724643 -0.03373089 -0.059552956 0.007941347 -0.11596492 -0.001595399 -0.13973702 -0.00040394923
0.019325549 0.020054854 0.13628389 0.19585948 -0.047455527 0.008210029 0.05588278 -0.05094368
0.11013055 0.12604575 -0.080044374 -0.12884241 0.045687266 -0.057292845 0.14222154 0.087606125
0.020609751 0.05489373 0.09757152 0.07071433 0.13910657 0.01914674 0.04079162 0.11811441
0.027215783 -0.02770704 0.021819253 0.081032805 -0.079112865 0.112591 -0.031191768 0.041788105
0.0011143219 -0.0033613835 0.025981069 0.0013542714 0.06386534 0.08724861 0.048421595 -0.049595553
-0.074031994 0.07454929 -0.060677875 -0.13655089 -0.026508968 -0.099072196 -0.034397516 -0.016878529
0.0060547222 0.036469437 -0.108170584 -0.07206953 0.024889247 0.10044366 0.13681374 0.13273643
0.057807513 0.122692175 -0.07787189 -0.13279435 0.029211394 -0.11067343 0.09512641 0.019213213
-0.016508449 -0.07339793 -0.14207114 0.04919695 -0.10564848 0.14652176 -0.012291196 -0.037563074
-0.01883842 -0.04909941 0.04082 0.025262281 0.12165908 0.06978691 0.07076657 -0.131326

lstm.lstm.bias_ih_l0 f4 [400]
00000000: 89e9 07bd 431a 03bd 9254 793d 8ead a53d
00000010: 2741 70be d5b5 e63d 85ac 25bc 4ef0 f53d
00000020: 190b a83d 583a a9bd 6a09 a5bc bd05 1a3d
00000030: 9e28 e5bd 48b7 a2b9 73b6 cdbc db02 b43c
00000040: 9df7 26be 3e79 82bc d330 2b3d a474 ccbd
00000050: 5202 323e 806e 573d ef2b f73d 99a8 9e3c
00000060: 2850 1dbe 23d7 bc3d ee40 8ebd 4c17 59bd
00000070: f0e8 79bd 0232 7cbd 6402 42be 2287 8ebd
00000080: 6fb4 a93d 73dc aa3d 6d75 20be 9bcc e63c
00000090: 03b6 bdbd 8c31 aa3d f6d4 7b3d 48fe 25bd
000000a0: f4aa ab3c 99c1 26be 3f57 7abd a100 ddbd
000000b0: c5c8 023d 9c44 0abe 5db5 a6bd 61cb e83b
000000c0: d60d afbc abc2 7dbd f889 62be 1be3 a7bc
000000d0: fa67 99bd e716 063d 3a03 21bd b6e8 d2bc
000000e0: 6ee3 823d 4654 d83c fd3d 173d 815d 1f3c
000000f0: 4c56 223d 1c69 f6bc 6a7f 003e 7d36 0f3b
00000100: 6b1c 09bd fd29 8fbd a502 6dbd e972 3abd
00000110: dfe2 0b3d 9853 983c bda7 14be 1df3 683d
00000120: 500f 8c3d 32da 053e 4d27 7d3c b2a8 dc3d
00000130: 8375 9ebc 29d8 b0bd fab9 533d 965e 20bd
00000140: c02e 0a3d 4840 063d 9d41 86bd daa7 d3bd
00000150: 88bf 54be c2cb e6bd 6c5b e93d 02e3 ddbd
00000160: 03f1 4dbb edde 0a3e d919 4cbd e35c 523d
00000170: d6af 7a3d d031 a63c 022c d43d bffb e43d
00000180: 8af7 d6bc 1383 85bd ff42 84bd 1926 3dbc
00000190: 4c61 54bd 9c4e ddba 1c24 8c3d 1ded fb3d
000001a0: e462 8abd 1f68 963d 432e 8dbc 85b5 db3d
000001b0: 1eb3 f83d f9ef 89bd f20e 63bd 807e c9bd
000001c0: 6771 6e3d 16b7 6fbd 1838 8d3d bccc 2fbd
000001d0: 162c a0bd 35a0 013d dbbe 75bd 4d13 903d
000001e0: 1be7 013e 0af3 2b3d a7b3 0e3e 3a1c e93c
000001f0: 014d fcbd db7d c03c 436a d63c 88a5 213d
00000200: 5ab4 8fbd 6048 a03d c27c 37bd ddf8 c33d
00000210: 347b bdbd 4d7f 153d 4f4c 19be e39f 07bd
00000220: dbba 72bc 547f adbd 1950 c23c f459 5dbc
00000230: 914d e4bd fa58 69be e552 003d 8056 963d
00000240: a999 873d 56df 04be ea0d c1bc 5154 a7bd
00000250: a8ae fdbd 9579 6dbd b645 3fbd f0e3 0cbe
00000260: 20a4 be3d d81f 063e 565d 8cbd b574 b9bd
00000270: 86ea 1fbd 214e b23d 56b1 36bd 302f 493d
00000280: dbd2 843d ef89 38bd bd74 343d 49fb 163d
00000290: 62e5 72bd 42d1 d9bc fe0d 6e3c 387c 2dbe
000002a0: f662 73bc 0b33 c23c a426 403d cb2c a13d
000002b0: ffef e2bd 13ab ce3d f3b2 79bd dfcb 65bc
000002c0: 8031 063e bfa5 adbd 06bd bb3c b43c 833d
000002d0: 987e 563d fa22 19bd eb5f 1dbc f4bf d0bc
000002e0: 23e2 f2bc 9fc4 62bd 3f19 c33d ff41 6e3c
000002f0: 0f83 bb3d 90fd ce3d d48c 443d 8fb0 2f3d
00000300: 0a87 933c a224 f5bc c355 ebbc 7567 84bd
00000310: e35e 7bbd 63fe adbd 980c e1bd e4c5 a1bc
00000320: c67a 4abd 0d05 c3bd 4a88 3cbd ebe0 bbbd
00000330: 6e7b 783d 4bed f2bc 77b3 d43d 1617 28bd
00000340: a418 8ebc e2fb 94bd 88c0 29bc cbd7 65bc
00000350: 1307 f23d 0d41 72bd 7593 73bd cacc 7cbd
00000360: 6e12 29bd 4626 75bd ffc2 123d 2ddc c23d
00000370: ce30 973c 7c3c 75bd 8bd7 fd3d 3b15 43bd
00000380: 4b93 48bd 390c e93d f211 003d 1f06 463d
00000390: 52ec 65bd 408d 25bd 4594 cabb 5859 43bb
000003a0: a322 393c a130 bd3d d7d7 ad3c 7c84 98bd
000003b0: ddbd 613d 7548 d63d a5f5 70bd 886b 5a3d
000003c0: bec6 b7bc d46c 2fbd 9962 a7bc 1f89 08bd
000003d0: e45d 343d dbba b03c a329 84bc e7ca a33d
000003e0: 037e 36bd 8773 b0bd d706 ae3b 1024 5c3c
000003f0: 3e07 ffbc 5a86 a73d 19fe ec3d 80ee 6abd
-0.0331817 -0.032007467 0.06087167 0.080897436 -0.23462354 0.112651505 -0.010111933 0.12008725
0.08205242 -0.08263081 -0.02014609 0.03760313 -0.11189388 -0.00031035603 -0.025111413 0.021974018
-0.16305394 -0.015926953 0.04179461 -0.09983185 0.17383698 0.052595615 0.120689265 0.019367503
-0.15362608 0.092207216 -0.06945978 -0.053000733 -0.061013162 -0.06157113 -0.18946224 -0.06959368
0.08286368 0.083428286 -0.15669794 0.028173735 -0.092632316 0.083102316 0.061482392 -0.040525705
0.02095554 -0.16284789 -0.06111836 -0.107911356 0.03192975 -0.13502735 -0.08140061 0.007104323
-0.021368902 -0.061953228 -0.22122943 -0.020494035 -0.07490535 0.032736685 -0.039309718 -0.02574573
0.06391035 0.026407372 0.03692435 0.009726883 0.03963308 -0.030079417 0.12548605 0.0021852546
-0.033474367 -0.069904305 -0.05786385 -0.045519743 0.034151908 0.018594548 -0.14517112 0.056872476
0.06838858 0.13071516 0.015451265 0.107743636 -0.019343143 -0.08634979 0.051691033 -0.039152704
0.03373599 0.032776147 -0.065554835 -0.103347495 -0.20776188 -0.112693325 0.113943905 -0.10834314
-0.0031424172 0.13561602 -0.049829338 0.051358115 0.061202846 0.020287424 0.10359956 0.11180829
-0.026241083 -0.06519141 -0.06458091 -0.011544728 -0.051850602 -0.0016884389 0.06842825 0.12301085
-0.06757143 0.07344078 -0.017233973 0.107279815 0.12143539 -0.06735224 -0.055434175 -0.09838581
0.058213618 -0.058524214 0.06895465 -0.04291986 -0.07820909 0.031646926 -0.059996467 0.07034931
0.12685816 0.041979827 0.1393572 0.028455842 -0.12319375 0.023497513 0.026173716 0.039464504
-0.07016821 0.078263044 -0.044796713 0.09568951 -0.09252015 0.036498357 -0.14970516 -0.033111464
-0.014815058 -0.084715515 0.023719834 -0.013510216 -0.11147607 -0.22787848 0.031329054 0.07340717
0.06621105 -0.12975821 -0.023566205 -0.08170379 -0.12386829 -0.057977278 -0.04669734 -0.13758826
0.09308648 0.13098085 -0.0685374 -0.09055463 -0.03904202 0.08706308 -0.044602714 0.049117267
0.0648553 -0.04505342 0.044056643 0.036860738 -0.059300788 -0.02658904 0.014529703 -0.16941917
-0.014855137 0.02370598 0.04691185 0.07869872 -0.11080932 0.100912236 -0.060961675 -0.014025657
0.1310482 -0.08478879 0.022917282 0.064080626 0.052366823 -0.037386872 -0.009605388 -0.025482155
-0.029648846 -0.055363294 0.095263 0.014542102 0.09155857 0.10106957 0.047985867 0.04289299
0.018008728 -0.029924694 -0.028727418 -0.06465045 -0.061369788 -0.08495786 -0.1098873 -0.019747682
-0.049433492 -0.09522448 -0.046028413 -0.09173759 0.060664587 -0.029654166 0.10385793 -0.04103764
-0.017345734 -0.07274605 -0.010360844 -0.0140285 0.118177556 -0.05914407 -0.059466798 -0.06171874
-0.04127734 -0.059850954 0.035830494 0.095146514 0.01845589 -0.059872136 0.12394627 -0.04762767
-0.048968595 0.113792844 0.031267114 0.04834568 -0.056133576 -0.04041791 -0.006182226 -0.0029807892
0.011299762 0.09237791 0.021221085 -0.074471444 0.05511271 0.10463039 -0.058828015 0.053325206
-0.022433635 -0.042828396 -0.020432757 -0.033333894 0.044034854 0.021573475 -0.016133135 0.07997685
-0.044553768 -0.08615785 0.005310874 0.013436332 -0.031131383 0.081799224 0.11571903 -0.057356358

lstm.lstm.bias_hh_l0 f4 [400]
00000000: 111b 9fbc 0b1d 8e3d baf8 1c3d 6848 84bd
00000010: de0c 12be c3f1 9d3d fe96 c0bc e291 1c3d
00000020: a54b 9a3d aa73 eabd 32c6 373d 3053 23bc
00000030: d70f 3dbd 1cdc b3bd badd 5c3b 629e bf3d
00000040: d9de 26be 7483 c53c f5a4 13bc 32ac dfba
00000050: fd83 543d 1f82 dfbd 5bba e43d 6158 9d3d
00000060: dde4 11be 49b7 c83d a293 473d c634 49bd
00000070: caa0 12be 9244 d5bd bbbb 92bd 9872 86bd
00000080: 24b9 90bc fd4a f63b 0437 0bbe db32 eb3d
00000090: ba77 30bd 5bcd c03d b9ce 933d 47cd 3a3d
000000a0: 8c8e a5bd 42f4 4cbe 743b 3dbe 6b2d b0bd
000000b0: 259b 9c3d 40f4 e3bd d9a4 273d c536 c93d
000000c0: 8e34 a53d 76f8 55bd dea3 9bbe e416 e5bd
000000d0: 9cc0 bfbc f871 b23b b65a 24bd 2a1f c3bd
000000e0: cef6 78bd 7b78 9eb8 202c cd3d af9b b3bc
000000f0: 04f7 943d b2d7 8dbd ed72 11bd c73f b2bd
00000100: 9e15 bc3c 3f49 38bd 5712 d53b b906 fbbd
00000110: fe94 ed3d 752f 1ebd ba3d 06be 8cca 773d
00000120: 264f a9bd 053c af3d 33eb f33d 4546 87bb
00000130: 53a0 5fbd 040b 9abc bd95 c83d 8adf 4cbd
00000140: a90e db3d afed 0e3d b866 8a3d 2242 413d
00000150: 25cf 90bd cf2d 1ebe 7e3c a43c a865 dfbd
00000160: c8f5 62bd 9a4b 173e be46 8b3c e54b 953d
00000170: 1641 47bc 8794 c5bd 9a81 073e fd1d dcb9
00000180: ab6a 66bc 64e9 c53a d067 f7bd 487e 0c3d
00000190: db15 47bd 32e1 96bc 16fc 843d 26cb 053d
000001a0: a3cf c2bc e54d 82bd c5cf 643d 23bf e83c
000001b0: f6f5 9d3c 8af8 50bb 13e2 e93d 8769 a7bd
000001c0: 7b14 b03d e97a ffbd ac11 ee3c 6a7e ff3c
000001d0: fec8 49be a44b 0e3d 9be9 8a3d 8a82 b13c
000001e0: 542a d53d 2ea5 82bc 5445 f53c 6cef c03c
000001f0: 1dd5 c7bd c483 ca3b 4033 01bd d6b5 80bb
00000200: 466a e7bc 5ce8 acbd bd4e cdbd bf48 9dbd
00000210: 1fb0 06bc 7f32 083d 5d3e 08be 6a55 d6bc
00000220: a11d 9a3d f851 b13d 2c46 953c 7ef1 973d
00000230: 91af f3bd 992a f7bd f8c9 883d c408 bbbd
00000240: b1bf adbd 5e62 afbc 6f1b ca3c ddb8 62bd
00000250: ce34 b8bd bebe 613c 8fda d9bd 0231 d7bc
00000260: 7593 8d3d 4a9f 923d 8d66 ebbc 6e7e 21bb
00000270: d9b3 febc 4aa1 133e 0278 72bc 567e 4c3d
00000280: d2c3 993d 2d9d 7ebd 241d 66bd 80dc 8cbc
00000290: 00b3 8d3d ee0d a3bd b5e6 983b 236c 21be
000002a0: 939d 043d 46a1 313c 081c 78bd af2d 813d
000002b0: a197 eabd 5832 a1bc 7270 6ebc aba8 a2bc
000002c0: f86d f0bc 16f3 143c b3e4 603d a658 f7bb
000002d0: 0959 143d 0b2b 5c3b f574 043b 44ec 46bc
000002e0: 57a1 ffbd 9eed bbbd d58f d63d 84de c3bd
000002f0: 2f18 01bd 0b87 eebc 6cd5 17bd e225 d53d
00000300: a570 0a3d 41ac 13bd 3399 b13d 7dfa 53bd
00000310: a4af 50bd efd0 a03d 51fb a9bd 68e2 6ebc
00000320: 0698 ea3c 679f 363d ebd3 c43d 2949 55bc
00000330: fd71 febc 1a3c 01bd 589f cfbc bf65 1bbe
00000340: 6f54 d3bc 7c13 a4bd de3c 35bd 6a46 903d
00000350: bb62 7bbd cb73 49bd e600 073d 9f41 c1bc
00000360: de58 713d a6af 01be 4c9c 74bb 086d a0bd
00000370: b13d 023d 5c2f ba3c 1b94 c13c 05dd fc3d
00000380: ae88 983d 0b5e 313d 9b04 e5bd 4575 8b3c
00000390: 7f5b ecbc 016c 24bb fd63 893b fd14 82bd
000003a0: 528a 32bd f1e2 eb3d ee51 30bd 8185 3abc
000003b0: de76 1f3d 1ce5 71bd 8cba f43c b689 f63a
000003c0: 9dcd d63a d8cc 1c3d d2cc 13bd e320 dfbc
000003d0: d38c 0c3d cdb5 88bd ccdb 80bc 3ee9 80bc
000003e0: 7fb2 46bd 43bc 44bd 5a19 dcbc 7d1c 5dbd
000003f0: dc17 a5bd c619 813d dfc0 7dbd 71ce 0fbc
-0.019422086 0.06939133 0.03832314 -0.06459123 -0.14262721 0.07712128 -0.023509499 0.038225062
0.07533959 -0.114478424 0.04486675 -0.009968564 -0.046157684 -0.08782217 0.0033701495 0.09356381
-0.16295947 0.024110533 -0.009011497 -0.0017064868 0.051883686 -0.109134905 0.11168357 0.076828726
-0.1424746 0.09800584 0.048724778 -0.049122594 -0.14319149 -0.104134694 -0.07164713 -0.06564826
-0.017666407 0.0075162635 -0.13595206 0.11484309 -0.04308293 0.094141684 0.072171636 0.045605924
-0.08083829 -0.20015052 -0.18479711 -0.08602413 0.07646779 -0.11130571 0.040928695 0.098248996
0.08066665 -0.052238904 -0.30398458 -0.11186007 -0.023407273 0.005445715 -0.04012557 -0.095274284
-0.060782246 -7.556468e-05 0.10018182 -0.021924822 0.07273677 -0.06925906 -0.035509992 -0.08703571
0.022959527 -0.044991728 0.0065024304 -0.122571416 0.11600684 -0.038619477 -0.13109484 0.060495898
-0.082670495 0.0855637 0.11910095 -0.00412825 -0.054596256 -0.01880408 0.09794185 -0.05001787
0.106961556 0.03489464 0.06757873 0.04718221 -0.0707076 -0.15447162 0.020048376 -0.10908061
-0.055410177 0.14774933 0.017001506 0.07289866 -0.012161514 -0.0964747 0.13233033 -0.00041984013
-0.014063518 0.0015099463 -0.120803475 0.03430012 -0.048604827 -0.018417928 0.06493394 0.03266444
-0.02378065 -0.063625135 0.055862207 0.028411454 0.019282322 -0.0031886422 0.11420073 -0.081744246
0.08597656 -0.12474615 0.029061161 0.031188209 -0.19705579 0.034740105 0.06782838 0.021668691
0.10408464 -0.015947904 0.029940285 0.023551665 -0.09757445 0.0061802585 -0.031543016 -0.0039279265
-0.028248917 -0.084427565 -0.10024784 -0.07679891 -0.0082207015 0.03325128 -0.1330504 -0.026163775
0.075251825 0.086582124 0.018221937 0.07419108 -0.11898721 -0.12068672 0.066791475 -0.09132531
-0.08483828 -0.02140921 0.024671284 -0.05535208 -0.08994447 0.013778387 -0.1063739 -0.026268486
0.06912891 0.07159288 -0.028735423 -0.0024642008 -0.031091617 0.14416996 -0.01479912 0.04992517
0.07508053 -0.062161613 -0.056180134 -0.017194986 0.06918907 -0.07961641 0.0046661743 -0.15763907
0.032376837 0.010841673 -0.060573608 0.063075416 -0.11454702 -0.019677326 -0.014553176 -0.019855818
-0.029349312 0.009091159 0.054905605 -0.0075484095 0.036217723 0.0033594992 0.0020211313 -0.012141291
-0.12481945 -0.09176181 0.104766525 -0.09563926 -0.031517204 -0.029117128 -0.03706877 0.10407616
0.033798832 -0.036052946 0.086717986 -0.051752556 -0.050948754 0.07852351 -0.08299888 -0.014580347
0.028636944 0.04458561 0.09610733 -0.013017931 -0.031060213 -0.031551458 -0.025344536 -0.15175532
-0.025797097 -0.08011529 -0.0442475 0.070446804 -0.061373454 -0.049182694 0.03295984 -0.02359086
0.05892264 -0.12664661 -0.0037324606 -0.07833296 0.031797115 0.02272766 0.023630193 0.12346844
0.074479446 0.043302577 -0.11182519 0.017023692 -0.028852222 -0.002508879 0.0041928277 -0.063516594
-0.043588944 0.11517895 -0.043046884 -0.011384369 0.03893172 -0.059056386 0.029874109 0.0018809352
0.0016388182 0.03828129 -0.036084004 -0.027237361 0.034313988 -0.06675301 -0.015729807 -0.015736219
-0.04851007 -0.048031103 -0.026867557 -0.053982247 -0.080611914 0.06303744 -0.061951514 -0.008777247

attn_weights.weight f4 [1, 100]
00000000: 17db dc3d 4f18 223d 048e fb3d 6674 fabd
00000010: cd0d 7abd f6da 6bbc 083a 663d b11f 0fbe
00000020: 51f1 963c 0a74 a5bd e1db d03c 802f 403c
00000030: 47f0 bd3d 3226 36bd 6bbc dcbc 9f10 2dbe
00000040: eeb0 2dbc e8ce 1cbe 548f dfbd 0668 f73d
00000050: 650e 8e3d 34b5 47bb 2dd3 b53d ad3f 9b3d
00000060: e607 ea3d 101f 953d d5f7 96bb f1c0 e43c
00000070: 5525 12be 5ca9 07be 34e0 d83d 92f1 383d
00000080: 99ab 0dbe 7577 fb3d 6205 343c 9370 92be
00000090: 9b00 973d a2f0 6e3d c81e 02bd 6a10 73bd
000000a0: aa95 8dbc 8e87 0c3d 18f4 85bb 7181 2abe
000000b0: 7493 023d f16d 283d 4733 973d cd9c a63d
000000c0: 3939 cabc 9531 cebd 0f1f eebc cc07 143b
000000d0: 489c c8bd 2967 923d f435 e23d c938 88bd
000000e0: 5ad0 e2bd 4783 15be 89bf 3bbd 478f 80bd
000000f0: a2cd afbc 5647 5b3e 1b35 d43d 690d 673b
00000100: 180e 1e3c 2319 7bbd 4ebe f93d dc37 babc
00000110: 8fb7 033e 8ed7 dfbc 8a5d b6bd 520c a6bb
00000120: bea8 1bbd 56e9 a63d 0d2e 15bd 1f0e 07bd
00000130: 8f4c 07be db9c 693d 1a92 49bd 1d90 a33d
00000140: 3862 4e3d 2d73 e0bd 1fa5 a8bc f9a0 b53d
00000150: cc17 75bc 72cb 2dbd 2f76 1fbe 8617 0abb
00000160: aee0 d4bd dd93 d3bd ca64 153d 79ee bd3c
00000170: a538 2c3e 772d aa3c 6ea8 9d3c b958 31bd
00000180: 713f 14bd 9946 2bbd e07f febc f106 983d
0.107839756 0.039573964 0.12282947 -0.122292325 -0.061048318 -0.014395466 0.056207687 -0.13976933
0.018425616 -0.08078773 0.025495471 0.011730075 0.09274345 -0.04447002 -0.026945313 -0.16900872
-0.010601265 -0.15313303 -0.109160095 0.12080388 0.06936339 -0.0030472996 0.08878169 0.075805046
0.11427288 0.07281315 -0.0046071806 0.027924033 -0.14272054 -0.13248199 0.10589638 0.045152254
-0.1383499 0.12278644 0.0109876115 -0.28601512 0.07373162 0.058334954 -0.031767637 -0.059341826
-0.01728328 0.034308963 -0.004087936 -0.1665094 0.031878904 0.041120473 0.07382827 0.08135376
-0.024685489 -0.10068051 -0.029067544 0.0022587655 -0.09795433 0.071485825 0.11045447 -0.06651456
-0.11074896 -0.1460086 -0.04583696 -0.06277328 -0.021460358 0.21413931 0.103616916 0.0035255796
0.009646915 -0.06130327 0.12194501 -0.022731714 0.12862991 -0.027324464 -0.0890456 -0.0050673867
-0.038002722 0.08149974 -0.03642087 -0.03297245 -0.13212799 0.057034355 -0.0492116 0.07986472
0.050386637 -0.10959468 -0.020586548 0.08868594 -0.014959287 -0.04243035 -0.15572427 -0.002107115
-0.10394417 -0.10330937 0.036473073 0.023185002 0.16818483 0.020773632 0.019245353 -0.043297503
-0.036193315 -0.041815374 -0.031066835 0.07423199

linear.weight f4 [1, 100]
00000000: 4be1 06be 7604 4dbe 018a 323d 9762 213e
00000010: 5a0e ba3d 4931 83bc b8be 573e ed2e 23be
00000020: 38df 54be b074 a7bd 4b70 63be c615 193e
00000030: 24f5 be3d 9335 17be b3cd 0f3e d52e 123e
00000040: af4a b33d 80d3 083e 8f68 2a3e bc68 0cbe
00000050: 66d7 173e c95d 0cbe 6c23 133e 0f14 df3d
00000060: c593 cebd f8a2 113e 7a38 11be af69 363d
00000070: d06f cc3d 07e9 e73d dceb 833d 1792 ecbd
00000080: 7150 263e dcd8 aa3d 6847 18bd 1dd5 ca3b
00000090: 839a 003e ea3d 5f3e cd78 38be 9448 9e3d
000000a0: de51 09be 6679 7fbd e7cf c5bd 34f4 19ba
000000b0: 09fa 523e d3d2 e8bd a8b0 0ebe 6d51 343e
000000c0: 1c3d cfbd 307e c3bd c392 1e3d 9396 0fbe
000000d0: 46cc 0d3e 2d04 1f3e fc48 c4bb ec8c cebd
000000e0: 0dde 463e 99c7 2a3e 7b4b 50be 824c 043e
000000f0: e22e 7f3e afdd d23c bcdc 43be 98d0 b13d
00000100: 3de4 c6bd 3979 12be 4438 38be 824c 9fbd
00000110: 04eb 303d 207f 0abe dcbf 993d dc98 3a3e
00000120: a812 34be df5c 543e 5841 8abe 1a9c 59be
00000130: 6ded 143e 3840 cdbd 8689 183e d7ff 173e
00000140: b40d 0dbe 9fb8 113e 02dd 263e 1ef0 1ebe
00000150: c4bd 283d cffc 4e3d 309d 483e 4974 17be
00000160: bed9 3c3e 231c c5bd 6d8e 0d3e 0c95 0c3e
00000170: 1631 183d 94c0 063e e9cb f63d a509 743e
00000180: 1c2d 443e c4f5 efbd ff67 013e 26ea 163e
-0.1317188 -0.20021233 0.043588642 0.15760265 0.090847686 -0.016014712 0.21068847 -0.1593587
-0.20788276 -0.08176553 -0.22210805 0.14949712 0.093241006 -0.1476653 0.14043312 0.14275678
0.08754479 0.13361931 0.16641448 -0.13711828 0.14828262 -0.13707651 0.14368981 0.10892498
-0.100867786 0.14222324 -0.141817 0.04453438 0.09982264 0.11323743 0.06441471 -0.11551302
0.16241623 0.08342144 -0.037177473 0.006189956 0.12558942 0.21800962 -0.18014832 0.07728687
-0.13410136 -0.062371634 -0.09658795 -0.0005872876 0.20603193 -0.113683365 -0.13934577 0.17609186
-0.101190776 -0.09545553 0.03871418 -0.14022283 0.13847455 0.15528937 -0.0059901457 -0.100854725
0.19420643 0.16677703 -0.20341294 0.1291981 0.24920228 0.025740473 -0.19127172 0.08682364
-0.09711502 -0.14304055 -0.17990214 -0.077782646 0.04319288 -0.13525057 0.075072974 0.18222374
-0.17585242 0.20738553 -0.27002978 -0.21250954 0.14543696 -0.100220144 0.14896211 0.14843689
-0.13774759 0.14230584 0.16295245 -0.15521285 0.0411966 0.050534066 0.19591212 -0.14790453
0.18442437 -0.09624507 0.13823862 0.13728732 0.037156187 0.131594 0.120506115 0.23831804
0.19157833 -0.11716798 0.12637328 0.14737758
