results/attention_ga_bs8_sl90_ep5/best model.pt (torch_old, 166987 bytes, 6 tensors)

lstm.lstm.weight_ih_l0 f4 [400, 1]
000000 81 60 8e bd fb 89 13 be f2 b6 0b 3e 86 3c 75 be
       -0.069520004 -0.14408104 0.13644007 -0.23948869
000010 18 ee 57 be 9d 68 8a 3d 64 26 54 3d 65 8a ac be
       -0.2108692 0.06758235 0.051794425 -0.33699337
000020 4f a9 89 be 6a 0c b6 3d c8 d9 c0 bd f4 60 3e bd
       -0.26886985 0.088890865 -0.094165385 -0.04647918
000030 d0 c9 91 3d 1f 19 cc 3e 90 55 2b be 78 1b 36 3e
       0.07118571 0.39862916 -0.16731858 0.17783916
000040 dc 5a ac 3d ea 8c 59 be a4 4e 79 be bf 47 93 bd
       0.084157676 -0.2124516 -0.24346405 -0.07191419
000050 75 49 40 3d 88 17 99 3d 43 97 38 3e ca 53 a2 be
       0.046945054 0.07475191 0.18026452 -0.3170455
000060 e8 f9 53 bc e2 ca ea bc 62 e8 ac 3e 44 c1 64 3e
       -0.012938 -0.028661195 0.33771044 0.2233935
000070 db 2a ff bd d8 af 08 be e4 ef 21 3e 2d a3 b0 bd
       -0.12459346 -0.13348329 0.15814167 -0.08624873
000080 4f 2f 49 3e 9b e2 d6 bd 2c ba 5e 3d f0 b2 ba bc
       0.19646953 -0.1049244 0.054376766 -0.022790402
000090 b8 49 86 3d 39 58 c9 be 40 07 3c bc 0c 1a 1f bd
       0.065570295 -0.3932512 -0.011476338 -0.0388432
0000a0 d0 ac 94 3d 60 fb c8 bd 34 79 ad bd 3e 6d 9d be
       0.07259524 -0.09813571 -0.08470383 -0.30747408
0000b0 20 d8 b6 bb 97 a9 fa 3d 19 b9 09 be f8 19 40 bc
       -0.0055799633 0.12239378 -0.13449515 -0.011724941
0000c0 c4 05 18 3e 8b 72 29 be 7e 2a bb bd aa d0 30 be
       0.1484595 -0.16547601 -0.09138964 -0.17267099
0000d0 6e c9 4c 3e c9 02 30 be df c4 23 3d aa 0f f8 3d
       0.19998714 -0.17188562 0.039982673 0.12112363
0000e0 d5 2a 8d 3e 5e 7e 44 bd 4a 33 a2 3d 7f f1 65 3e
       0.2757174 -0.047972076 0.07919939 0.22455405
0000f0 ee 3e b6 bd 2d ae 57 bd 94 db 4f bd 24 dc e1 bc
       -0.08898722 -0.05265634 -0.050746515 -0.027570792
000100 7a ee bd 3d 2c c8 39 3e f0 cb 3f 3d 34 0f 42 be
       0.092740014 0.18142766 0.04682535 -0.18951112
000110 00 87 a2 be d8 bf 25 3c 96 f9 ff 3d 79 d9 80 3e
       -0.31743622 0.01011654 0.124987766 0.25165918
000120 c9 c8 ad bd d0 2f 9c 3e 86 bb d7 3d 00 57 99 3d
       -0.08485562 0.30505228 0.10533814 0.07487297
000130 7e b2 3d be f5 5b 89 be 53 60 a3 bd 66 9e 9b bd
       -0.1852512 -0.2682797 -0.07977357 -0.075985715
000140 6a 6b d7 be a2 b8 cc 3d e6 0b 3c bd 6c b4 1f 3e
       -0.42074138 0.099961534 -0.045909785 0.15596169
000150 ce cf 3d 3d 92 02 1c 3e d6 2c 4f be d2 8d ae be
       0.046340756 0.15235355 -0.20231947 -0.34092575
000160 0d 10 9e bd 14 58 bb be 9a 04 1d 3e 27 1e 8c 3e
       -0.07717905 -0.36590636 0.15333787 0.27366754
000170 54 4c 27 3d b9 67 88 3d 9c 72 3c be b6 e0 9b bd
       0.040844277 0.066604085 -0.18403095 -0.076112196
000180 46 60 9c 3d 74 29 43 3e a0 de 87 3e a8 a2 3f bd
       0.0763555 0.19058782 0.26537037 -0.04678598
000190 ae 8f f2 bd f8 9b cd be 3c e7 d0 3c 49 47 8e bd
       -0.11843811 -0.40158057 0.025500886 -0.0694719
0001a0 0b ca c4 bd b0 c9 0f 3d 48 5e 1d 3e ca 4d 29 3e
       -0.09608849 0.035104454 0.15367997 0.1653358
0001b0 6a c3 b4 3e df 3a 3f be 22 6e 9e bd e8 dd 47 3d
       0.3530534 -0.18674801 -0.0773585 0.04879561
0001c0 cb 4f 8c be 0d 08 df bd a2 0c 7c 3e ac d9 9a 3e
       -0.27404627 -0.108902074 0.24614194 0.30244195
0001d0 5c bd b0 bc 5a fb fc 3c 07 65 13 3e 28 98 dc bd
       -0.021574669 0.030881573 0.14394008 -0.10771209
0001e0 f4 a7 16 be b8 94 15 3c 52 6b 10 3e 04 09 84 3e
       -0.14712507 0.009129696 0.1410344 0.25788128
0001f0 65 40 e5 3d 62 8e 85 be a2 1f 29 be 34 ae 88 3d
       0.11193923 -0.26085192 -0.16515973 0.066738516
000200 3c 16 0c bd f2 46 67 be 01 94 01 3e 18 88 90 3d
       -0.03420089 -0.22585657 0.12654115 0.07057208
000210 52 d0 b0 be e8 0f 8a bb 9a fe 56 3d c2 df 6e be
       -0.34533936 -0.004213322 0.0524889 -0.23327544
000220 96 e6 d2 bd 7c 1a d1 3c 78 12 33 bd fc 71 c1 3c
       -0.10297887 0.025525324 -0.043718785 0.023613922
000230 c0 72 29 be bb 2f 57 bd 80 a6 1c be 31 da 13 3e
       -0.1654768 -0.052535754 -0.1529789 0.14438702
000240 74 a4 93 3e b4 62 3a 3d f9 9d 2f be f7 0d 95 3d
       0.28836405 0.045504287 -0.17150106 0.07278054
000250 ab 91 a8 3d 92 ab ed bd 9a ef 81 3d fe b3 c5 bd
       0.08230909 -0.1160499 0.063445285 -0.096534714
000260 ab 44 7e 3e 7c e8 b7 bc fd 1d 06 be 72 80 22 be
       0.24830882 -0.022449724 -0.13097377 -0.1586931
000270 b8 98 23 3e 88 85 95 bd 99 ba bf 3e 0b 91 a3 3d
       0.15976226 -0.0730086 0.3744705 0.07986649
000280 d4 5e 2d be d1 88 49 3d 13 4f c4 bd 94 c0 7d be
       -0.16930705 0.049202744 -0.09585395 -0.24780494
000290 e6 4f 8b bc 76 97 9a 3d dc 0c d1 3d 07 12 a1 3e
       -0.017005872 0.0754842 0.10207531 0.31459066
0002a0 3a 05 23 be a7 f1 28 be 88 2f 15 bd c8 78 c0 be
       -0.15919963 -0.16498433 -0.036422282 -0.3759215
0002b0 8f 07 4f be ff ca 7d be ca 57 c5 be 5f 5a 39 bd
       -0.20217727 -0.24784468 -0.3854354 -0.0452522
0002c0 73 e9 8c 3d ed 96 f4 bd 8c f0 44 bd 86 d1 21 be
       0.068804644 -0.11942849 -0.048080966 -0.15802583
0002d0 cd 5e b1 be 78 3f 0e 3e d3 9c 18 be b2 8b e1 3d
       -0.3464264 0.13891399 -0.14903574 0.11012973
0002e0 9a a6 13 bd a8 7c 1a 3e 3c 15 e7 bb a4 0a f5 bd
       -0.036047556 0.15086615 -0.007052092 -0.1196492
0002f0 ed 44 58 be 56 74 4f be d4 63 2a 3d ca 31 52 be
       -0.21120043 -0.20259222 0.04159911 -0.20526806
000300 ad ee 25 3d 04 6d 1c 3d c3 a6 a6 bd d5 95 26 3e
       0.040510822 0.038189903 -0.08137276 0.16268094
000310 fe b3 be bd 7e 51 a6 be c4 77 47 be c4 6f 84 be
       -0.093116745 -0.3248405 -0.1947928 -0.2586652
000320 e8 16 80 3e fa 71 99 3e 40 a7 3f 3e 2e a9 fd bd
       0.25017476 0.2996977 0.18716145 -0.12385784
000330 fc 4f 72 3e 32 a5 6f be 75 2a 78 3d ad 9e 97 be
       0.23663324 -0.23402861 0.060587365 -0.29613248
000340 93 7f 4f be 5a f3 45 be de 73 5e 3e d0 e3 54 3b
       -0.2026351 -0.19331113 0.21723887 0.003248442
000350 6e 0d b3 be ec 29 d1 3e a4 e1 45 bc a4 f0 8e be
       -0.34971184 0.40852296 -0.012077723 -0.2791797
000360 08 a4 78 3e f3 a0 81 3e c1 fa 3c be 96 38 b2 bd
       0.24281323 0.25318107 -0.1845503 -0.08702199
000370 22 02 3c 3d 5c 61 5b be 50 44 0f 3e ec 5b 38 bd
       0.04590047 -0.21423858 0.13990903 -0.04500954
000380 f2 d9 81 3d 54 d5 cc 3c 1a 1f 93 be d6 5a 92 be
       0.06340398 0.025004067 -0.28734666 -0.28584927
000390 c2 99 88 3d db e9 73 3e 26 f7 3a 3d 27 1c 69 bd
       0.06669952 0.23819678 0.045645855 -0.056911614
0003a0 08 35 56 3b 84 d2 84 bd 72 e2 21 be 00 12 ef 39
       0.0032685418 -0.06485465 -0.15809038 0.00045599043
0003b0 66 20 79 be 3e 8f ce 3e 8e 8f ea 3e d4 20 ab 3e
       -0.24328765 0.4034366 0.4581265 0.33423483
0003c0 25 7e 11 bd 3a 5b ae 3d 67 63 25 3e 73 ba 26 3e
       -0.03552069 0.08513494 0.161512 0.16282062
0003d0 96 ff 96 bd 98 2a 0b 3c 2a be 62 3d f5 8c 04 3d
       -0.07372968 0.008494042 0.055357136 0.03236099
0003e0 59 85 69 3e b4 42 54 be e5 0d 0c 3d d0 6a f0 bd
       0.22804774 -0.2072857 0.03419294 -0.11739123
0003f0 73 77 5f 3e 12 4c d5 bd 82 a7 f5 3d 64 a1 b8 3c
       0.2182291 -0.104149 0.1199484 0.022537895

lstm.lstm.weight_hh_l0 f4 [400, 100]
000000 7a 80 2c 3e b3 bb bd be 7c 2e ca 3d 3a 13 dc 3c
       0.16845885 -0.37057266 0.098721474 0.026864637
000010 86 7a 7f 3e da a5 2b 3d 4a ff b8 be b1 e6 25 3d
       0.24949083 0.041906215 -0.3613227 0.040503208
000020 48 a0 a3 bc f8 ee 89 3e a2 34 57 be 88 c8 f5 bc
       -0.019973889 0.2694013 -0.21016172 -0.030002847
000030 06 3f 60 be 2d 18 03 bf 0d ef 76 be e0 80 b9 be
       -0.21899042 -0.51208764 -0.24114628 -0.36231136
000040 4b 32 63 be 5e fb 45 be 68 d7 57 3d 71 77 12 be
       -0.22187154 -0.1933417 0.05269566 -0.14303376
000050 fd ce 2d 3e b9 35 34 be 1d 2c b6 bd ee 51 58 3e
       0.16973491 -0.17598619 -0.08895133 0.21125004
000060 54 51 35 3c e6 d8 33 bd ee eb df 3d 2a d2 c5 3d
       0.011066753 -0.043908022 0.10933672 0.09659226
000070 48 49 fd 3d 77 c7 b4 3e 80 79 5f 3e c8 89 18 be
       0.12367493 0.3530843 0.21823692 -0.1489631
000080 6d 5d d4 3e 8f 95 ff 3c 9d 05 f8 3d 26 ff 06 be
       0.41477528 0.031199245 0.12110446 -0.13183269
000090 ac 9e 9e be d1 94 c9 bd f9 65 0c be 97 11 e0 bc
       -0.30980432 -0.098428376 -0.13710774 -0.027352137
0000a0 7e 9c c1 bc 4d 07 c6 bd 06 fd 63 be 35 18 06 be
       -0.023634192 -0.09669361 -0.2226449 -0.13095172
0000b0 5c 06 ca bd 5f 9d 7c 3e 64 95 2d be b8 c0 a0 be
       -0.09864494 0.24669407 -0.16951519 -0.31397033
0000c0 9c 1a d4 3c 84 a5 4b be da 48 e7 3c 9f 2b 3d 3e
       0.025891595 -0.19887358 0.02823298 0.18473671
0000d0 40 be 9a 3d 31 ae b8 bd 10 f0 80 bc a6 82 6a 3e
       0.075558186 -0.090175994 -0.01573947 0.22901401
0000e0 00 74 47 3e ac 82 48 be d1 4c 08 bd 36 1b b7 3e
       0.19477844 -0.19581097 -0.033276383 0.35762948
0000f0 da 56 4b be 46 8b eb 3c 94 3c ce 3e 11 86 6b be
       -0.1985735 0.028752934 0.40280592 -0.23000361
000100 1c df b0 3c 9b e6 a7 bd 70 b9 53 bc fb 5e 91 bd
       0.021590762 -0.081982814 -0.01292263 -0.07098194
000110 1d 98 0e 3d 82 39 8f 3e 48 5f f6 3d af 40 a0 be
       0.034813035 0.27973562 0.12029892 -0.3129935
000120 80 90 84 be 2b 17 1a 3d 34 6f a8 bd 6e 1b 13 be
       -0.25891495 0.03761975 -0.08224335 -0.14365932
000130 64 29 47 3d 43 8b 25 be fc 1a 10 3e 68 31 88 3e
       0.048623458 -0.16166405 0.14072794 0.26600194
000140 1d dc d9 3d ac ef cb 3c a5 08 d1 3d 6f bd 00 3d
       0.106376864 0.024894558 0.10206727 0.031430658
000150 00 7f cb 3b 26 e6 0e be 46 2e 8d be 40 d4 d1 3b
       0.006210208 -0.13954982 -0.27574366 0.006403476
000160 4e 2b e3 3e fe e9 d1 bc 04 8f 7f 3e 8c 2b c6 3c
       0.44368976 -0.025624271 0.249569 0.024190687
000170 f4 9d e4 3d 44 cd 2b 3d 41 57 f1 bd 00 38 7d bb
       0.1116294 0.041943803 -0.117842205 -0.0038638115
000180 f9 f4 da bd 78 eb f9 bc 98 39 22 3d 17 93 ec bd
       -0.10691256 -0.030507788 0.039605707 -0.11551493
000190 02 da 23 3e c3 07 b9 3e 36 c3 fc 3c ae 92 9e be
       0.16001132 0.36138734 0.030854803 -0.30971283
0001a0 80 9c 57 bd 64 12 af bc a6 46 50 be 4e d9 f3 3d
       -0.052639484 -0.021371074 -0.2033945 0.11906682
0001b0 4c a3 8d bb c6 f4 c6 be f3 ff ac 3e 8c 62 87 3d
       -0.004322445 -0.38858622 0.33789024 0.06610593
0001c0 58 94 b2 3c 8a f8 a8 3e 08 a8 2e bc a0 3a be 3c
       0.021799251 0.3300212 -0.010660179 0.023221314
0001d0 e7 fd 81 3e 28 1b a0 bd 30 fa 14 be 7c 30 15 3e
       0.25389025 -0.0781768 -0.14548564 0.14569277
0001e0 a6 54 c0 3c 08 9a 47 3e 1c 86 9e be d4 61 5d 3e
       0.023477864 0.19492352 -0.30961692 0.2161935
0001f0 db 5b f1 3d 63 58 3c 3e 3b a9 df 3d e2 e0 93 3e
       0.11785098 0.18393092 0.1092095 0.2888251
000200 28 fe e5 3c 00 02 76 3e 5a 11 17 3d 42 58 a8 3e
       0.028075293 0.240242 0.036881782 0.32879835
000210 9a 76 c8 bd 4e 17 07 3d 6c 25 31 3e 13 65 a2 3d
       -0.097882465 0.03298121 0.17299432 0.079294346
000220 62 2f 66 3e 90 a6 a0 3d 79 22 5c be 0c d5 71 3e
       0.22479013 0.07844269 -0.21497525 0.23616427
000230 10 0d 1e bd b4 ea 59 3d a8 95 3d be e7 44 71 bd
       -0.038586676 0.053202346 -0.1851412 -0.0589036
000240 24 73 01 3e 99 a9 4f 3e 9b c4 02 bd c9 6a 99 bd
       0.12641579 0.2027954 -0.03192578 -0.07491071
000250 c8 cb f7 bd 9c dc 43 be 42 3e 9d 3d 63 89 33 3e
       -0.12099415 -0.19127125 0.0767789 0.17532878
000260 ce d1 71 3d 98 02 52 3c d0 59 0e bb cd 96 04 3e
       0.059037976 0.012818001 -0.0021721013 0.12948151
000270 46 23 d0 3c 26 d4 3c 3e 3c b9 28 be 2c b8 c1 3e
       0.025407445 0.18440303 -0.16476911 0.37835824
000280 5c 2e e5 bd a6 72 89 be 16 59 03 3e ee 75 77 3d
       -0.11190483 -0.26845282 0.12826952 0.0604152
000290 61 fc f9 3d b6 78 75 3c 7c 96 1f 3e 60 da 51 3b
       0.122063406 0.014982393 0.15584749 0.003202103
0002a0 a6 ea 17 3e 04 a5 9b 3e ac f4 47 3d be 1e 3d be
       0.14835605 0.30399334 0.04881732 -0.18468758
0002b0 79 29 88 3d dd 3b 34 3d 86 1a b6 3d fd c5 f7 3d
       0.06648535 0.044002403 0.08891778 0.1209831
0002c0 c2 5b 20 3d e9 f8 0b 3e fc c4 8e 3e 6e fd 85 be
       0.039150007 0.1366917 0.27884662 -0.26169914
0002d0 e8 b8 98 3c 9d e2 e7 be ee c9 58 3e 08 83 9f 3c
       0.018642858 -0.4529008 0.2117078 0.01947166
0002e0 d4 93 2b 3e ac cb 8d 3d 33 e3 1a 3e 0f 2f d6 be
       0.1675561 0.06923613 0.15125732 -0.41832778
0002f0 28 c8 59 3e 22 2f 6e bd 24 01 93 be f8 07 6c 3e
       0.2126776 -0.058150418 -0.28711808 0.23049915
000300 ae 47 9b bd a7 c1 68 3e 8c 04 b1 3d 18 2a 6d 3d
       -0.07582031 0.22730123 0.086434454 0.05790147
000310 8c 17 03 be 5c 8d 5d 3e 2e ab 8f 3d 32 d6 38 3e
       -0.12801951 0.21635956 0.07015072 0.18050459
000320 cb 9d 06 3e e0 0c 02 be 90 e0 03 bc 02 db d8 bc
       0.1314613 -0.12700224 -0.008049145 -0.026471619
000330 9b ea 81 be 42 34 23 be 04 75 29 3c 66 83 00 be
       -0.25374302 -0.15937904 0.01034284 -0.12550125
000340 c9 26 6b be 26 3f 0c 3d f6 f8 f7 bd 98 b3 d7 bb
       -0.22964014 0.03423991 -0.121080324 -0.0065826885
000350 b2 52 ad bd b0 dc e0 bd 9d ca 38 be 68 59 9e 3d
       -0.084630385 -0.10979593 -0.18046041 0.07731897
000360 42 4b 99 3e 95 95 53 3e 73 86 d4 3d 00 16 00 be
       0.2994023 0.2066253 0.10377207 -0.12508392
000370 e0 02 4f be 46 fb bc bd 99 29 8e bd 80 a0 d1 3b
       -0.2021594 -0.09227614 -0.06941528 0.006397307
000380 ba 34 f3 bd 3a f1 a2 bd da 9c 9b 3e b3 d0 86 3e
       -0.11875291 -0.079561666 0.30393106 0.263311
000390 02 53 a7 3e f9 b9 3b 3e 00 2b c3 3a c6 4c 2d 3e
       0.32680517 0.18332662 0.0014890134 0.16923818
0003a0 58 f0 61 3c 23 ab 68 be 17 87 7b 3e c2 c6 2a 3e
       0.013790213 -0.22721533 0.24563251 0.16677383
0003b0 fb ad ec 3c c7 5e cd bd 9e dd 96 3d e4 49 14 3e
       0.028891554 -0.10027843 0.07366489 0.14481312
0003c0 4a 43 ba 3d 64 b8 a7 3d 60 9f 3f bc cf d3 36 be
       0.090948656 0.081894666 -0.011695713 -0.17854236
0003d0 74 e6 c2 3e d8 b9 c7 bd 28 d5 92 be 96 d3 68 be
       0.38066447 -0.09752244 -0.2867825 -0.22736964
0003e0 21 7e cc bd c8 af fe 3d b0 9f 60 3d 32 9a 20 3d
       -0.09984995 0.12435871 0.05483979 0.039209552
0003f0 7a a5 ea 3c ee 0e 97 3d 16 70 a6 be 3d 3c 7e bd
       0.028643358 0.073758945 -0.3250739 -0.062069166

lstm.lstm.bias_ih_l0 f4 [400]
000000 15 9c f5 bd 68 cc 8d bd 6c de c5 3d 38 04 95 bc
       -0.11992661 -0.06923753 0.09661564 -0.018190488
000010 34 bf 21 3e e6 97 1c 3f a9 69 fb 3c b1 30 d1 bd
       0.15795594 0.6116928 0.030690031 -0.10214365
000020 d4 96 16 be ea c9 a4 3d d4 fd a0 3c 31 ef f1 3c
       -0.14705974 0.080463246 0.019652285 0.029533
000030 4f ef 82 3e 31 0c 93 3e 0c 47 32 bd f0 56 73 3d
       0.25573203 0.2872024 -0.043524787 0.059409082
000040 52 b1 61 3e c8 71 99 bd 7c d3 74 be db 8a 35 3d
       0.22040299 -0.07492405 -0.239088 0.044321876
000050 f8 0f de bc 03 fc 2c bd c4 b8 a0 3e 28 39 dd 3d
       -0.027107224 -0.042232525 0.31390965 0.10801917
000060 b6 90 c7 3d 76 a8 7e 3e 8e 8e 4e bd e1 54 53 be
       0.09744398 0.2486895 -0.05042892 -0.20637847
000070 8e 1c e4 3e 7e ac 02 be c3 94 a9 bd e7 ec d0 bc
       0.44553035 -0.12761113 -0.08280327 -0.025503589
000080 80 07 d2 ba 2d b1 15 3e 4e 88 2d be 8d 33 2e be
       -0.0016023964 0.14618368 -0.16946527 -0.17011853
000090 f3 bd c1 be 1b 79 40 3d e3 70 9d be 47 8f 17 be
       -0.37840232 0.046990495 -0.30750188 -0.1480075
0000a0 b2 02 44 3e 05 17 34 3e ce ca 46 be 94 13 a4 bc
       0.19141653 0.17586906 -0.19413301 -0.020028867
0000b0 cc d2 96 3e ca f8 12 3e f5 3b 87 be 1a f5 99 3d
       0.294577 0.14352718 -0.2641293 0.075174525
0000c0 fc 72 7a be 6c 63 02 3d 29 a2 08 3e b8 fd bc bd
       -0.24457926 0.031833097 0.13343109 -0.092280805
0000d0 52 17 03 be 06 ab ab 3d 2e eb 0f 3e 5a ff a7 3e
       -0.12801865 0.083822295 0.14054558 0.32812005
0000e0 28 f2 46 be 1c d2 21 be ce 0b 9e 3e 34 e5 57 3e
       -0.19428313 -0.15802807 0.3086838 0.21083528
0000f0 25 c5 99 bd 14 21 99 3c 56 fb af 3e 15 0b 12 be
       -0.075083055 0.01869253 0.34371442 -0.1426204
000100 58 9f c1 3c cd 8d 6f 3d ca 28 f3 bd f2 f1 82 3e
       0.023635551 0.05848484 -0.11873014 0.25575215
000110 06 f4 47 3e 1d 4d 98 3e 09 4d 81 be af cd 92 be
       0.19526681 0.29746333 -0.25254086 -0.2867255
000120 fd 87 a9 3e f8 0c 78 3d 84 7c c0 bd 20 4b 35 bb
       0.33111563 0.060559243 -0.093987495 -0.0027663186
000130 13 21 07 3e ee e1 38 3e 73 3c 28 3e ff b6 49 be
       0.1319621 0.18054935 0.1642931 -0.19698714
000140 34 e2 4a be fa c1 22 bc 10 2c 49 3d 7c e2 d2 3d
       -0.19812852 -0.009933943 0.049114287 0.10297105
000150 e7 2e a5 be 28 6c 1d 3d e8 eb 95 3d 2f a9 b0 3c
       -0.32262346 0.038433224 0.07320386 0.021565048
000160 3f 27 1c bd 13 ef 95 3e 74 11 97 3d 24 19 87 3e
       -0.038123365 0.29283962 0.07376376 0.26386368
000170 c4 62 5d bd 4d 1b 65 be 64 9c 77 3d 04 f5 e8 bd
       -0.05404927 -0.22373696 0.06045188 -0.11374858
000180 09 b1 8d 3d 81 e1 ea 3c ee 83 33 3e 5c 81 40 3d
       0.069185324 0.028671982 0.17530796 0.046998367
000190 a0 8c a9 bc 00 e3 eb 3e d8 1e b0 be 29 03 05 3e
       -0.020696938 0.46071625 -0.34398532 0.12989487
0001a0 1b 13 28 3e 3c da f0 3c 4c 32 54 3e 43 d5 76 bd
       0.16413538 0.029400937 0.20722312 -0.060261976
0001b0 0f 52 20 bd 6a 8b c0 3d 7d 06 45 be 76 c8 10 3e
       -0.039140757 0.09401591 -0.19240756 0.1413897
0001c0 cf b7 8a be 66 1f 2c be df e8 87 3d c0 a8 69 bd
       -0.2709336 -0.16808853 0.066362135 -0.0570457
0001d0 62 f7 09 3e ce 1f 70 3e 7c 93 09 3e db c4 3d be
       0.13473275 0.23449633 0.13435167 -0.18532126
0001e0 9e 3c 91 3e 5c 56 71 3e e6 6c b8 be 90 b6 3b 3d
       0.2836656 0.235681 -0.36020583 0.045828402
0001f0 7f 43 4c 3e 46 2d 75 be da 57 b3 bd bc 8f 8b bd
       0.19947623 -0.23943052 -0.08756991 -0.068145245
000200 a6 c7 75 3e 87 8c a4 be a7 a8 33 3e bc 0b e0 3c
       0.24001941 -0.32138464 0.17544805 0.027349345
000210 54 33 8f 3e 34 79 02 be 40 ba 2f be 21 28 c3 bd
       0.27968848 -0.12741548 -0.17160892 -0.09529138
000220 c0 bf 0a bc d0 2b 02 be ea b6 49 3d dc 49 d9 bd
       -0.008468568 -0.12712026 0.049246706 -0.10609791
000230 38 3d 91 3d 32 3d 41 3d 63 47 19 3d da 83 49 3e
       0.07091755 0.0471775 0.037421595 0.19679204
000240 74 ae 3b 3e ce b8 95 3e 3d 83 a8 3e aa b7 39 bd
       0.18328267 0.29242557 0.32912627 -0.04534117
000250 1f b8 6e bd 30 84 82 3d 1c 76 05 3e aa f0 05 3d
       -0.05828106 0.06372869 0.13033336 0.03270022
000260 d6 d5 44 3e fc 13 c0 3d 80 41 f0 bd dc ef 84 bd
       0.19222197 0.09378812 -0.11731243 -0.06491062
000270 0e a7 1a 3e 11 5d d3 bd c2 c9 4a 3d 75 52 7d 3d
       0.15102789 -0.103204854 0.049508817 0.061846215
000280 b2 8a 88 3e 4e fa f7 bd 80 c2 82 3b 8b c9 92 be
       0.26668316 -0.12108289 0.0039904714 -0.2866939
000290 2e 90 dc 3e 75 9b 11 3e 09 00 80 3e ed 47 ea 3d
       0.4307875 0.14219458 0.25000027 0.114395
0002a0 c6 ed f2 be 2b 7e 0b 3f a3 fc 85 3e f6 27 df bd
       -0.47447032 0.5448939 0.2616931 -0.10896294
0002b0 1d 72 47 3e 4d 3d 4c 3e 20 d1 b3 bb d6 dd 91 be
       0.19477125 0.1994526 -0.005487576 -0.2848956
0002c0 ed 51 3c bd 3e 1f 75 3e 51 01 f7 be 6c b3 b3 bd
       -0.045976568 0.23937699 -0.48243192 -0.087744564
0002d0 1b 7e 07 3e 0e b6 a2 be 5c 7f 3a be 80 6a 63 3d
       0.13231699 -0.31779522 -0.18212646 0.05552149
0002e0 6a 1f 5f 3d 2e ef aa bd 1d be 3c be 60 aa cf be
       0.05447332 -0.08346401 -0.18431897 -0.40559673
0002f0 bd 83 c3 3d 02 dd 1b 3e ef 44 3c bd 08 7e 06 3d
       0.095466115 0.15221027 -0.045964178 0.032835037
000300 30 48 04 bd 64 e9 dd bd 62 0d 64 be 0b 53 62 3e
       -0.032295406 -0.10835531 -0.2227073 0.22101991
000310 39 75 7e be f2 33 50 3d 7d 4a 44 be 38 cf f1 3d
       -0.24849404 0.05083079 -0.1916904 0.11807102
000320 98 55 0d be 9c 56 47 3c 00 1d 7f bb 63 b8 35 3e
       -0.13802183 0.012166645 -0.0038927197 0.17746119
000330 0e b5 44 3d 4e 39 b8 be 82 ad b2 3e d8 36 a1 be
       0.04802423 -0.3598122 0.34898 -0.31487155
000340 3e 82 9a bd 63 c1 46 3d f0 b9 84 3e 70 fa fb 3c
       -0.07544373 0.04852427 0.2592311 0.030759066
000350 1f 3a 19 3e 88 78 22 bc 54 13 99 bd 2e ae 3f 3e
       0.14963578 -0.009916432 -0.0747439 0.18718788
000360 2a ed 8f be e0 75 18 bd 60 2f f6 3a 6c 57 3e be
       -0.2811063 -0.03722179 0.0018782429 -0.18588036
000370 dc 80 3b bd ec 92 82 3e 13 e9 0e be cc 63 94 3e
       -0.045777187 0.25502717 -0.13956098 0.2898239
000380 56 4e 20 3e d8 a0 13 3e 69 73 14 be d2 92 99 be
       0.15654883 0.14416826 -0.1449715 -0.29994828
000390 58 42 eb 3c 40 88 46 3d de b9 23 bd d6 5b cd 3d
       0.028718159 0.048469782 -0.03997218 0.10027282
0003a0 12 51 3e 3d bc 1b f3 bd c8 a6 d8 3c 69 c7 bc 3d
       0.046464033 -0.11870524 0.026446715 0.09217722
0003b0 2a c5 56 be 19 d0 ea be de a4 60 3e f0 f6 85 3c
       -0.2097365 -0.4586189 0.21937892 0.0163531
0003c0 be 6c 21 3d 56 92 fe 3d 0a b2 5f be 92 76 84 3d
       0.039410345 0.12430255 -0.2184526 0.06467928
0003d0 89 fb e7 bd 08 51 80 bd d1 5c c0 3e c6 72 e6 3e
       -0.113272734 -0.062654555 0.37570813 0.4500944
0003e0 c3 6b a4 3d c8 25 5f be 70 95 b9 be 70 85 f7 bd
       0.080283664 -0.21791756 -0.36246824 -0.12085998
0003f0 f8 96 d7 3c b4 72 d1 bd 8c ee ec bd 26 bc b4 be
       0.026317105 -0.10226956 -0.11568937 -0.35299796

lstm.lstm.bias_hh_l0 f4 [400]
000000 c2 43 29 be 6f da 0f be c1 0b 89 bd dc 3b 9b 3d
       -0.16529754 -0.1404817 -0.06691695 0.07579777
000010 10 8e 9a 3d 88 41 81 bc 52 95 06 be b8 84 41 be
       0.075466275 -0.015778318 -0.13142899 -0.18898284
000020 d3 de 5f 3d 20 44 02 3e 5b 86 85 be 40 06 28 3d
       0.05465586 0.127213 -0.26079068 0.041021585
000030 0c 18 77 3e ee 90 2e bd d2 cb 6a 3e 19 45 26 3e
       0.24130267 -0.042618684 0.22929314 0.16237296
000040 36 9f 0f 3e e5 82 9a 3e a0 4d 7e bc 6c 86 50 3c
       0.14025578 0.3017799 -0.015521437 0.012727361
000050 1b 2d 2e 3d 92 d9 36 3e fa a0 c4 be 0b 80 fe bd
       0.042523485 0.17856434 -0.38404065 -0.12426766
000060 53 2d 32 3e 20 0f 0a be 9e fc 81 bd e0 4d 87 3c
       0.17400102 -0.13482332 -0.06347011 0.016516626
000070 c9 5c aa bd b5 52 80 3d 84 25 25 be 30 42 25 3e
       -0.083184786 0.06265775 -0.16127592 0.1613853
000080 18 7f 59 3e 19 b2 4b 3e e5 59 ae bd 3c 47 04 3e
       0.21239889 0.19892158 -0.0851324 0.12917799
000090 1b 5a 89 be 32 3f a4 3d 9c e0 ba bc 63 9f 82 3e
       -0.26826558 0.08019866 -0.02281218 0.25512227
0000a0 b8 ef 9a be 88 98 95 be 44 9b 59 be 92 82 b0 3e
       -0.30261016 -0.29217935 -0.21250635 0.34474617
0000b0 29 87 96 3d 76 81 a1 3d 40 f8 5b 3e 66 cc 87 3e
       0.073499985 0.07886021 0.21481419 0.2652313
0000c0 f6 a0 c1 3e 2f 2e 15 3d 5a d8 81 3e eb 69 62 be
       0.37818116 0.036420997 0.25360376 -0.22110717
0000d0 d2 16 91 3d e0 95 e4 be 7e 59 ba 3d 78 74 23 bd
       0.07084431 -0.44645596 0.090991005 -0.039905995
0000e0 b5 26 a4 bd a2 6d 8b 3c 13 f1 d8 be d0 03 df bb
       -0.08015195 0.01702005 -0.42371425 -0.0068058744
0000f0 b2 14 f9 bd 3b 02 90 3d 3d c6 ad 3d ae 05 ae 3d
       -0.121621504 0.070316754 0.084850766 0.08497177
000100 52 62 be bd de 52 08 3e 50 75 92 3e a0 e3 f2 3b
       -0.09296097 0.13312861 0.28605127 0.007412389
000110 4c b8 b1 3e 85 48 bc bd 3c 3c 05 3d b5 2e 66 be
       0.3471092 -0.091935195 0.032528147 -0.22478755
000120 83 a7 2a 3e a6 da 9f 3d 86 b3 25 bd 62 ab a6 3d
       0.16665463 0.07805376 -0.04045441 0.081381574
000130 e1 c4 1d 3d 34 39 08 be 4c 02 13 be 18 da 6b bd
       0.038517836 -0.13303071 -0.14356345 -0.057581037
000140 1e bc 11 be 58 37 a1 3e 2b 6e 7b be 4a ba 83 3d
       -0.14231917 0.31487536 -0.24553744 0.06432016
000150 40 bf d4 ba 3a 72 71 3d b0 6d 0d bd ca 78 20 bd
       -0.0016231313 0.058946826 -0.034528434 -0.039177693
000160 e9 b6 1b 3e fe 2d fd 3d 40 10 95 3c a2 10 67 3e
       0.15206493 0.12362288 0.018196225 0.22564939
000170 0a 2d b9 bc 6e 3a 8b be eb 8f 79 3e 5c 3f 52 bd
       -0.022604484 -0.27193016 0.24371307 -0.051329955
000180 3c 67 b5 bd 1a 30 7c be 01 e7 f7 bc 04 aa 79 3e
       -0.08857581 -0.24627724 -0.030261518 0.24381262
000190 b2 8d 4f bd 08 31 a0 bd 46 42 e7 bd 95 bd 0a be
       -0.05067224 -0.07821852 -0.112919375 -0.13548882
0001a0 68 e3 35 ba 0e 11 22 be 90 29 89 3e 38 d7 b2 be
       -0.0006938488 -0.15826818 0.26789522 -0.34929824
0001b0 9a 3b 6d 3e 54 33 ce be ff 89 14 3d 77 1d fd bd
       0.23167267 -0.40273535 0.036264416 -0.123591356
0001c0 1a 36 57 be 6c a1 29 bd 22 de e7 be 40 49 4b 3e
       -0.21016732 -0.04141371 -0.4528666 0.19852161
0001d0 3c 87 c7 3d 2e 15 29 3e 86 72 0c 3e a4 83 0b 3e
       0.09742591 0.16511986 0.13715562 0.13624436
0001e0 d0 a0 87 be a4 19 9a be 28 9d 08 be 8d 95 9e be
       -0.26489878 -0.30097687 -0.133412 -0.30973473
0001f0 9c 95 23 3e 94 4c 0a 3f aa f7 a4 3c f2 13 12 be
       0.1597504 0.540231 0.020137627 -0.14265421
000200 4f c6 23 be 1c 85 95 3d a3 29 6f bd 8e d6 50 3d
       -0.15993617 0.07300779 -0.058389317 0.050985865
000210 2c 3f ac be 14 fc 4f bd 84 97 2d 3e 5a 35 47 be
       -0.33641946 -0.05077751 0.1695233 -0.19453946
000220 0e a9 d7 bd 8e b2 07 bc ce 3a 17 be 0c f6 6c bd
       -0.105302915 -0.008282317 -0.14768526 -0.057851836
000230 1a c0 3d 3e 70 f6 80 be 4c 85 82 bd 04 0c 2e be
       0.18530312 -0.25188017 -0.063730806 -0.16996771
000240 35 f8 98 3e 65 56 bf bd 20 05 7b be be 8f bf 3d
       0.29876867 -0.0934265 -0.24513674 0.093535885
000250 20 0c ee 3d 42 1c 39 3d 25 2c 83 bd 19 93 97 be
       0.116234064 0.045192964 -0.06404904 -0.29604414
000260 8d 8e b0 3e 04 19 92 3e 74 30 78 3d aa b1 52 be
       0.34483758 0.2853471 0.060593084 -0.20575586
000270 b0 56 9b 3e 28 90 80 be 1d 3b 6d 3e 3e 3e dc 3c
       0.30339575 -0.25109982 0.23167081 0.026885148
000280 8e 2b 86 be 81 b5 79 be e5 41 a4 bd d9 01 b8 bd
       -0.26205105 -0.24385644 -0.08020381 -0.089847274
000290 c4 b4 0e 3e 99 1a b5 be f9 55 a0 bd 3c 88 9f 3d
       0.13936144 -0.35371855 -0.07828898 0.077896565
0002a0 6c 55 48 bc e4 7e bf be 30 d7 55 3d 28 ed 77 3e
       -0.012227397 -0.37401497 0.052207172 0.24211562
0002b0 58 bb 89 3d 7c 35 05 3d 5a 53 1c be d8 41 b7 3d
       0.06725186 0.03252171 -0.15266171 0.089481056
0002c0 ec e8 98 be 05 02 79 3e 40 6a 93 bd 3e f2 c6 3d
       -0.29865205 0.24317177 -0.07198 0.09714173
0002d0 d5 44 cf bd f0 12 15 3e 78 cd 84 3e a8 42 6a 3e
       -0.101205505 0.14558005 0.2593801 0.2287699
0002e0 72 7b e6 bd aa 55 f8 bd c6 07 a4 bd 4c 55 5c bd
       -0.11254014 -0.12125714 -0.08009295 -0.053792283
0002f0 50 d9 ed bd 4a 3e 65 bd 85 1b 67 3e de 6f 54 3e
       -0.11613715 -0.055967607 0.22569092 0.20745799
000300 ab c1 a0 bd c3 75 dd 3d a7 6c ad 3e d6 1e 49 3e
       -0.07849439 0.10813477 0.33871958 0.19640669
000310 28 80 c9 bd a9 55 54 3d 08 fd 93 3c 12 13 8a be
       -0.09838897 0.051839504 0.01806499 -0.26967674
000320 9c 99 b7 bd b6 3e a0 be 48 31 fd 3c ea 2d f7 bd
       -0.089648455 -0.31297845 0.030907288 -0.12069304
000330 63 34 d3 bd 4b ee ab 3d ed 10 3e 3d ac 5c 8c bd
       -0.10312726 0.0839506 0.04640286 -0.06853613
000340 ae d3 98 be db eb d7 3e 0d 53 1b be bf 84 dc 3d
       -0.29849 0.4217213 -0.151684 0.10767507
000350 76 6e 27 be 5a d1 db bd 9c 06 e6 bd fe 73 5a bd
       -0.16350731 -0.1073329 -0.112317294 -0.053333275
000360 40 a1 a2 bd 8a ee 2c be db 0f c5 3e 31 ef 7e be
       -0.07940912 -0.1688787 0.3848866 -0.24895932
000370 50 45 05 bd c4 d9 f1 bd f6 da 25 3e 50 22 b9 bb
       -0.032536805 -0.118091136 0.16196808 -0.0056498423
000380 b1 fc 06 3e 45 69 9c 3d c8 ee 74 3e 66 fe ab 3c
       0.13182332 0.07637266 0.23919213 0.02099533
000390 b6 55 1a be ec 16 5a be 42 aa 49 3e 28 af 91 be
       -0.15071759 -0.21297807 0.19693854 -0.28453946
0003a0 f3 bf 94 bd 30 a5 9d 3e 7a 95 e5 3d 3c 61 80 be
       -0.07263174 0.3079009 0.11210151 -0.25074184
0003b0 cf 68 cc 3c 30 93 14 be d0 70 34 3e 12 91 f5 bd
       0.02495232 -0.14509273 0.1762116 -0.119905606
0003c0 14 5f a6 be e4 cb 6c 3d 7c e0 57 3e f9 2b a0 3c
       -0.32494414 0.057811633 0.21081728 0.019552218
0003d0 11 fd a3 bd de 03 b9 3c 5a de 7b 3d a0 71 59 be
       -0.08007253 0.022584852 0.061491348 -0.21234751
0003e0 86 48 ee bd 15 08 1a 3e 27 34 f3 3d 46 91 b0 be
       -0.116349265 0.15042146 0.11875182 -0.34485835
0003f0 18 6c 2c 3e 04 fb 65 be 1a 5a 52 3c 54 81 32 be
       0.1683811 -0.22459036 0.012838865 -0.17432147

attn_weights.weight f4 [1, 100]
000000 7c 36 1c be 12 53 07 be 2c 4d 0a 3d 10 9e 5d bd
       -0.15255159 -0.13215283 0.033765003 -0.05410582
000010 c0 1a 39 3e ee dc be be 3d 7e 50 3d 4b 00 3f 3d
       0.1807661 -0.3727793 0.05090164 0.04663114
000020 21 f7 81 bd b5 a9 70 be 09 d8 84 be 76 6b 78 3d
       -0.06345964 -0.23502238 -0.25946072 0.060649358
000030 f1 81 18 3d fc fa 06 be a8 1d 04 3e 01 9d 74 3d
       0.037233297 -0.1318168 0.12901938 0.059720043
000040 b4 26 96 3d bc 1e 91 3e f7 fa 9c bc 02 d6 fe 3d
       0.07331601 0.2834376 -0.019162638 0.124431625
000050 82 41 32 bd d6 41 9b 3e 85 27 77 3e 7c cf 6d 3e
       -0.043519504 0.30323666 0.24136169 0.2322368
000060 70 2c 39 3e 63 38 50 3e 27 9c cb 3d a2 b1 10 3e
       0.18083358 0.2033401 0.09941893 0.14130262
000070 a0 9b 9f ba f8 6e 7f 3d 1c d3 fb 3c 95 44 4a 3e
       -0.0012177117 0.062361687 0.030740313 0.19752724
000080 85 e6 ab 3d 96 62 1d 3d ad f3 5d 3e a4 c5 d1 bd
       0.083935775 0.038424097 0.21674986 -0.10242775
000090 d5 ca 19 be d1 9c 0f be b4 73 82 be 10 21 3c be
       -0.1501878 -0.14024664 -0.254789 -0.18371987
0000a0 e5 18 2e 3e 06 b8 8a 3e 28 62 1f 3d 40 60 9a be
       0.17001684 0.27093524 0.03891197 -0.30151558
0000b0 b3 3e a7 be 5a e9 8d be f0 7f 70 be 2c 3b b7 3e
       -0.32665023 -0.27717096 -0.23486304 0.35787332
0000c0 5a fa 0e 3e 5c ae 05 be c4 cc bc 3c 76 b5 db bd
       0.13962689 -0.13054794 0.023046859 -0.1072797
0000d0 4e 44 3c be a8 e9 a0 3e 8e fc dd bd 5d da 8c be
       -0.18385431 0.31428266 -0.108391866 -0.27510348
0000e0 60 ab f6 bc b6 b1 64 be f2 be 25 bd 94 4f 1c 3e
       -0.030111015 -0.22333416 -0.040465303 0.15264732
0000f0 ee 68 0d 3e 78 2f 8b 3d 6a b5 c9 bd 20 af 5b bc
       0.13809559 0.06796163 -0.09849055 -0.013408452
000100 36 4e ca bd 5a 22 0a 3d 4d 32 84 bd 08 5e c9 bc
       -0.09878199 0.033724166 -0.064549066 -0.02458097
000110 f6 17 c4 bd 4c 57 db 3e d8 ac 3c be 08 5e 23 3e
       -0.09574883 0.4284004 -0.1842531 0.15953839
000120 90 4c d4 3e 63 bd b8 bd 0a 76 8c be 60 e9 8f bd
       0.41464663 -0.09020498 -0.27433807 -0.070269346
000130 38 7d 86 bd 7d 9c d2 be b6 40 3a be d0 94 0c be
       -0.06566852 -0.41135016 -0.18188748 -0.13728642
000140 cc f7 99 3e ba d2 7e 3d cc 08 b5 3d 3c 5d 25 be
       0.30071867 0.062212683 0.088395685 -0.16148847
000150 b2 ca 00 3e 88 d6 55 be 6d 02 ef bd 5c a0 0e bd
       0.12577322 -0.20882618 -0.116703846 -0.0348209
000160 02 c2 c8 bd a6 06 4d 3e 4e 9d 4f 3d cc 5b 11 be
       -0.09802629 0.20022067 0.050687127 -0.14195174
000170 e2 c9 0a be 90 c3 f0 bd 6f a5 fb 3c 02 6d a4 3c
       -0.13553575 -0.117560506 0.030718533 0.02007151
000180 53 96 c4 bd 54 b1 12 3e 69 f1 5b 3d 20 01 68 be
       -0.095989846 0.14325458 0.053697024 -0.22656679

linear.weight f4 [1, 100]
000000 60 3d 49 bd a5 65 bb 3d 8c 43 c1 bd 13 fa 24 3e
       -0.049130797 0.091502465 -0.09436712 0.1611102
000010 91 84 0d 3e ff bf 67 3d 2c 31 fa 3d b1 32 0c 3d
       0.13820101 0.056579586 0.1221641 0.03422803
000020 53 5e 90 be 00 9a 7e 3d 3e 10 4a 3e 65 43 3b 3d
       -0.28196964 0.062158585 0.19732758 0.04571857
000030 2e bb f9 bd 8e 88 c5 3d 8c 80 b3 3c ec f0 1b 3e
       -0.12193905 0.09645186 0.021911882 0.15228623
000040 d6 16 12 be 20 a5 6b 3d ea 1c 00 3e 78 e9 10 3c
       -0.14266524 0.057530522 0.1251103 0.008844726
000050 b7 4a bb bc c0 6a 1f be 80 c6 f5 3b 80 31 f6 3a
       -0.022862775 -0.15568066 0.0075004697 0.0018783063
000060 00 ed 9e ba 98 fb b0 3e 74 f4 48 bd 5e de 1d be
       -0.0012125075 0.3456695 -0.049061254 -0.15416858
000070 56 e7 06 3d c0 d2 63 3d f2 7a b7 3e 9b 25 58 bd
       0.032935463 0.05562091 0.35835987 -0.05277024
000080 f4 00 11 3e 34 70 db bc 68 f5 72 3d fe 44 51 3e
       0.1416052 -0.026786901 0.05931607 0.20436475
000090 a0 ae c2 be 9b d7 a7 3d 84 b0 89 3e 37 7a fe 3d
       -0.38023853 0.0819542 0.26892483 0.124256544
0000a0 e7 dc ba bd 10 94 48 be ce 91 3d 3d 80 f7 92 be
       -0.09124165 -0.19587731 0.04628163 -0.28704453
0000b0 22 d6 11 3e 28 86 a0 3d a7 e8 f2 bd 23 10 dc 3d
       0.14241841 0.07838088 -0.11860781 0.10745265
0000c0 26 fb 94 3d 48 70 27 3e 30 ac db 3e e3 76 ac 3c
       0.07274465 0.16351426 0.42904806 0.021052783
0000d0 ac 11 99 bc d5 2f 31 3e 6c 81 b0 bc cd 50 4b be
       -0.018685184 0.17303403 -0.021546088 -0.19855042
0000e0 02 2d 04 3e 7e ca e9 be cd 3c 1d 3e 08 08 35 bd
       0.12907794 -0.45662302 0.15355225 -0.044197112
0000f0 27 59 46 bd 1a 5e 4a bd c8 18 5a be 22 13 59 bd
       -0.048424866 -0.04940615 -0.21298516 -0.052996762
000100 fc bb 36 be a2 7c be bd 5c 58 7d 3e 0e 18 d6 3d
       -0.17845148 -0.093011156 0.24740738 0.10453807
000110 f0 9b 2c be c8 92 da bd 70 2c 5f 3e 06 d0 c2 be
       -0.1685636 -0.106725276 0.21794295 -0.38049334
000120 3e c2 ea bc cc 9b a1 3e dc de 48 3d f6 38 6b be
       -0.028657075 0.31564176 0.04904066 -0.22970948
000130 ca 82 03 3d d8 c4 21 bd 2c 29 d8 bd 8f 0d 78 3e
       0.032107152 -0.039494365 -0.10554728 0.24223922
000140 87 ed b8 3d fb eb 40 be 42 3f e8 3d 4b ee 26 3d
       0.0902968 -0.1884002 0.113401905 0.040754598
000150 09 36 50 3d 66 a5 d0 bd 20 23 6f 3e 6c d7 18 3e
       0.050832782 -0.10187797 0.23353243 0.14925927
000160 70 14 86 3e e1 9b c0 bd 15 15 5b 3d 30 f8 82 be
       0.26187468 -0.094047315 0.053486902 -0.25579977
000170 35 2b 8b be 1c 1c 19 3c 90 6a 0d 3e 72 a5 98 3d
       -0.27181402 0.009345081 0.13810182 0.07453431
000180 6b eb bf 3e f8 8b d4 bb 0c 69 c2 bd 96 fd a9 3d
       0.37484297 -0.006486412 -0.09492692 0.08300321
