results/attention_ga_bs8_sl90_ep5/model.pt (torch_old, 166987 bytes, 6 tensors)

lstm.lstm.weight_ih_l0 f4 [400, 1]
0.116344534 0.07177077 0.08423618 0.3474298 -0.51090634 -0.37335604 0.11802422 -0.13101274
-0.022520795 0.3715244 0.20505951 0.1673639 -0.001789324 0.36118776 0.22217679 -0.14137767
0.054106697 0.17130151 -0.0825658 0.14841779 0.27864045 -0.1711208 -0.4998986 0.16155593
-0.19330761 -0.23652357 -0.09842953 -0.17487022 -0.09506382 0.009448614 -0.20989405 0.28960782
0.2444146 0.045251116 -0.016130418 0.2396418 0.2096755 0.15443097 -0.028429635 0.09382349
0.043318003 0.09684411 0.039633974 -0.21453127 0.0236018 -0.019133862 0.33746484 0.5733617
0.18754862 -0.28005087 -0.018191408 -0.31020427 -0.08571242 0.23862836 0.095837615 -0.10354536
-0.028024532 0.10329926 -0.16106579 -0.27331036 -0.049491152 -0.022151385 0.1489173 0.32802594
0.3343844 0.031552598 0.2917449 -0.049747437 0.09928034 -0.39439815 -0.15178312 -0.051077276
-0.28084448 -0.2459582 -0.17750694 -0.05330226 0.25194815 0.23778702 0.015239958 -0.05799445
0.22152829 0.1387559 -0.11723088 -0.044572044 0.07547994 0.034683026 -0.2845687 -0.13118754
0.17297734 0.37627023 -0.42491847 0.33927447 -0.021955496 0.19154224 0.07025698 -0.42840093
-0.015155889 0.36081827 -0.08199999 -0.23471656 0.080199465 -0.16125897 0.010284677 -0.21678826
0.2526097 0.4408571 0.10037668 0.10941766 -0.19456276 0.07473289 0.05946358 0.1060754
0.30171847 0.17755018 -0.0027525127 -0.20338053 -0.25997818 0.08432331 0.22420847 -0.069803745
0.15952048 0.33090183 -0.30494943 0.031882986 0.0064828843 -0.19573833 -0.22606483 0.013907906
-0.19748533 -0.00717669 0.0786244 0.104183435 0.07137516 -0.09001136 0.10052822 -0.002416715
0.11100163 -0.28221723 -0.15607005 0.12855683 0.16572955 0.058800474 -0.1689289 0.08170656
0.40283644 0.060260814 0.08991055 0.12473957 0.31595415 0.40631244 0.08553091 0.02409315
0.50168705 -0.06387749 0.16620433 0.20745063 0.043345258 0.06544064 -0.35262054 0.14230199
0.11821198 -0.35453 -0.08150658 -0.31756353 -0.09547895 -0.17423263 -0.07517144 -0.17627619
-0.099318825 -0.031348646 -0.36237264 -0.20764488 0.17689466 -0.58941126 0.41996133 -0.35022813
-0.5169108 0.2832886 -0.10438809 0.23212282 0.039092712 0.08271855 0.32014748 0.13936025
-0.2612136 0.2740567 -0.22080314 0.10776243 0.13219045 0.1686855 -0.22244328 0.08955842
0.052934494 0.03091633 -0.020047717 -0.11007181 0.2825617 0.19085802 0.24999526 0.25864714
0.04736802 -0.012325443 0.0075572785 -0.26786077 0.07911565 0.2548924 -0.08871669 -0.016491681
-0.3019488 0.056846216 -0.10641296 0.047576673 0.20183106 -0.0050101653 -0.18405147 -0.47339848
0.15019655 0.02135477 -0.04104565 0.022341013 0.07850823 -0.0039017573 -0.1017995 0.21471122
-0.19204807 -0.12455201 -0.060356855 -0.17350519 0.40781775 0.08714855 -0.16642125 0.21924615
-0.040094994 -0.15054223 -0.071494326 0.09409894 -0.12954251 -0.18657024 0.18452622 0.16098198
-0.41543454 0.057433452 -0.09109703 -0.103413686 0.04909095 -0.1056748 0.21740893 0.19526136
0.2372177 0.18525702 0.08274903 -0.19416115 0.05921178 -0.13661924 0.3366252 -0.1350578
00000000: 0b46 ee3d 8efc 923d 0584 ac3d 52e2 b13e
00000010: c2ca 02bf 8628 bfbe afb6 f13d 3428 06be
00000020: 887d b8bc 7238 be3e 1ffb 513e 7161 2b3e
00000030: c087 eaba 9aed b83e 5082 633e 4fc5 10be
00000040: fc9e 5d3d aa69 2f3e 4218 a9bd d5fa 173e
00000050: f6a9 8e3e 4a3a 2fbe b6f2 ffbe eb6e 253e
00000060: 6ef2 45be 3c33 72be 6c95 c9bd 2e11 33be
00000070: d2b0 c2bd 5cce 1a3c 77ee 56be 7a47 943e
00000080: d247 7a3e 3c59 393d f023 84bc a964 753e
00000090: 2db5 563e 2723 1e3e 44e5 e8bc 8826 c03d
000000a0: 386e 313d 3456 c63d 3c57 223d 16ae 5bbe
000000b0: 9058 c13c 9ebe 9cbc 31c8 ac3e d5c7 123f
000000c0: bf0c 403e d462 8fbe 2606 95bc 18d3 9ebe
000000d0: fe89 afbd fe5a 743e 8346 c43d 970f d4bd
000000e0: b493 e5bc 908e d33d 6eee 24be 56ef 8bbe
000000f0: 3cb7 4abd d276 b5bc c77d 183e 04f3 a73e
00000100: 6f34 ab3e 4c3d 013d 965f 953e f8c3 4bbd
00000110: 7e53 cb3d 8eee c9be 096d 1bbe 6836 51bd
00000120: d9ca 8fbe 77dc 7bbe 61c4 35be 7853 5abd
00000130: 59ff 803e 717e 733e 04b1 793c 978b 6dbd
00000140: 50d8 623e 0716 0e3e be16 f0bd 2d91 36bd
00000150: 3a95 9a3d ca0f 0e3d fdb2 91be 0756 06be
00000160: f920 313e 7ea6 c03e ea8e d9be 62b5 ad3e
00000170: 03dc b3bc a623 443e e4e2 8f3d 5e57 dbbe
00000180: 6850 78bc 2cbd b83e 9cef a7bd 8a59 70be
00000190: 9e3f a43d 1221 25be 1081 283c befd 5dbe
000001a0: 0f56 813e 06b8 e13e 4a92 cd3d 5e16 e03d
000001b0: 763b 47be 8f0d 993d 1590 733d 0f3e d93d
000001c0: d87a 9a3e b7cf 353e 8063 34bb fc42 50be
000001d0: dc1b 85be b3b1 ac3d e896 653e 44f5 8ebd
000001e0: 5659 233e f76b a93e 5522 9cbe bc97 023d
000001f0: 606e d43b a16f 48be 8a7d 67be fcdd 633c
00000200: 9839 4abe 702a ebbb d405 a13d 205e d53d
00000210: 242d 923d e057 b8bd bde1 cd3d c061 1ebb
00000220: d354 e33d c77e 90be d4d0 1fbe 67a4 033e
00000230: 02b5 293e c4d8 703d b3fb 2cbe c555 a73d
00000240: 9440 ce3e 0bd4 763d 0623 b83d 7677 ff3d
00000250: bec4 a13e 2f08 d03e d42a af3d ff5e c53c
00000260: 906e 003f 34d2 82bd 7831 2a3e f06d 543e
00000270: cc8a 313d be05 863d ae8a b4be 9db7 113e
00000280: 1f19 f23d f584 b5be ecec a6bd b097 a2be
00000290: 788a c3bd 0a6a 32be 7cf3 99bd bf81 34be
000002a0: ab67 cbbd 7067 00bd e888 b9be dca0 54be
000002b0: e023 353e a8e3 16bf 2c05 d73e 1a51 b3be
000002c0: 4454 04bf 340b 913e 6cc9 d5bd 9bb1 6d3e
000002d0: ae1f 203d 5868 a93d 5fea a33e 74b4 0e3e
000002e0: cabd 85be 2951 8c3e 381a 62be 8db2 dc3d
000002f0: ef5c 073e e4bb 2c3e 2cc8 63be 686a b73d
00000300: d7d1 583d 3e44 fd3c 1c3b a4bc 546d e1bd
00000310: edab 903e 4970 433e c2fe 7f3e 666d 843e
00000320: f804 423d a8f0 49bc 0ca3 f73b 0c25 89be
00000330: 6307 a23d 4281 823e 19b1 b5bd 9019 87bc
00000340: 0899 9abe 94d7 683d 0aef d9bd c2df 423d
00000350: cdac 4e3e 502c a4bb fd77 3cbe 4961 f2be
00000360: 20cd 193e 33f0 ae3c 7c1f 28bd 8004 b73c
00000370: ecc8 a03d a0b4 7fbb 427c d0bd 42dd 5b3e
00000380: 40a8 44be 2015 ffbd c038 77bd 58ab 31be
00000390: 7dcd d03e f07a b23d 556a 2abe 1082 603e
000003a0: a63a 24bd be27 1abe 9e6b 92bd f2b6 c03d
000003b0: cba6 04be 450c 3fbe 71f4 3c3e 76d8 243e
000003c0: d6b3 d4be 573f 6b3d 1491 babd 8eca d3bd
000003d0: 9813 493d 086c d8bd 72a0 5e3e 98f2 473e
000003e0: 32e9 723e 04b4 3d3e 5378 a93d 2ed2 46be
000003f0: 0d88 723d eae5 0bbe 235a ac3e 984c 0abe

lstm.lstm.weight_hh_l0 f4 [400, 100]
-0.090058595 0.31586465 -0.12553644 0.2306356 -0.21281268 0.042953245 -0.061688457 0.07192268
0.17710742 0.1797061 -0.24954954 0.041572966 -0.051856782 -0.28452742 0.02122913 -0.32364392
-0.056954995 -0.17400095 0.37138456 -0.009166889 -0.044426136 -0.50665075 -0.10077349 -0.19008988
-0.124192394 0.21343201 -0.44070268 -0.121979915 0.12831302 0.0044555888 -0.4335419 0.026996136
0.13797683 -0.056069158 0.18515226 0.37237108 -0.02507443 -0.2140738 -0.14984623 0.09237089
0.07278468 0.20292337 -0.23040634 -0.12198894 -0.031140916 -0.22179078 0.07293931 0.127668
-0.13649045 -0.079239026 0.22826964 -0.09076596 -0.052580304 0.011805695 0.35402256 0.2938988
-0.18177271 -0.17148164 0.08200624 -0.30957675 0.19084306 0.16374165 0.0911811 -0.0983176
-0.041777898 0.03793157 -0.32127982 0.30063123 -0.06860369 -0.10798196 -0.0076063164 -0.014352471
-0.17984475 -0.11810669 -0.38854215 0.004565101 -0.1902536 0.15928626 0.07592966 -0.19385745
0.10301174 0.048641898 0.25787446 0.098348536 -0.077811345 -0.062808596 -0.33441496 0.17315131
0.16058391 0.4354412 -0.12868822 0.0005205646 -0.04059737 -0.18310893 0.2262162 -0.18480484
0.08970925 0.034397393 0.12594903 -0.019162253 -0.079231896 -0.09140531 -0.10773023 -0.051878385
-0.037993774 0.1333744 -0.024414722 0.44130173 0.16627955 -0.13109134 -0.31080484 0.06799318
0.27263832 -0.40692288 -0.12322613 0.14234363 -0.048384637 0.31717408 -0.25307894 0.19519992
0.056583412 -0.17445557 -0.19497946 0.030528173 0.22187947 0.23488523 0.34854946 -0.45388594
0.049164936 0.19303067 0.2151488 -0.08880323 -0.094899915 0.002967563 0.111562505 -0.042959414
0.23200527 0.13417786 0.2255194 0.11161277 0.0009584129 0.15238506 -0.027306125 -0.33249024
-0.02649755 -0.29372886 0.023943953 0.19060948 0.22857802 0.07608521 -0.13215214 -0.4689019
-0.20791605 0.4365843 -0.42725602 0.22898945 0.079964116 0.12621546 0.5791351 -0.14199987
-0.20878556 -0.28865352 0.42831638 -0.23961523 -0.023557983 0.19645688 0.2405746 -0.018510323
-0.41751823 -0.35420197 0.1648592 -0.38826513 0.073142834 0.0090749785 0.096373536 -0.14769146
-0.17048636 -0.38051832 -0.10802749 -0.111156404 -0.041517418 -0.20260885 -0.1739928 -0.432126
-0.12526542 -0.034515318 0.31048793 -0.11444563 0.021171346 0.07854665 -0.066824734 -0.36745355
-0.20933264 -0.16045596 -0.026109964 0.27810872 -0.16414173 -0.020386806 0.3681767 0.18151602
0.38252866 -0.24550544 0.05684624 -0.05593183 -0.1017047 0.19549401 0.101155944 0.31729943
-0.0782675 0.022107214 0.4370168 0.015295967 -0.22785443 0.14706545 0.15278845 -0.03492068
-0.39098984 -0.032427788 -0.08630724 0.015934274 0.53731465 0.08861583 -0.017481245 -0.23660326
0.41166878 -0.103706345 0.022412617 0.07398915 -0.03426642 0.07205901 -0.109909765 0.26314792
0.34009618 -0.25214696 0.083177924 0.07013606 0.097807504 0.006896585 0.08414309 -0.11583911
-0.3000914 -0.53392243 -0.013503917 0.11600446 -0.07682346 -0.026571978 0.105338484 -0.013722923
0.07063854 -0.0108465105 -0.1420429 0.22884223 -0.15781447 0.012277968 -0.25452167 -0.41984195
00000000: a470 b8bd 03b9 a13e a08c 00be bd2b 6c3e
00000010: 91eb 59be beef 2f3d 09ad 7cbd 334c 933d
00000020: a65b 353e e004 383e ea89 7fbe 6a48 2a3d
00000030: c767 54bd 94ad 91be b6e8 ad3c a8b4 a5be
00000040: a449 69bd 4e2d 32be 1e26 be3e b830 16bc
00000050: 2ef8 35bd ddb3 01bf 5562 cebd eca6 42be
00000060: 9558 febd ec8d 5a3e c8a3 e1be 9bd0 f9bd
00000070: 7d64 033e 3000 923b 34f9 ddbe 0027 dd3c
00000080: cc49 0d3e c6a8 65bd 8e98 3d3e 6ca7 be3e
00000090: e468 cdbc 2a36 5bbe 4a71 19be f32c bd3d
000000a0: 2210 953d 25cb 4f3e a4ef 6bbe 56d5 f9bd
000000b0: 3c1b ffbc 1f1d 63be 3461 953d 66bb 023e
000000c0: 27c4 0bbe 1248 a2bd 84bf 693e 81e3 b9bd
000000d0: 725e 57bd ac6c 413c 7242 b53e e779 963e
000000e0: a022 3abe e298 2fbe e3f2 a73d d880 9ebe
000000f0: 5d6c 433e e4ab 273e 28bd ba3d bd5a c9bd
00000100: 4d1f 2bbd 225e 1b3d ca7e a4be 56ec 993e
00000110: 1780 8cbd a525 ddbd 683e f9bb a026 6bbc
00000120: 3929 38be ece1 f1bd ffee c6be d896 953b
00000130: d7d1 42be f01b 233e 0281 9b3d 9182 46be
00000140: d2f7 d23d ba3c 473d 1f08 843e f56a c93d
00000150: 8e5b 9fbd cba1 80bd 7038 abbe 944e 313e
00000160: 1c70 243e 26f2 de3e d8c6 03be 8076 083a
00000170: 6e49 26bd e880 3bbe 38a5 673e 7b3d 3dbe
00000180: 7cb9 b73d 48e4 0c3d c8f8 003e 28fa 9cbc
00000190: 5544 a2bd b532 bbbd aba1 dcbd 6e7e 54bd
000001a0: 5c9f 1bbd 4c93 083e 6201 c8bc 4df2 e13e
000001b0: 3045 2a3e cf3c 06be d021 9fbe 0240 8b3d
000001c0: 4097 8b3e 3258 d0be fb5d fcbd 87c2 113e
000001d0: f82e 46bd a464 a23e 9093 81be 7de2 473e
000001e0: 02c4 673d 7ba4 32be b2a8 47be 3816 fa3c
000001f0: 5f34 633e c185 703e 1375 b23e bd63 e8be
00000200: 2c61 493d d5a9 453e f84f 5c3e 78de b5bd
00000210: e35a c2bd 727b 423b e27a e43d 36f6 2fbd
00000220: ca92 6d3e ec65 093e 8fee 663e 3c95 e43d
00000230: 003e 7b3a d40a 1c3e 18b1 dfbc 293c aabe
00000240: 6411 d9bc a163 96be 1c26 c43c 222f 433e
00000250: 5b10 6a3e 90d2 9b3d e452 07be e913 f0be
00000260: f2e7 54be fa87 df3e 4dc1 dabe 367c 6a3e
00000270: 3ac4 a33d a03e 013e 3342 143f 6a68 11be
00000280: e2cb 55be 65ca 93be 494c db3e b25d 75be
00000290: acfc c0bc fe2b 493e 3059 763e f6a2 97bc
000002a0: f3c4 d5be f659 b5be dad0 283e b0ca c6be
000002b0: e9cb 953d 38af 143c 7d5f c53d 6e3c 17be
000002c0: fa93 2ebe 4cd3 c2be 843d ddbd f8a5 e3bd
000002d0: 2b0e 2abd b278 4fbe 2b2b 32be 9e3f ddbe
000002e0: 9445 00be ef5f 0dbd 46f8 9e3e 7862 eabd
000002f0: 886f ad3c 11dd a03d 68db 88bd df22 bcbe
00000300: 4c5b 56be 914e 24be 90e4 d5bc 4464 8e3e
00000310: c514 28be 3b02 a7bc a881 bc3e 56df 393e
00000320: ccda c33e c765 7bbe 9ad7 683d c618 65bd
00000330: 8e4a d0bd 952f 483e d92a cf3d 1275 a23e
00000340: b64a a0bd 301a b53c aac0 df3e f09b 7a3c
00000350: ac52 69be 5398 163e 9374 1c3e fd08 0fbd
00000360: d22f c8be 00d3 04bd dac1 b0bd 9888 823c
00000370: 748d 093f 377c b53d d434 8fbc 2048 72be
00000380: 40c6 d23e fe63 d4bd aa9a b73c a087 973d
00000390: f25a 0cbd ad93 933d 5f18 e1bd 53bb 863e
000003a0: 1621 ae3e 6819 81be 3059 aa3d 7fa3 8f3d
000003b0: 4d4f c83d c0fc e13b 3653 ac3d 0e3d edbd
000003c0: 94a5 99be 24af 08bf 883f 5dbc bf93 ed3d
000003d0: 9e55 9dbd 7aad d9bc b4bb d73d 1cd6 60bc
000003e0: f0aa 903d 90b5 31bc b273 11be 9e55 6a3e
000003f0: 1e9a 21be 8829 493c aa50 82be 86f5 d6be

lstm.lstm.bias_ih_l0 f4 [400]
0.1220722 0.2819912 -0.12791456 0.18280701 -0.08517721 0.35824093 -0.1782367 -0.110335246
-0.124260016 -0.3263456 -0.13420974 -0.013856769 0.04511425 0.20496358 -0.049006026 -0.12959144
-0.0270679 -0.28069448 0.069535345 -0.18388283 0.66510993 -0.1684191 0.23707674 -0.033310484
0.16826563 0.27432886 0.12475705 0.1432686 -0.028957043 0.28893256 0.010150716 0.047866415
-0.24504241 0.1307047 0.047885288 -0.010949455 -0.20963624 0.32192516 0.27796277 -0.007971157
0.26001728 0.21649238 0.35644537 0.15205425 -0.1128171 -0.09628105 -0.36026248 0.27398348
-0.2025533 0.21367273 -0.032338828 -0.0727315 0.26136705 0.2173903 0.32315397 0.13829038
-0.123512864 -0.17414546 0.18521744 -0.31236598 0.36059016 0.36106712 -0.3324346 -0.19448124
-0.020420298 -0.10025032 0.015997227 0.5299025 -0.3536757 0.04911806 0.17077449 0.05422938
0.18469918 -0.1054161 0.015586685 0.13760008 -0.02022615 0.28013563 0.06708847 -0.24627215
0.13044295 -0.08045536 0.28025013 -0.116185874 0.2738073 -0.0264875 0.06515771 -0.32341164
-0.01817178 0.2164531 -0.01720342 0.1394082 0.19165507 -0.080322616 0.41264609 0.17092073
0.12848589 -0.24143715 0.26451373 -0.13190274 0.08905968 0.6102428 0.035092346 -0.20864281
0.017275278 0.08238985 0.82228965 0.050875034 -0.305798 0.24781574 0.17835462 -0.15877636
0.023399413 0.18294604 0.38805005 -0.12327639 -0.1478237 0.03755038 0.26474032 0.14001589
-0.15215148 -0.17190012 -0.24235195 -0.37229314 0.03826007 -0.34536237 0.40673375 -0.21682936
-0.038324736 0.009686738 0.08153671 0.045440093 -0.009338323 -0.075341985 0.24574235 -0.21329084
0.11539055 0.057369024 0.05858561 0.09141162 0.09773145 -0.14223221 0.009552445 -0.079002954
-0.13447912 0.032575194 -0.1423327 0.06638091 -0.056814753 -0.11468105 0.37958527 0.0743334
-0.0034138486 -0.3202745 0.03317538 0.07087218 0.028911877 0.09319228 0.074476294 0.089394346
0.19879611 -0.064178266 0.14062583 -0.40837264 -0.12777257 0.084744655 0.14818034 -0.067929246
-0.1032347 -0.1784927 0.057715263 0.16508053 0.12834644 0.26442182 -0.13644801 0.26312488
-0.023370713 -0.15342051 -0.2834584 -0.11620507 0.060225934 0.024191365 0.18363105 0.10485731
0.043845568 -0.44752303 0.1259405 0.21192692 -0.12874557 -0.037884817 -0.14966834 0.09091371
-0.06265249 -0.09083199 -0.092945755 -0.07399434 0.015711587 0.007310696 -0.23629855 0.0325908
0.30247632 0.34041554 -0.010273415 -0.23696959 -0.17152719 0.020881291 -0.24750656 0.108384885
-0.13243124 -0.2544253 -0.03443514 -0.1347497 0.22503394 0.0026242805 -0.07550694 0.1775602
-0.020609673 0.042727023 -0.08002132 0.45333534 0.0021824539 0.29132396 -0.021967843 0.31500477
0.02864892 -0.08204436 0.41741097 0.24631846 0.06810565 0.02030626 -0.27285993 0.023453891
0.21777883 -0.0344993 0.37529448 0.1316477 -0.17878045 -0.19273615 0.051853325 0.123422995
0.0047861338 -0.12322366 -0.0071579814 0.17891473 0.24551539 0.19474049 -0.0061899116 -0.030197144
-0.024629576 0.27808946 0.29332024 -0.3332926 0.2720632 0.23370592 0.15476458 -0.2366421
00000000: fd00 fa3d 2761 903e 09fc 02be c331 3b3e
00000010: 6471 aebd 5b6b b73e ae83 36be 72f7 e1bd
00000020: 097c febd c516 a7be 476e 09be 8007 63bc
00000030: b8c9 383d f9e1 513e 8bba 48bd 9eb3 04be
00000040: 80bd ddbc 30b7 8fbe 8c68 8e3d c84b 3cbe
00000050: a544 2a3f 0e76 2cbe 3fc4 723e 9370 08bd
00000060: d34d 2c3e d574 8c3e a080 ff3d 01b5 123e
00000070: 5237 edbc f8ee 933e 304f 263c 930f 443d
00000080: 66ec 7abe 74d7 053e 5d23 443d 5865 33bc
00000090: e2aa 56be 60d3 a43e 2351 8e3e 7599 02bc
000000a0: fc20 853e 2eb0 5d3e 0280 b63e 1cb4 1b3e
000000b0: a70c e7bd 002f c5bd 5374 b8be 9047 8c3e
000000c0: 226a 4fbe 06cd 5a3e b875 04bd 41f4 94bd
000000d0: e7d1 853e 909b 5e3e 7074 a53e fe9b 0d3e
000000e0: 50f4 fcbd 3053 32be a4a9 3d3e 6fee 9fbe
000000f0: 469f b83e cadd b83e de34 aabe 1726 47be
00000100: 7848 a7bc 0a50 cdbd 9e0c 833c b1a7 073f
00000110: fb14 b5be 0530 493d 82df 2e3e a01f 5e3d
00000120: c821 3d3e 65e4 d7bd 4c5f 7f3c 09e7 0c3e
00000130: 50b1 a5bc f06d 8f3e ae65 893d c42e 7cbe
00000140: d692 053e c8c5 a4bd f27c 8f3e dcf2 edbd
00000150: 7830 8c3e 50fc d8bc 6871 853d 3696 a5be
00000160: fcdc 94bc e2a5 5d3e 30ee 8cbc 06c1 0e3e
00000170: 3a41 443e 2f80 a4bd 5946 d33e d805 2f3e
00000180: ce91 033e 4d3b 77be 586e 873e 8311 07be
00000190: ec64 b63d df38 1c3f febc 0f3d 76a6 55be
000001a0: e284 8d3c 02bc a83d 9381 523f 5762 503d
000001b0: 8e91 9cbe 69c3 7d3e 98a2 363e 4596 22be
000001c0: 20b0 bf3c 3556 3b3e 7fae c63e 5578 fcbd
000001d0: 195f 17be 6dce 193d 0b8c 873e 5360 0f3e
000001e0: 99cd 1bbe 9606 30be 1c2b 78be 359d bebe
000001f0: 97b6 1c3d 56d3 b0be 683f d03e 8408 5ebe
00000200: 66fa 1cbd 20b5 1e3c b8fc a63d 641f 3a3d
00000210: c4ff 18bc e64c 9abd e2a3 7b3e ea68 5abe
00000220: e151 ec3d c8fb 6a3d 77f7 6f3d 0436 bb3d
00000230: 6d27 c83d 52a5 11be dc81 1c3c 4dcc a1bd
00000240: e5b4 09be 916d 053d aabf 11be b7f2 873d
00000250: 96b6 68bd e6dd eabd 0059 c23e 1c3c 983d
00000260: e0ba 5fbb 05fb a3be e8e2 073d 6f25 913d
00000270: 9ad8 ec3c 98db be3d 0787 983d 6214 b73d
00000280: 3591 4b3e e56f 83bd 3800 103e 3816 d1be
00000290: d0d6 02be 9b8e ad3d 96bc 173e 7d1e 8bbd
000002a0: b76c d3bd cac6 36be d766 6c3d df0a 293e
000002b0: 406d 033e 4c62 873e 07b9 0bbe 4eb8 863e
000002c0: f073 bfbc 441a 1dbe 7621 91be ecfc edbd
000002d0: 78af 763d f82c c63c c709 3c3e 6ebf d63d
000002e0: 6997 333d bd21 e5be 8cf6 003e 5f03 593e
000002f0: e1d5 03be 1c2d 1bbd a842 19be f830 ba3d
00000300: f34f 80bd 1f06 babd 585a bebd 588a 97bd
00000310: 96b5 803c 908e ef3b 3ff8 71be ee7d 053d
00000320: 2dde 9a3e f24a ae3e d351 28bc 28a8 72be
00000330: d3a4 2fbe 3e0f ab3c 5c72 7dbe e5f8 dd3d
00000340: 0e9c 07be 0844 82be dd0b 0dbd d3fb 09be
00000350: 4c6f 663e 1ffc 2b3b 62a3 9abd 57d2 353e
00000360: 9ed5 a8bc 8802 2f3d 38e2 a3bd 921b e83e
00000370: 8007 0f3b 6a28 953e e8f5 b3bc 4e48 a13e
00000380: 24b1 ea3c e006 a8bd e4b6 d53e e83a 7c3e
00000390: fa7a 8b3d 5059 a63c 4cb4 8bbe 6022 c03c
000003a0: 6a01 5f3e 234f 0dbd 9926 c03e a8ce 063e
000003b0: 3912 37be a05c 45be 2764 543d 32c5 fc3d
000003c0: 00d5 9c3b b05c fcbd 808d eabb 6c35 373e
000003d0: 6368 7b3e 0d6a 473e bed4 cabb 0060 f7bc
000003e0: f7c3 c9bc be61 8e3e 122e 963e 54a5 aabe
000003f0: de4b 8b3e 9b50 6f3e 9b7a 1e3e 4f52 72be

lstm.lstm.bias_hh_l0 f4 [400]
-0.28992164 -0.2514811 -0.20625415 0.20707656 0.206155 -0.11063425 0.043162555 -0.17504416
-0.036272287 -0.08740186 0.2528618 -0.4057454 0.16407861 0.19947183 -0.1456613 -0.11690065
0.24097294 -0.27208245 0.19549344 -0.08214943 0.025179997 0.25200033 0.04807925 0.2610718
0.25744995 0.08782382 -0.06633489 0.09266633 -0.22811365 -0.008310633 0.2744603 -0.12819445
0.1419348 0.1528866 0.23048967 0.4819883 0.22484115 0.4146247 0.035453238 0.15144175
-0.22218648 -0.121016204 -0.21874061 -0.3622209 0.2317703 -0.1838232 0.45282835 0.18238528
0.023597384 0.1469307 -0.09472514 0.10557164 0.26162708 0.13468277 -0.32435864 -0.3906534
-0.23812054 0.2370728 0.26892412 0.15885939 0.033843234 -0.067805864 -0.10799822 -0.41544968
-0.093105204 -0.037682805 -0.32383105 -0.023994014 -0.44988087 -0.04361029 -0.241427 -0.02003453
-0.13986517 -0.41636315 -0.10643928 0.302891 0.074027814 0.024881797 0.01956898 0.14419483
0.30982524 0.142482 0.15443318 -0.13120946 0.042447083 0.031801235 0.5047705 -0.019780919
0.36216676 0.14094612 -0.22953671 0.07521898 -0.0015241206 -0.23012826 0.10721504 -0.04218111
-0.033900924 -0.27960742 0.008923627 0.11060827 -0.07316284 0.2984199 0.16601086 -0.13083893
0.14180963 0.55707556 0.10656725 0.13432151 -0.05031175 0.020172587 0.258804 -0.011798836
0.13594005 0.5771732 0.25769237 0.15476024 -0.08409445 -0.3166788 0.33310977 0.2883868
-0.23765492 0.098413855 -0.031600334 0.3609519 0.081412725 -0.2248945 -0.16579273 0.019392826
0.1647487 -0.09073131 -0.28295198 0.05444063 0.14843866 -0.0657171 0.07378899 -0.08259038
0.016304292 0.49025214 0.16781345 -0.040766563 -0.16633777 0.14881924 0.14065683 -0.40733355
0.16263486 -0.24165258 -0.32404453 -0.01132044 -0.38213173 -0.19241321 0.5294509 -0.14056334
-0.23991933 0.16775827 -0.0868921 0.2581708 -0.12140182 -0.27747723 -0.4513732 -0.06122591
0.3222383 -0.2215093 -0.030295562 0.055234578 0.44233522 -0.23434427 -0.38959846 -0.013018794
0.09283265 -0.053589206 0.02046442 0.27400693 0.12712891 0.2044547 0.2556303 0.104103744
0.1719331 0.15199235 0.14962782 0.013436839 0.11211497 0.1538905 -0.5734656 0.14991088
-0.26292032 0.25246352 0.2884859 -0.028578144 -0.29927963 -0.043435335 -0.099507645 -0.33574915
-0.29986355 0.14879158 0.14208707 0.12568648 0.16394013 0.104094096 -0.3939397 -0.08751021
0.06158471 0.12446868 0.05894362 -0.24821737 0.25443283 -0.59035194 0.03872303 -0.18777609
-0.21944174 0.08394852 -0.063520506 -0.021292616 0.29042184 -0.3408746 -0.14342906 -0.07189561
0.062016226 0.4338553 0.116232075 -0.21468309 0.16765256 0.3990422 -0.012440182 0.09338902
-0.2953887 -0.38307083 0.22380519 -0.2546767 -0.10855931 0.3816619 -0.35079375 0.11733648
-0.10308153 -0.20962639 0.019632977 0.008892067 0.010399833 0.26078302 0.38633084 -0.105354846
0.39835313 -0.06692822 -0.24985902 -0.27735323 0.35324153 -0.19990733 0.43838528 -0.04888746
0.10267748 0.12527259 -0.41405356 0.06665799 -0.20832166 0.254716 -0.05492986 -0.19671728
00000000: 9c70 94be 21c2 80be 4a34 53be e10b 543e
00000010: 4c1a 533e 3694 e2bd 38cb 303d c73e 33be
00000020: 4092 14bd bfff b2bd 1a77 813e dcbd cfbe
00000030: 3904 283e 5842 4c3e 3c28 15be 9c69 efbd
00000040: 9cc1 763e 644e 8bbe 6f2f 483e f63d a8bd
00000050: 4846 ce3c 3006 813e bfee 443d 34ab 853e
00000060: 7bd0 833e fadc b33d 96da 87bd d8c7 bd3d
00000070: a096 69be 5229 08bc 0f86 8c3e 6845 03be
00000080: 5b57 113e 4e8e 1c3e 7c05 6c3e 2cc7 f63e
00000090: c23c 663e b049 d43e 6a37 113d 8c13 1b3e
000000a0: da84 63be 58d7 f7bd 8afd 5fbe 0575 b9be
000000b0: 3255 6d3e 263c 3cbe 1ed9 e73e 35c3 3a3e
000000c0: 4d4f c13c 0075 163e 41ff c1bd f235 d83d
000000d0: fcf3 853e 48ea 093e 5612 a6be b903 c8be
000000e0: dfd5 73be 36c3 723e 6cb0 893e 09ac 223e
000000f0: 349f 0a3d cddd 8abd 2c2e ddbd d2b5 d4be
00000100: f1ad bebd 4959 1abd 2fcd a5be 188f c4bc
00000110: c956 e6be b4a0 32bd a438 77be 741f a4bc
00000120: d138 0fbe 8d2d d5be d6fc d9bd 8714 9b3e
00000130: e59b 973d e9d4 cb3c 204f a03c cfa7 133e
00000140: 6aa1 9e3e cde6 113e bb23 1e3e c65b 06be
00000150: fedc 2d3d 0342 023d a438 013f 980b a2bc
00000160: ec6d b93e 2e54 103e ac0b 6bbe 690c 9a3d
00000170: 00c5 c7ba bea6 6bbe 8f93 db3d 19c6 2cbd
00000180: b2db 0abd b428 8fbe 6834 123c 9786 e23d
00000190: 66d6 95bd 7eca 983e c0fe 293e a4fa 05be
000001a0: 8b36 113e 819c 0e3f ee3f da3d 948b 093e
000001b0: b213 4ebd fb40 a53c f581 843e e84f 41bc
000001c0: de33 0b3e 9fc1 133f 41f0 833e 7879 1e3e
000001d0: b639 acbd b923 a2be 5d8d aa3e 6fa7 933e
000001e0: d05b 73be 348d c93d 5a6f 01bd b0ce b83e
000001f0: b7bb a63d be4a 66be 92c5 29be b4dd 9e3c
00000200: e2b3 283e 56d1 b9bd 15df 90be 23fd 5e3d
00000210: 4e00 183e b096 86bd af1e 973d 2525 a9bd
00000220: 9490 853c 5402 fb3e 4ad7 2b3e d7fa 26bd
00000230: 7354 2abe 1264 183e 5808 103e 068e d0be
00000240: c189 263e c673 77be 2ae9 a5be 5e79 39bc
00000250: c5a6 c3be f807 45be 188a 073f d6ef 0fbe
00000260: 6aad 75be d3c8 2b3e 7cf4 b1bd f72e 843e
00000270: 84a1 f8bd 7f11 8ebe 631a e7be 05c8 7abd
00000280: 6bfc a43e 55d3 62be 662e f8bc a73d 623d
00000290: c379 e23e f2f7 6fbe 7379 c7be c84c 55bc
000002a0: 0b1f be3d 5b80 5bbd 00a5 a73c a34a 8c3e
000002b0: 152e 023e 935c 513e fae1 823e 5834 d53d
000002c0: 3b0f 303e e2a3 1b3e 0938 193e 3026 5c3c
000002d0: 899c e53d 7995 1d3e a4ce 12bf 3d82 193e
000002e0: 7e9d 86be e642 813e 6db4 933e b61c eabc
000002f0: 2e3b 99be 40e9 31bd aaca cbbd 50e7 abbe
00000300: b787 99be d25c 183e 467f 113e f5b3 003e
00000310: ecdf 273e 492f d53d 77b2 c9be 8e38 b3bd
00000320: 4040 7c3d 6fe9 fe3d de6e 713d b22c 7ebe
00000330: 0545 823e 4e21 17bf 0a9c 1e3d 6048 40be
00000340: 56b5 60be 34ed ab3d 0a17 82bd da6d aebc
00000350: 2cb2 943e 1e87 aebe 11df 12be 013e 93bd
00000360: ba04 7e3d 4822 de3e 150b ee3d e2d5 5bbe
00000370: 1dad 2b3e 424f cc3e e8d1 4bbc be42 bf3d
00000380: 303d 97be dc21 c4be 302d 653e fc64 82be
00000390: 5854 debd 3069 c33e 3d9b b3be 1c4e f03d
000003a0: 691c d3bd 4da8 56be 56d5 a03c 08b0 113c
000003b0: 1064 2a3c 5a85 853e 28cd c53e 48c4 d7bd
000003c0: f1f4 cb3e aa11 89bd 0bdb 7fbe 3e01 8ebe
000003d0: 13dc b43e 82b4 4cbe 0974 e03e 383e 48bd
000003e0: 9248 d23d 7547 003e d4fe d3be fc83 883d
000003f0: 4652 55be 236a 823e 22fe 60bd 4170 49be

attn_weights.weight f4 [1, 100]
-0.02337809 0.1320973 -0.15545535 -0.049144477 -0.15072645 -0.011705233 0.051930048 -0.025976729
0.19236271 -0.38144287 0.03055079 0.1268864 0.047337197 -0.06586638 -0.22134304 0.027954996
-0.03164755 -0.025940178 0.04672193 -0.09477453 0.017418638 0.18626978 -0.100700974 0.026399385
-0.24068716 0.05631827 -0.059293818 0.16916028 0.22149244 -0.321371 0.28730196 0.13395628
0.05107914 -0.10507536 -0.3969075 0.06033743 -0.10590792 -0.07756668 0.2545717 -0.18365881
0.121882 -0.034030337 -0.26841274 -0.26336178 0.4661898 0.19182596 -0.025125682 0.09876248
-0.37641466 -0.36192498 -0.26723215 0.13372028 -0.3153571 -0.09834296 0.02914308 -0.45606053
-0.056432292 0.05646932 -0.035112523 0.13143568 0.048390634 -0.12603082 0.14828949 0.23841444
-0.052156404 0.25717875 0.33665586 0.07575394 -0.16419555 -0.08638112 0.19529724 0.025115132
0.0138801 0.19342937 -0.19698244 -0.21330996 0.014100969 -0.0520584 0.117694095 0.09655639
-0.07550852 0.028021097 -0.07905701 -0.13069263 -0.41720352 0.073518105 0.150448 -0.10241951
-0.14882901 0.34015638 -0.024043903 0.02494897 0.0214079 -0.18440816 -0.17482957 0.23326087
-0.21483138 0.26936477 0.010266308 -0.23376262
00000000: 6883 bfbc 8444 073e b02f 1fbe b84b 49bd
00000010: 0958 1abe 4ec7 3fbc 9ab4 543d 26cd d4bc
00000020: bbfa 443e 7b4c c3be a645 fa3c 82ee 013e
00000030: a6e4 413d f4e4 86bd c0a7 62be e001 e53c
00000040: dda0 01bd 7f80 d4bc 7f5f 3f3d 2619 c2bd
00000050: 88b1 8e3c 81bd 3e3e 503c cebd 8643 d83c
00000060: b276 76be fcad 663d 13de 72bd 5a38 2d3e
00000070: eace 623e bd8a a4be 3e19 933e d62b 093e
00000080: 5c38 513d c031 d7bd 7637 cbbe 6224 773d
00000090: 40e6 d8bd 48db 9ebd 3957 823e 0e11 3cbe
000000a0: 459d f93d 6563 0bbd 656d 89be 5bd7 86be
000000b0: 6eb0 ee3e 066e 443e 60d4 cdbc fc43 ca3d
000000c0: 6cb9 c0be 3b4e b9be a7d2 88be f8ed 083e
000000d0: 7c76 a1be 0968 c9bd 78bd ee3c c480 e9be
000000e0: 8c25 67bd 604c 673d 26d2 0fbd 1397 063e
000000f0: 4235 463d 390e 01be 33d9 173e ea22 743e
00000100: f4a1 55bd efac 833e 285e ac3e e224 9b3d
00000110: e122 28be 96e8 b0bd 00fc 473e 40be cd3c
00000120: 5c69 633c 5912 463e c4b5 49be ed6d 5abe
00000130: c007 673c 303b 55bd 9a09 f13d 5bbf c53d
00000140: 36a4 9abd 808c e53c a4e8 a1bd 4ad4 05be
00000150: b39b d5be a990 963d 0a0f 1a3e 52c1 d1bd
00000160: a266 18be fa28 ae3e b8f7 c4bc c861 cc3c
00000170: 9f5f af3c 7ed5 3cbe 8606 33be f0db 6e3e
00000180: c2fc 5bbe 2eea 893e 0434 283c 785f 6fbe

linear.weight f4 [1, 100]
0.083873354 -0.16222198 -0.009818889 -0.09266258 0.12233342 -0.22403646 0.15414636 -0.36152688
-0.26807493 0.1917707 -0.5475957 0.30101934 0.118817985 -0.06483805 0.19344753 0.032188304
0.006317213 0.31060365 -0.28695104 -0.1033708 0.027714511 -0.014769461 -0.25822973 0.022356462
0.07704309 -0.08294645 0.0024219751 -0.023014218 -0.112221316 -0.06489356 0.054478467 0.05270271
-0.3302643 -0.35263932 0.19717842 0.21166714 -0.34869003 0.31680715 -0.034951504 0.16184083
-0.13059527 0.09422517 0.14998396 -0.17920202 -0.10688755 0.23765905 0.14753596 0.19735646
0.33393234 0.08105628 0.17528975 -0.09896099 -0.17404956 0.14895183 -0.11069808 -0.037646126
-0.28504965 -0.27143216 -0.2459105 -0.04297152 0.17601106 -0.29230136 -0.21211225 0.1783684
-0.21872835 -0.026743144 0.3802719 -0.11080785 -0.011183841 0.29980665 -0.06894704 0.29702607
-0.04346304 0.023755323 0.100797124 0.17146651 0.24053816 -0.1286906 0.35930696 0.10641461
-0.073083326 0.32884517 -0.54370975 -0.2807427 -0.027053602 0.11579468 0.11292024 -0.052814327
0.0891376 0.3248465 0.37406078 0.23961139 0.029922774 -0.20326272 0.15876994 0.19264853
0.20086864 0.20146106 0.3934436 0.033367284
00000000: cbc5 ab3d 851d 26be 68df 20bc e1c5 bdbd
00000010: f289 fa3d d069 65be 8bd8 1d3e 0d1a b9be
00000020: 1e41 89be 8a5f 443e 3b2f 0cbf 351f 9a3e
00000030: d856 f33d d0c9 84bd 1c17 463e e2d7 033d
00000040: a000 cf3b 7107 9f3e 3feb 92be 12b4 d3bd
00000050: 8b09 e33c 9cfb 71bc b036 84be e624 b73c
00000060: c4c8 9d3d d4df a9bd 00ba 1e3b 5088 bcbc
00000070: 4ad4 e5bd eae6 84bd d024 5f3d ccde 573d
00000080: 6718 a9be 248d b4be 24e9 493e 45bf 583e
00000090: 8087 b2be 8c34 a23e 4f29 0fbd 9ab9 253e
000000a0: c4ba 05be 20f9 c03d 6595 193e bc80 37be
000000b0: dce7 dabd e55c 733e ab13 173e d017 4a3e
000000c0: 2ef9 aa3e d600 a63d 287f 333e 0fac cabd
000000d0: 0c3a 32be d486 183e adb5 e2bd d332 1abd
000000e0: 07f2 91be 28f9 8abe f6cf 7bbe e802 30bd
000000f0: 3e3c 343e 86a8 95be f433 59be 35a6 363e
00000100: 53fa 5fbe 7014 dbbc 00b3 c23e 3aef e2bd
00000110: 6e3c 37bc 4280 993e 1b34 8dbd cd13 983e
00000120: 4d06 32bd 869a c23c b96e ce3d eb94 2f3e
00000130: a34f 763e 78c7 03be 15f7 b73e e7ef d93d
00000140: b6ac 95bd 655e a83e 9030 0bbf 82bd 8fbe
00000150: 849f ddbc c325 ed3d ba42 e73d d653 58bd
00000160: c68d b63d 4852 a63e e584 bf3e b05c 753e
00000170: 9b20 f53c 1a24 50be 9694 223e a845 453e
00000180: 82b0 4d3e cf4b 4e3e 7171 c93e 22ac 083d
